src/params/bias3.npy (npy, 680 bytes, 1 tensors)

array f8 [75]
0	0xbfe821334b839eff	-0.7540527796636239
1	0xbfdcdd7060a04cff	-0.4510155624022473
2	0xbfe35bb136a64190	-0.6049429004070124
3	0x3fdf6994bdba0a83	0.49081915405273707
4	0xbfe9529ef01216c2	-0.791335553062446
5	0x3fd09a35169e5a92	0.25941207131237676
6	0xbfe012f7e58d77a0	-0.5023154719781253
7	0x3fe35f5bef4a26fb	0.6053905175806159
8	0xbfbc0b91d83c17ac	-0.10955153969925274
9	0x3fe8acfe40e85c1b	0.7711173312881131
10	0xbfee3b6bb574a000	-0.9447535080007583
11	0xbfe83c25deb5b46d	-0.757342276554153
12	0xbff0a84b36ad7909	-1.041087354263768
13	0xbfe0343d6b233b18	-0.5063769428760194
14	0xbfe1f4168a418eb2	-0.561045904189504
15	0xbfd34db39a536e60	-0.30161752768410643
16	0xbfeb06e596d17b3f	-0.8445918985051789
17	0x3fe2954cf31bb1a2	0.5807251690107942
18	0xbfc612e7bf35c39e	-0.1724519427912385
19	0xbfed43d508bdeaca	-0.9145302935351876
20	0x3fb5edbb5a8981b7	0.08565875015620504
21	0x3fd7c53d89eb1a54	0.3714135977610671
22	0xbfbed376cdcae9ac	-0.12041418575510104
23	0xbfdc8903330a9010	-0.44586257919786565
24	0x3fe44e6de9bd4d72	0.634573894998921
25	0x3fe4b45e55bd7d80	0.6470176386464317
26	0x3fd0555d7693c140	0.2552102716426994
27	0xbff0e45a5daedff7	-1.0557502421852385
28	0xbfe787efab45d500	-0.735343775288726
29	0x3fe2d38fbf17d8dc	0.5883253795898571
30	0x3fc1eba02904a68b	0.14000322344627522
31	0x3fa6d8a48c687f33	0.044621603145286313
32	0xbfe7474bfd736dfa	-0.7274532270634488
33	0x3fec60ebbfd8626a	0.8868311640718052
34	0xbfd6ca2756ff8aea	-0.35608848091048506
35	0xbfcbf23e9447471d	-0.2183302139297262
36	0xbfe33197708e4a42	-0.5998036573749419
37	0xbfea2856b2d6a2d1	-0.8174241536081245
38	0x3fd6ac3099043102	0.35425963347439915
39	0x3fe210ebee126e93	0.5645656251758332
40	0xbfe6dca738b57946	-0.7144352061839434
41	0x3fe7783bd7858ddf	0.7334269723327757
42	0xbfe0ef59912922d8	-0.5292175135774313
43	0x3fb267b7dc797046	0.07189511425662073
44	0x3fd558e834a5a3a6	0.33355145589171753
45	0x3fe504f204e2e201	0.6568536849436556
46	0xbfcf9e6c04f30cb4	-0.24702215425177132
47	0xbfe7f7ef7b5c47a1	-0.7490155610450878
48	0xbfec19f5c284de52	-0.8781689452361638
49	0xbff0680adda7d98a	-1.0254009874748555
50	0xbfe83ec718ff336b	-0.7576632965297966
51	0xbfd75088d3274c16	-0.3642904340787835
52	0xbfd2c7168f16d5e2	-0.2934013745646934
53	0x3fe0ae7d2c228045	0.5212999212271902
54	0xbfdbb9d16b4a1e01	-0.4332164333104345
55	0xbfea293b795c1dea	-0.8175332422551354
56	0x3fb8b7daab00a0fd	0.09655539202561055
57	0x3fd47e5cdc9c6871	0.32021256965675265
58	0xbfe2ff78829a9232	-0.5936853934150064
59	0x3fd38261497b4009	0.3048327653496022
60	0x3fd0b0da32d2c766	0.26079421008318204
61	0xbfd14906c596a6c3	-0.27008218093633846
62	0x3fe2fad97c53ac9c	0.5931212833651389
63	0xbfe859a968bdeda1	-0.7609450383892417
64	0xbfe7517460c40465	-0.7286931886629985
65	0x3fdc809b6fe07fa4	0.44534955907328766
66	0xbf829453f93dbaaa	-0.009071975749717371
67	0x3fe718ec38910b67	0.7217923264328022
68	0x3fc326acc9eb47ef	0.1496177659924451
69	0xbfe14c3ab6841f81	-0.5405553402679147
70	0x3fb4e8740ba572bc	0.08167195591290527
71	0xbfcd4c20153a4377	-0.2288856605196334
72	0xbfe522fe81604c7c	-0.6605217482450736
73	0xbfc8c3b2c4dab031	-0.19347223865531896
74	0x3fdde0bc6152ba9a	0.46684178833212686
