src/params/bias3.npy (npy, 680 bytes, 1 tensors)

array f8 [75]
000000 21 79 5e 2a e9 bc c9 3f e1 c0 70 f2 61 40 e7 3f
       0.20107760018158508 0.726609204784861
000010 65 2f 82 95 64 5d ec 3f 00 da 79 f3 d2 61 ef 3f
       0.8864005012596691 0.9806914096250807
000020 54 4a 16 50 9a 92 c9 bf b2 85 19 e6 3c a0 e5 bf
       -0.1997864619302897 -0.6758102888235753
000030 84 8e 02 24 f8 64 e8 3f 5f be b7 8f 81 7c cf 3f
       0.7623253539390622 0.24598712460964386
000040 a9 04 ab ae 6a 01 e1 bf 64 7a 93 c1 54 01 e4 3f
       -0.5314229403958467 0.6251624851973472
000050 ff 64 43 d6 45 ce e4 3f 82 8d 54 5c bd 31 e7 bf
       0.6501797852353376 -0.7248217395139565
000060 aa 0e 9e ae 75 fb ec bf 18 17 d7 80 e6 18 e1 3f
       -0.9056957636352838 0.5342896000299531
000070 dd 73 2b 30 00 89 ed bf d2 96 5b 09 80 c9 e9 3f
       -0.9229737225356264 0.8058471853989551
000080 0d c4 98 24 69 a8 d7 3f 7e 32 95 32 5b 1f e1 bf
       0.3696539742841772 -0.5350776660867067
000090 dd 06 69 22 f1 f9 cc bf e2 2d ed 86 05 5d ee 3f
       -0.22637762241543316 0.948855174568447
0000a0 83 64 0c c1 ab b4 e7 bf c9 c0 b1 07 ef cf d2 3f
       -0.7408045549847347 0.2939412665500752
0000b0 99 1f 96 27 97 03 d1 3f 57 d9 8f 90 0a 38 98 3f
       0.2658441435419206 0.023651280473097582
0000c0 6d 20 27 b9 b3 3f ef 3f 45 6a 23 47 12 d5 d8 bf
       0.9765261284128549 -0.38800484606841606
0000d0 6f 81 40 28 91 dd f0 3f e5 96 77 f0 7c c3 ec 3f
       1.0540935108511709 0.8988632866500806
0000e0 a1 7a c3 05 df 11 ea bf f3 95 e4 36 10 b2 cc 3f
       -0.8146815407343021 0.22418406181638736
0000f0 e6 45 fa 71 94 28 d5 bf 05 30 4d a0 67 27 d3 bf
       -0.330601798349646 -0.29928007749981617
000100 de 8a b8 fa 4b 24 e0 bf d1 d7 0e 67 07 27 bd bf
       -0.5044307610408756 -0.11387678400100688
000110 ef 98 74 08 e1 b7 e2 bf f5 78 44 8d 47 bf ed 3f
       -0.5849461712976146 0.9295995482569014
000120 2f e4 64 9b 14 43 be 3f ad ba 5b 97 6e 5a dc 3f
       0.11821106714059292 0.44301953106961883
000130 8a 11 a2 d6 2d 26 c7 3f 08 ae e1 f7 50 ac ef bf
       0.18085263233309617 -0.9897847024380448
000140 b5 d0 ff dd 07 d1 ef bf 4a c6 1f 99 7b 0d e4 bf
       -0.9942664466784864 -0.6266458502488572
000150 e6 40 82 57 d9 96 d4 bf 09 80 fa e2 aa fe ed 3f
       -0.32170709176808854 0.9373373444723266
000160 e1 e4 b7 f1 6a 0e f0 3f ea 13 25 96 ef 94 e1 bf
       1.0035199586985117 -0.5494306499973594
000170 d5 8e 90 34 7d ed aa 3f 10 65 22 a4 88 45 e3 bf
       0.052593147913538786 -0.602238007140075
000180 2a af 82 36 23 d1 cb bf 03 bf 34 75 f2 2b da bf
       -0.21731987153668203 -0.40893231817152315
000190 d5 de e9 33 96 e7 ee 3f 71 49 b2 5d 63 9b d5 bf
       0.9657698644577645 -0.3376091399196844
0001a0 05 e0 60 8b ed 4f bb bf 39 2e 9d 72 fe a3 ec bf
       -0.1066883530883161 -0.8950187910608697
0001b0 28 b4 ba 5e 8e 0f e8 3f a7 6a e5 01 33 f6 e6 bf
       0.7518989420110573 -0.717553619101939
0001c0 9c bf e4 9b 2d 1f ec 3f f0 bd 1c 7b 73 28 ec bf
       0.8788059277339815 -0.8799378780876719
0001d0 ba c1 46 0f 46 78 b1 bf 92 1f d8 39 88 b6 d9 3f
       -0.06824148056944682 0.40176587723589663
0001e0 c2 48 27 59 af 33 c1 bf 98 ec 09 c8 34 6b c9 bf
       -0.13438979962535852 -0.1985841728927411
0001f0 10 7b 29 50 ba b4 b0 3f 53 31 65 b9 d6 88 c6 3f
       0.0652576871593562 0.17605098774437042
000200 dd e6 b5 57 1b a3 ef 3f b0 0e e1 6d 18 3e d2 bf
       0.9886604989144093 -0.285040004066313
000210 8d dc 30 f8 68 a7 d6 bf 0a 6f 71 8d 53 b6 ee 3f
       -0.35396789777173226 0.959756637817436
000220 69 19 16 4c f8 30 eb bf 2b 9c 8f 02 89 49 e7 bf
       -0.849727772337059 -0.7277264642733646
000230 cd e7 60 98 e9 17 e2 3f 98 ed 39 13 45 d4 d5 bf
       0.5654190040725041 -0.34108092191282813
000240 49 1d e9 91 e0 04 b3 bf 0a 8a 2f 0d cb 94 e0 bf
       -0.07429317056913932 -0.5181632287533955
000250 d3 25 ce 50 28 b4 d2 3f
       0.2922459401239312
