src/params/bias2.npy (npy, 1680 bytes, 1 tensors)

array f8 [200]
000000 ee cd d0 8c f8 d0 e8 3f f7 bb 66 ec c0 46 df bf
       0.7755091429048073 -0.4886934574705601
000010 f2 44 2c 9f 2a 3a e5 3f b1 db 5f aa 01 c6 e4 bf
       0.6633504017683249 -0.6491707160592936
000020 12 fe 64 8b ff b4 d8 bf 82 30 a9 bd 76 8c a1 3f
       -0.3860472546839172 0.03427477898785104
000030 75 80 a4 0b ac 38 d9 3f e7 01 0f b3 83 9d e7 bf
       0.3940839875886078 -0.7379778382528998
000040 82 05 e7 80 19 98 de 3f b9 41 32 d3 f4 b2 ec 3f
       0.47803342426421847 0.8968452572753939
000050 4e 63 0a 75 00 83 e8 bf ee 68 3c 4a 2b ec b1 bf
       -0.7659914289425644 -0.07000990450288544
000060 61 0f 75 c9 28 ca e6 bf 64 e2 fe be e7 cf e6 3f
       -0.7121776518547273 0.7128790598281509
000070 d3 1c 3c 33 79 b3 b4 3f d9 df 3c 28 96 7e e6 3f
       0.08086354733324023 0.702952459897456
000080 71 56 21 2d 66 b5 b4 3f 98 e0 9b a8 fb c7 be bf
       0.08089293100177898 -0.12023899904659385
000090 21 d5 38 97 72 46 ec bf ba 41 2f fa fb 27 d6 bf
       -0.8835995629839638 -0.3461904471596672
0000a0 da 81 3d 02 11 49 e5 3f 00 a7 0f 8e d5 75 e1 bf
       0.6651692432170038 -0.5456340574866942
0000b0 c2 c5 b9 33 17 92 e5 3f 14 e7 fa c6 69 09 aa bf
       0.6740833292262141 -0.050853066958962995
0000c0 c0 af 99 6d 63 3c b1 3f 7c 59 3a 58 f3 4a d3 3f
       0.0673277037219 0.30144961944588267
0000d0 da 78 bb 23 48 b9 e4 3f ae c8 fe 0e cb 54 d4 bf
       0.6476174066445097 -0.3176753660619721
0000e0 b9 f9 72 20 3f 22 e3 bf bb b0 55 83 43 21 b3 3f
       -0.5979304918071683 0.07472631412901169
0000f0 ad 0a 21 95 43 c6 af bf 78 4a 41 58 5c 35 e6 3f
       -0.062059509233696054 0.6940137599688816
000100 b8 f5 f8 70 12 3b ed 3f 6c 5c f7 d9 71 f8 99 3f
       0.9134609419340256 0.025361803940395708
000110 73 27 9d 5d 49 0b 98 bf 82 28 0f 85 5f cf d2 3f
       -0.023480554903734196 0.2939070510298124
000120 5a 30 13 2d 37 1c bf 3f 86 2c 3e b8 47 cf c2 bf
       0.12152428484404379 -0.14695068832620367
000130 bb 57 fd 4d 70 aa c5 bf 0a 30 38 af b0 d0 ef bf
       -0.1692638760384265 -0.9942248747115638
000140 1e dc 48 b2 00 ad 8b bf 46 76 26 9d 02 27 e2 3f
       -0.013513570252241588 0.5672619885769528
000150 e2 70 28 e2 94 27 d0 3f 29 c3 b2 a4 1a 52 e0 bf
       0.2524158676694822 -0.510022470165585
000160 b0 b7 7d 01 47 83 ca bf 6f c4 df 7a 6c 75 cb bf
       -0.20713126728827325 -0.21452098846160392
000170 07 26 a1 01 c0 15 d9 bf 8a 69 15 01 2b 5c e8 3f
       -0.39195251616601506 0.7612509747662426
000180 22 bd 36 04 df a8 e2 3f 45 e8 fb b4 d0 83 d8 bf
       0.5831141550351371 -0.3830453650877
000190 8e 29 be 0a 42 b5 e0 bf c3 a3 fa 81 94 c1 d7 3f
       -0.5221262178250059 0.37119019215839105
0001a0 ae 71 2d 19 1c d4 c8 bf 07 3b 74 b8 76 04 eb 3f
       -0.19397307614680187 0.8442948916070642
0001b0 ca ba 45 8a dd 04 d4 3f d4 5b d3 73 f2 d9 ed 3f
       0.3127969599071717 0.9328548681468143
0001c0 85 04 5a e5 c4 57 d3 bf cd ff dd f1 db 1a eb 3f
       -0.3022320022356058 0.8470287059753844
0001d0 8d ea 31 54 bb bb e9 3f 19 d0 58 7c 83 9d c7 3f
       0.8041664738114648 0.18449443408610547
0001e0 02 5a 12 af 68 bf c1 3f a1 b9 37 e4 97 85 d3 3f
       0.1386538367120949 0.30502888953096813
0001f0 01 05 74 d3 29 6d dd bf 04 bb df de 0e db e9 bf
       -0.45978780412413306 -0.8079904892927918
000200 47 26 40 33 31 2d da bf af 91 86 22 d5 be e9 bf
       -0.4090083122724519 -0.8045449899987512
000210 c7 fe b5 25 cc 39 e0 3f b8 ac ef 16 2c b6 e4 bf
       0.5070553528348335 -0.647237820432017
000220 d4 60 2e fb c8 67 e5 3f 9f 6c b8 08 a0 94 f0 bf
       0.6689190774805192 -1.0362854328766742
000230 6e 2b b4 ab f5 cc ca bf f9 a1 5f b4 8a 9f d2 bf
       -0.20937987216924675 -0.2909876595936392
000240 0c 29 f2 04 44 e3 e0 bf 42 c2 44 1b 81 4e f0 bf
       -0.5277423950767868 -1.019166094320227
000250 34 f7 00 90 7e 0a c8 bf 4c dd 93 e2 ad 35 dc 3f
       -0.18782026320871525 0.44077632071226414
000260 d1 2d bf 03 21 1c da 3f 0e ed 67 41 6f 29 c9 3f
       0.4079668556775831 0.1965769833912891
000270 be c6 ec 2f 90 d1 dc bf 8e 85 44 42 90 b6 b4 bf
       -0.4502907245651889 -0.08091069810736526
000280 d3 eb a2 98 3d 90 e5 bf 26 4d 8e 58 d8 dd cd bf
       -0.6738574963741207 -0.23333267520920592
000290 99 23 48 39 2a 82 a5 3f 6b 7a 26 1c 30 eb c0 bf
       0.04200870465508117 -0.1321773660137809
0002a0 b6 59 c9 89 8c bf e1 3f b5 36 d0 54 ef 99 e4 3f
       0.5546324435370511 0.6437908798704571
0002b0 2a 29 20 58 0a 09 e2 bf 6f d0 a4 b5 5a 5b e5 3f
       -0.5636035653308558 0.6674016521196914
0002c0 d8 2c c0 6d 53 c7 d7 3f 3f ae 2d 55 78 99 cc 3f
       0.37154088704910526 0.22343353423217313
0002d0 44 5e e1 2b dd 3b dc bf e3 89 f4 b4 4f 8e c5 bf
       -0.441153805591487 -0.16840549789146939
0002e0 2e d5 65 96 dc 81 e4 bf 43 9c 83 2c e8 9f d0 3f
       -0.6408522546250077 0.2597599444110907
0002f0 57 41 d1 61 20 be a9 bf 48 0d df d6 b8 54 e2 3f
       -0.05027867502269839 0.5728420445160873
000300 9a b9 30 5a d6 1b e3 3f a4 5c 12 17 70 59 d8 bf
       0.59714810958194 -0.3804588532743287
000310 54 11 d7 fe 65 88 e3 3f 36 63 70 62 71 f6 ac bf
       0.6104001977296698 -0.056567710176926786
000320 34 24 b1 18 01 9f e4 bf ab 77 0d fc d2 89 e8 bf
       -0.6444097025170152 -0.7668242381002889
000330 b5 26 a7 3f 86 f0 c0 bf cd d8 95 8c 62 f4 e9 3f
       -0.13234022243550717 0.8110821481521043
000340 77 1d c2 4e 0e b9 f0 bf 1a eb 4e 00 0b e5 c1 bf
       -1.0451796604628194 -0.13980233683636173
000350 8c 14 f7 a6 ee 48 a3 3f 9c 78 da f2 b4 1a c1 3f
       0.03766580379628079 0.13362752779079734
000360 61 f5 ef 01 16 50 ea 3f 7b 7c a2 a0 e2 e1 e7 bf
       0.8222761190260536 -0.7463238847157209
000370 3c 15 22 b0 b8 61 d1 3f 32 d9 97 91 d7 a7 f0 bf
       0.27158944321157086 -1.040977066729806
000380 ba 8b 16 8c 4e 6b e5 3f 58 25 1d 05 11 db d1 bf
       0.6693489776702031 -0.27899575709723967
000390 f6 a2 8f cb 4d 8e e5 3f 7a fa 09 f3 1d 32 d4 3f
       0.6736210799982405 0.31555889829898087
0003a0 08 91 ff 59 8f a2 e3 bf e7 9a 7e 59 d7 e8 f1 3f
       -0.6135937459735326 1.1193459983712104
0003b0 bd fa 2f 4f 82 12 e4 bf 51 26 ec f2 46 22 f0 bf
       -0.6272594019536296 -1.0083684434088307
0003c0 af 1a fc 62 11 b1 d8 3f 1d f3 73 19 81 49 e2 bf
       0.3858073679588569 -0.5714726922156818
0003d0 fe 19 86 88 7f 8c cd bf 63 f6 9f c6 d7 24 ae bf
       -0.2308501640911373 -0.058874838825414576
0003e0 bd 1f 02 55 b9 8d c6 3f 11 0a ef 05 fc 7d c5 3f
       0.1762000718192648 0.16790724076970823
0003f0 3f 64 87 e7 ec ff ee 3f 15 a8 f7 fa 71 94 f0 3f
       0.9687408945129689 1.036241512624206
000400 ff 39 20 05 fa b9 b0 bf cb 60 f9 11 a5 47 ed bf
       -0.06533777833121944 -0.9149957037980355
000410 77 24 ac b7 8f d4 e5 3f 7e d0 88 a8 3f 6d cf bf
       0.6821974360801865 -0.24552150468082695
000420 ce 61 20 0f 29 9c ee bf 14 31 06 f3 0a 57 e6 bf
       -0.956562547248774 -0.6981253382269039
000430 86 b8 36 d4 00 0a d3 bf 3e 79 42 ce 39 a2 e6 bf
       -0.2974855492019589 -0.7073029545315774
000440 68 5b fc 12 3d af d2 bf 1e 44 13 b1 c8 3a eb bf
       -0.29194571355895116 -0.8509257753850112
000450 d2 0b d1 e7 50 fb c6 bf c1 80 ad cc 18 80 e5 3f
       -0.1795445568005492 0.6718868253338074
000460 0e 8e 5e 9c 30 0c eb 3f 80 45 7d bb 40 09 e8 3f
       0.8452380231942145 0.7511294996167379
000470 60 4d 9b f0 46 1a d0 bf d5 f3 89 f1 d7 80 e8 3f
       -0.2516038274454413 0.765727969890231
000480 0d d9 61 cb 45 a8 e2 3f 2f 88 80 95 4a 73 d7 3f
       0.5830410930928182 0.3664118251782637
000490 74 2d a0 16 d2 14 e2 3f 1d 48 7f 46 c0 51 c2 3f
       0.565041584196861 0.1431198448395329
0004a0 5f 6c b2 03 f5 23 e9 3f 4e 91 b8 10 52 e9 d1 bf
       0.7856392929273958 -0.2798657573023505
0004b0 ad 58 b8 ca 70 a6 e0 3f 9f 5c 83 c8 c4 f0 df 3f
       0.5203174552323354 0.4990703542839103
0004c0 c2 03 a4 ca a4 3e eb 3f cc 6f a0 4b a7 82 e8 3f
       0.8513969381166293 0.7659489132961368
0004d0 74 20 43 2b 22 ff eb bf e5 3f 87 9e 34 25 d8 bf
       -0.8748942227330319 -0.3772708461883652
0004e0 1d 14 bf d5 31 f4 b7 bf 2c 68 02 f9 8a e2 c1 bf
       -0.09356986492555604 -0.1397260394922467
0004f0 07 b1 7e 26 60 38 c6 bf a2 1d a0 1a 2a 6f 8e 3f
       -0.1735954463923763 0.014860466897529904
000500 47 8a f4 cb c9 36 ed bf 20 ac ba b9 fb 36 ea 3f
       -0.9129380210400279 0.8192118289492818
000510 15 0e aa bc c1 e1 c4 3f 2c 4f 55 2e 70 0c 96 bf
       0.16313955032465857 -0.021531822994190694
000520 21 b0 d1 74 41 d7 d0 3f 76 2a a5 62 d4 5f d2 bf
       0.26313816459765077 -0.28709897645300175
000530 f4 c5 71 90 d1 2b ee 3f d7 57 38 b0 91 01 e9 bf
       0.9428489514522753 -0.7814415399359359
000540 ad ae e0 f9 1a 86 de bf 05 c2 bb a7 27 8a b1 bf
       -0.47693514253726726 -0.06851432652525354
000550 1d 77 dc 4b 72 77 e2 3f 23 5e e9 c0 96 79 d5 3f
       0.5770808679260174 0.3355461963560364
000560 4b a0 55 06 06 b9 e5 bf 42 be 8d 44 59 4b e4 bf
       -0.6788358806343323 -0.6341978396357677
000570 eb 04 d2 dc bd 7d e2 3f 31 f1 bf 7f c0 8e af 3f
       0.5778493225954241 0.061635985941366996
000580 6c e4 b8 ad 16 96 f0 3f c0 8f 8c c9 94 ec b5 3f
       1.0366427217507193 0.0856411926329761
000590 81 52 db ab 3c d2 ea bf 37 38 9d 7b cb 74 d3 3f
       -0.8381636959625923 0.30400359222119583
0005a0 3d f3 3e 1d 28 ad bc 3f 9e 4e 7e 7d 57 d0 ae bf
       0.11201716150294501 -0.060183271473900776
0005b0 1f f0 12 c6 4c 7a a0 bf e3 12 af 55 a7 02 ec bf
       -0.03218307416815968 -0.875323932029087
0005c0 ab 08 f4 c9 fc 33 d1 3f 8e 81 80 d1 b1 a5 e8 3f
       0.2687980625343111 0.7702263919673429
0005d0 24 c9 aa 4f fc 99 d0 3f 03 21 08 28 e2 f9 d2 3f
       0.25939853458398177 0.2965016737876029
0005e0 74 c9 31 33 a3 49 e0 bf ae fb d2 30 5b 8b e4 bf
       -0.5089889526264373 -0.6420112565609679
0005f0 29 5a c5 c6 68 40 e3 bf ef dc 61 f6 01 93 ce 3f
       -0.6016124613041188 0.23886131792435303
000600 81 83 81 fb 11 b3 d3 bf 83 8d f4 2d 58 e1 e6 3f
       -0.307804580317729 0.7150078675808093
000610 43 fd 38 bf 99 14 f0 bf 9c 37 87 1f 75 0d e8 bf
       -1.0050294370301607 -0.7516427627358442
000620 33 cf 71 fe 2b c3 d7 3f e2 89 96 20 19 bf d2 3f
       0.3712873444376214 0.2929137056582062
000630 1d dd 0a ae d9 3d ee bf c7 07 aa 81 8e 7e d8 bf
       -0.94505008690513 -0.38272440588491147
