src/params/bias3.npy (npy, 680 bytes, 1 tensors)

array f8 [75]
5.925377950644915 -3.7064594508209017 5.102991948053351 7.821981623909668 0.2367316874624389 -5.460626373260915 6.676655103216417 -6.579060983982766
-1.178640767493292 5.536514953544225 -7.156468862760464 4.363383751592194 3.7223319840901232 10.838316509124466 -4.4790337535627325 -4.265592229978261
-12.278135345002527 7.925644280926179 8.817754578592082 2.211888310301031 0.1477430900517598 3.688464773762776 -1.6171491861447722 3.9184125595685333
11.060450748712455 5.545099113468188 3.52658400265851 -0.9385759727740247 -5.5840316482369525 -6.504432547350142 2.5374712611764214 -10.330739037436011
-5.76297920619201 -3.4347931839457013 3.5490245000416176 5.660538085111434 -9.060670542319581 -0.596013056225807 -11.196342075588458 5.411922811659463
6.788134009630767 -2.089590888709382 11.278377991956878 0.19987734622903378 1.2248766414472532 7.619697008133297 2.135963307600973 -1.281119197840936
4.717114781027023 -5.559466941551527 -12.88412452424608 -1.2663036202325548 -1.8227067636537229 -9.331865677006821 6.6257507969712295 -7.52703060246862
4.888535582559738 5.521857851415271 -2.2238143586550336 -7.073862952956608 8.962010693354005 5.698087035606879 6.132659880382495 10.135075804325183
2.552032702001599 3.6672691676596307 11.1865916227276 3.5250448405593002 0.7740008528769564 -1.6304096340030676 -0.8978641254525324 -4.6518737987843926
2.485503170704629 5.211876373229516 1.1298387900556304
00000000: 70d6 0947 96b3 1740 a1ce 6936 d4a6 0dc0
00000010: d88f a2b8 7669 1440 846b 028d b549 1f40
00000020: 24fe c953 394d ce3f a852 a370 aed7 15c0
00000030: aef1 4b13 e5b4 1a40 da61 d25c f550 1ac0
00000040: 41db e16b b6db f2bf 4e26 0d2d 6425 1640
00000050: 1298 a15f 39a0 1cc0 eef1 c3de 1a74 1140
00000060: cb2c c4fd 55c7 0d40 dfc5 4cd2 37ad 2540
00000070: a1ed 04d3 87ea 11c0 3950 d768 f70f 11c0
00000080: 894b 85c1 678e 28c0 c13a 2918 dcb3 1f40
00000090: 1d6a 66ba b0a2 2140 582e 997f f2b1 0140
000000a0: b9bb fddd 3ee9 c23f c312 bed1 f981 0d40
000000b0: c1ea 33d3 d7df f9bf f7a8 1caf e858 0f40
000000c0: 387a 8966 f31e 2640 a6b2 4576 2e2e 1640
000000d0: e11e 70ac 7136 0c40 bd06 7c7a d008 eebf
000000e0: d906 7464 0c56 16c0 98a0 37f7 8904 1ac0
000000f0: 4157 8abb bd4c 0440 ac98 8aa0 56a9 24c0
00000100: ab7d c86b 4a0d 17c0 6290 4cd9 747a 0bc0
00000110: 4f0d 03f5 6664 0c40 a943 8518 64a4 1640
00000120: b62f 9635 101f 22c0 be52 0ff9 8912 e3bf
00000130: 5ef6 d2f2 8664 26c0 0d37 f217 cfa5 1540
00000140: 00eb 109a 0c27 1b40 0236 886d 7bb7 00c0
00000150: 0bc3 668f 878e 2640 81ea a1b4 9495 c93f
00000160: 8267 ca3f 1899 f33f 3c72 3dda 917a 1e40
00000170: 3dd1 3cee 7316 0140 bc12 10d8 767f f4bf
00000180: 02f5 4f56 53de 1240 b8a0 e4e6 e43c 16c0
00000190: fa74 3af8 abc4 29c0 9c48 bb95 c742 f4bf
000001a0: ad73 4191 ce29 fdbf 82d1 4a4c eaa9 22c0
000001b0: ddbf 21d1 c480 1a40 2760 06e9 ad1b 1ec0
000001c0: 9eb4 9145 dc8d 1340 2af5 93e7 6116 1640
000001d0: 8063 b62e 5fca 01c0 a656 ddba a24b 1cc0
000001e0: 29b7 64aa 8cec 2140 c5c5 ee53 d7ca 1640
000001f0: b5ef defd d787 1840 781d e4a7 2845 2440
00000200: e55a 0b1f 906a 0440 6bd1 a537 9156 0d40
00000210: 2da5 eaef 885f 2640 f915 99b5 4a33 0c40
00000220: 26d8 c56f 9dc4 e83f 2a06 9269 2816 fabf
00000230: a23f e28b 4dbb ecbf cf97 1bce 849b 12c0
00000240: d93e 827c 4fe2 0340 7143 b71e f6d8 1440
00000250: 85a8 d0d6 d113 f23f
