src/params/bias3.npy (npy, 680 bytes, 1 tensors)

array f8 [75]
000000 d7 41 2b 51 6a 2a 10 c0 65 5b cc 15 19 17 23 40
       -4.041421192422113 9.545113259502338
000010 5a fe e7 6d 58 e7 23 c0 26 34 11 0b 2f c8 21 c0
       -9.951846537179495 -8.89098391137129
000020 3c da 44 77 d0 f3 e2 bf c4 ba e8 7e c0 a0 f8 3f
       -0.5922624902221467 1.5392460782419883
000030 c9 4a ec d4 de 23 14 40 e4 47 dc 9d b6 72 21 40
       5.035029723093154 8.724049504413365
000040 d6 e6 d2 de 11 2d 24 40 87 f8 c3 ac 36 61 d7 bf
       10.088026965374791 -0.36530844565994197
000050 e9 6d c3 45 51 1b fb bf 60 12 97 89 4a cf 0f 40
       -1.6941693043835306 3.9762163876751373
000060 c0 af 77 9e 5b f9 e7 3f 3f 66 c7 c9 d5 ed 13 c0
       0.7491891951626641 -4.982260849757551
000070 7d f5 52 15 1e 5a 17 40 fc 2f 96 d5 26 a5 14 c0
       5.8380053836712 -5.161280953685488
000080 4e 49 47 5a 01 b2 1e c0 20 8f 1a b7 ff 43 12 c0
       -7.6738332849511846 -4.566405163761175
000090 09 8c f4 4f 3b 35 24 40 da 22 af fd c1 14 18 c0
       10.103968142129832 -6.020271266760313
0000a0 84 5b f1 68 ee 54 f5 bf 10 db 09 41 68 47 05 40
       -1.3332351779297094 2.6598668175823903
0000b0 09 b8 72 41 5c 9c 16 40 ad c8 57 19 3c 2d 1d c0
       5.652695677401433 -7.294174571974662
0000c0 bb a2 0e e6 6b e7 0a 40 1d 1c ea a0 97 9b bc bf
       3.362998769113202 -0.11174915007187321
0000d0 43 9d 36 1d 38 9d fd bf 49 9a 8f ee 98 c2 12 40
       -1.8508835927148801 4.690036513819515
0000e0 4f d8 38 2b 3e f8 26 c0 31 e0 fd d4 69 73 21 c0
       -11.484849310578424 -8.725416809073154
0000f0 b5 eb 3f f7 60 20 27 c0 31 ac 51 5e 37 5e 0f 40
       -11.563239790489982 3.921004044406367
000100 62 15 b6 03 4f 12 0a c0 11 47 d4 71 27 30 0a c0
       -3.258939770693062 -3.2735127346903785
000110 e3 7a 9c ab 7f 0a 00 40 29 51 1a b1 6d 66 14 c0
       2.0051263243798174 -5.100027816039337
000120 85 dd 69 18 ed 87 24 40 b6 8f 60 f6 88 6c 24 c0
       10.265480769083988 -10.21198244026878
000130 4a 5d dc cd 9f 98 0a 40 c4 11 ba cf 5f 9f 18 c0
       3.324523552215088 -6.155638929111266
000140 82 09 26 35 68 8c 17 40 ab 7c a7 02 0f b9 fc 3f
       5.887116270491221 1.795180330627583
000150 09 89 d0 00 75 6c 19 40 1f 17 28 e9 c2 24 1f c0
       6.35591508171843 -7.785899775573653
000160 1f 0d a8 25 98 27 1e 40 07 4d b1 22 6d dd 1e c0
       7.53866633260921 -7.716236631461704
000170 57 58 a6 dc 64 36 12 c0 38 98 e3 91 e6 d3 04 c0
       -4.553119132664583 -2.603467120893608
000180 f4 fd e6 25 be 8b 1f 40 52 39 80 e1 59 b2 1a 40
       7.886467544768937 6.674170993281523
000190 0e aa 22 de 4d 2e f4 bf ea 19 18 93 fe bc 12 40
       -1.2613047291912411 4.68456487497904
0001a0 bc 3e 3e 1d 38 07 14 c0 db 22 d8 4c a2 e0 07 40
       -5.007049996303689 2.984684563013031
0001b0 d3 52 68 2a d4 e3 ec 3f be b7 67 d0 a7 c3 f1 3f
       0.9028111294051889 1.1102674618555137
0001c0 fc 64 e8 64 e7 e6 1b c0 d6 98 6c bf c2 88 20 c0
       -6.975492073711617 -8.267110807424995
0001d0 f1 f5 bc 49 d1 ea 1d 40 b6 df 28 70 61 55 12 c0
       7.479313995512244 -4.583379509443992
0001e0 b1 89 58 37 a5 c3 19 c0 e2 50 fd 48 4e 00 21 40
       -6.441059937266275 8.500597268030507
0001f0 b1 f5 6d ad da 3e 17 c0 55 5f 7e f2 e3 a2 04 40
       -5.811381063305292 2.5795363373580735
000200 f5 e0 02 15 be 30 23 c0 9e 7a 50 f8 66 d1 1c 40
       -9.595200211144837 7.204494361793563
000210 e9 3a d1 63 9f e2 f3 3f e9 33 91 12 a5 c6 f2 3f
       1.242827787314747 1.1734972691804109
000220 b2 00 23 48 7e e1 10 40 c1 9d 6a c4 9b b2 14 c0
       4.220208289276501 -5.174422329909647
000230 40 56 d3 44 dc 61 c1 bf 5e e9 6e 81 f7 15 29 40
       -0.13579896317121332 12.542903942860615
000240 43 9e 79 1b 1b 68 15 c0 1c 59 57 b5 4e e2 1c c0
       -5.351665906236636 -7.2210033735812225
000250 59 ad c7 59 04 2a 19 c0
       -6.291032221615148
