src/params/bias2.npy (npy, 1680 bytes, 1 tensors)

array f8 [200]
000000 a6 aa c4 41 70 db 24 40 c2 88 44 9f 05 51 30 40
       10.42859082723346 16.316492037040696
000010 83 88 f1 20 d8 ee 01 c0 bd 41 bc 03 89 63 21 c0
       -2.2416231702528093 -8.694404713373723
000020 9e c4 0c ec de dc 42 40 12 26 58 b0 af 81 13 40
       37.725553041681664 4.876646762256785
000030 e5 e3 5f 39 95 e8 20 40 36 08 b0 9c c4 4b cb 3f
       8.454263489680622 0.21324975634348825
000040 02 d4 79 d8 e8 24 34 c0 0a 1c aa 15 a4 04 29 c0
       -20.1441779420311 -12.50906436635525
000050 83 51 94 47 b6 17 3a 40 69 52 00 c3 48 97 1e 40
       26.092625116072224 7.647738501448296
000060 00 69 97 86 b9 3d 42 c0 9d 03 73 7e c6 18 35 40
       -36.48222429650377 21.096778777198427
000070 08 03 f5 54 c6 b9 30 40 39 5a 96 e2 c1 bd 3f 40
       16.7256825540708 31.741239701945435
000080 74 4d fd 7e 1b 3e 38 c0 ef a3 29 34 dc cc 49 c0
       -24.242607056466525 -51.60047008546086
000090 f1 6d 74 ab 9f e6 22 40 b3 85 a6 23 0b 68 2a 40
       9.45043693348177 13.20320998580687
0000a0 b5 28 bd e5 e9 26 e8 3f cc eb 6c 11 e0 41 44 c0
       0.7547502028549135 -40.51465051477825
0000b0 03 92 4c 3a 25 90 38 c0 a8 cc 15 0f e1 3c 2e c0
       -24.563068050092635 -15.118904563342156
0000c0 41 02 03 0f a1 10 2a c0 87 bd 5c 6a ea c6 3a 40
       -13.032478779904638 26.777014396325765
0000d0 31 c0 82 ba e7 cf 3a 40 76 ff 4c b0 27 e5 20 c0
       26.812129647180146 -8.447568425559194
0000e0 9b 3d 74 54 c2 67 31 40 20 61 02 94 53 7c 46 c0
       17.40530898893267 -44.97130060306722
0000f0 7f ff b1 0a 11 d4 32 c0 e3 65 f6 00 35 57 15 40
       -18.828385036903907 5.335163130797329
000100 70 e2 ae ca 54 fb 43 40 47 86 dc b0 27 d9 33 40
       39.96352513827594 19.848261884535784
000110 34 7f 8e f8 99 e3 2a 40 dd 18 93 d5 25 c2 31 40
       13.444534079928054 17.758389805233367
000120 ce c0 06 72 85 20 42 c0 0e f1 e2 89 48 b3 31 c0
       -36.25407243089431 -17.700325601487798
000130 e8 f1 2a fc cb 89 3c c0 75 8c 8a 97 d1 01 1c 40
       -28.53826881454907 7.001776092368449
000140 a9 b3 b3 5e d9 13 24 c0 21 b3 12 96 15 29 33 c0
       -10.038767775951628 -19.160485629620897
000150 87 2d 48 fc 0f 81 29 c0 4f 74 69 80 11 76 49 c0
       -12.752075084505817 -50.92240910672319
000160 f9 0c 40 80 ec b1 3e c0 a5 80 09 8b f9 c9 32 40
       -30.69501496852624 18.788963975734664
000170 a5 df b5 86 f0 76 27 c0 06 38 09 50 4a b4 3f c0
       -11.732303819371575 -31.704258920908636
000180 fb b0 54 0c 65 1e ee bf 7d d5 0c 8c c4 0d 0e c0
       -0.9412102928959308 -3.7567225400368316
000190 fc 27 e5 fd 35 57 2e 40 00 85 db b9 73 73 00 c0
       15.170333799575012 -2.056373073589043
0001a0 0d 13 dc 83 18 00 3c c0 1e 65 ce ac 7e f3 36 c0
       -28.000374070386034 -22.951151657475855
0001b0 23 0f db 8f 26 81 33 40 c1 9a 3a a0 5b 27 20 c0
       19.504494658452256 -8.076870925096388
0001c0 91 16 21 7f 6b 32 3d c0 90 45 13 ef 7e cf 1d c0
       -29.19695276792351 -7.452632651854756
0001d0 c4 93 66 64 3d 9a 30 40 bb b0 5b 33 0c 1c 25 40
       16.602499270480408 10.554780583326979
0001e0 47 09 93 77 bb e9 0e 40 7a f8 fd e4 d1 08 12 c0
       3.8641270963427448 -4.508613183976303
0001f0 17 77 02 22 0c 5c 22 40 31 35 e7 5e 2d c6 1d 40
       9.179780066300323 7.443532450544169
000200 34 10 76 b8 8b 9c 27 40 ad 4d 38 ee 4f aa 36 40
       11.80575348321154 22.665282143350556
000210 2e 14 be 9f 4b 07 03 40 f2 4f c9 c3 2f 0d 23 40
       2.378562210071798 9.525755041431669
000220 67 08 58 c4 c5 44 2a c0 73 55 a0 00 b9 73 3e 40
       -13.134321342226214 30.45204166330718
000230 80 c3 16 b7 26 bb 3d c0 43 74 ff 8c 2b 81 22 40
       -29.73105949693445 9.252285391028755
000240 79 c1 20 90 88 32 25 40 68 75 63 78 f2 28 47 40
       10.598698143003945 46.319899605335024
000250 fb c3 45 54 c2 9a 2e c0 67 45 a0 61 b7 5a 33 40
       -15.302263864055922 19.354360677365005
000260 a2 97 c3 a2 be 60 3c c0 a3 cb 7a b6 f2 e4 31 c0
       -28.377908871414213 -17.89432850358902
000270 8e a3 0a 72 04 f2 1b 40 60 89 55 84 22 63 3e c0
       6.986345083140703 -30.387245436556782
000280 de a6 47 5c ba 05 27 40 31 be dc c9 de 67 27 c0
       11.511187442537842 -11.702871616550597
000290 7b 8a 8b 73 ea 1d 3d c0 03 03 43 6e 4f 09 e5 bf
       -29.11685869366418 -0.6573865083265392
0002a0 23 7e 2f 3f 08 b4 43 c0 c8 8c 08 be a4 3b 1c c0
       -39.406501672925764 -7.058245629569861
0002b0 08 3e 36 f3 62 a0 33 40 ac 05 00 a1 80 ff f9 bf
       19.626509857886077 -1.6248785294595605
0002c0 38 f5 ed a5 91 b0 37 40 71 f8 3b 60 cf c8 44 c0
       23.689722414584338 -41.5688286106896
0002d0 a3 8b 64 f8 f9 42 3e 40 92 8d 8f 7c d6 49 13 c0
       30.26162674383853 -4.822107263814717
0002e0 74 19 9f 18 2f 08 24 c0 50 00 1a db 2a dd 2c 40
       -10.015984315320317 14.431967589305856
0002f0 ee 6d 45 ed 9f a6 2c 40 cb f4 73 9a e7 ef 03 40
       14.325438894963522 2.492140967048362
000300 10 7b 2f 97 5b 1f 43 c0 c1 1c 3d 6f a4 3e ec bf
       -38.24498262232203 -0.8826467678672075
000310 71 a1 98 14 35 b8 ee 3f d9 de 25 73 01 3e 24 c0
       0.9599862482328217 -10.121104811070312
000320 40 c2 5c de 21 34 0a 40 a7 72 11 e3 38 91 33 c0
       3.2754552242334114 -19.56727427650426
000330 b9 31 91 19 02 99 2a 40 41 fd f6 de 2f 8e 40 40
       13.298844145749955 33.1108359056475
000340 9c ed 54 ca 79 10 20 40 03 2a 20 10 01 52 17 40
       8.032179186694343 5.830082179988042
000350 05 33 f3 d9 65 f6 0a c0 15 28 d5 44 c6 10 34 40
       -3.3703114535659346 20.0655253429796
000360 d5 76 66 5f 8a 25 2d 40 04 f5 62 c7 24 a4 48 c0
       14.57332132459434 -49.28237240154161
000370 64 53 25 d0 0c ab 2c 40 9d 05 9f 8f a5 90 2a c0
       14.33408213096272 -13.282513130342346
000380 a0 09 68 86 19 c4 1b c0 53 00 11 50 b6 52 45 c0
       -6.941503620243026 -42.646188743878746
000390 fb f2 f6 df 1d 60 05 c0 78 5b de f5 eb 84 2b c0
       -2.6719319817769906 -13.759612735169625
0003a0 d0 3a 24 32 df d8 34 40 96 7b 98 f5 82 b1 42 40
       20.84715569862857 37.38680906243751
0003b0 f3 ea ed 07 ea d4 39 40 a0 30 d6 ca b7 b1 28 40
       25.831696029267686 12.347105349203332
0003c0 ea a1 ba 07 7f c4 f0 bf 53 cb 19 16 32 08 33 40
       -1.0479727079310757 19.032014256761
0003d0 c0 bb 54 74 b0 82 43 40 70 47 69 67 1a f5 3a c0
       39.02100996148465 -26.957434142306226
0003e0 28 9c 96 8c fc 1a 51 c0 ad a9 a7 d6 ef 65 44 40
       -68.42166437824255 40.79638179003391
0003f0 5f cc 53 63 2e 36 11 40 44 b6 23 2a d8 e0 32 c0
       4.302911331166881 -18.878298410147423
000400 1c 85 bd 03 a8 5a 0e c0 8b e4 cd 44 ea 76 31 40
       -3.794265774937811 17.46451215769461
000410 de a9 1e a5 46 6f 42 c0 44 ef 0c 35 0d ec 36 c0
       -36.86934341428035 -22.922076526315564
000420 a4 69 1c 79 cb 7f 31 40 76 2b 8d b6 0c f2 01 40
       17.499198502957043 2.2431883107978434
000430 92 72 c9 b0 6d 38 48 c0 a1 fd 97 ca 85 05 27 40
       -48.44084749065691 11.51078637223583
000440 95 29 c2 4c dd 33 3b 40 a9 90 93 26 1e 9c 21 c0
       27.20259551754278 -8.804917531503024
000450 2b 47 8a b8 a6 33 2a c0 eb b2 5a 6a d7 aa fa bf
       -13.100881354217185 -1.6667093424286417
000460 47 dd b4 60 0e e6 36 40 d0 4a b5 3d ed b0 44 c0
       22.89865688720354 -41.382240022203064
000470 b0 e9 69 15 b3 88 28 c0 d6 bb de 0f 51 77 39 c0
       -12.266991299799741 -25.466080657842973
000480 b7 6e a0 a6 c0 5b 40 c0 e1 d2 8c 3c 18 47 3b c0
       -32.71681673844926 -27.27771357000427
000490 c8 3e 27 53 1e 19 2d c0 e9 9f 24 8f 03 d7 24 40
       -14.549059484997443 10.419949029179365
0004a0 d7 7d 9b 02 5c 6b 3b c0 c0 40 8d 61 cf d3 3c 40
       -27.41937271400624 28.82738313387449
0004b0 a2 81 bb d0 09 9c 33 c0 33 53 c3 31 71 77 2a c0
       -19.609524770524907 -13.23328547963465
0004c0 db 1d 3a bf 3b e2 3c c0 16 db 46 7d e5 15 0a c0
       -28.88372416657317 -3.260691622471664
0004d0 66 19 a6 c2 46 3f 30 40 2c a4 39 57 18 eb 28 c0
       16.247173467208448 -12.459170079981128
0004e0 06 0a c1 78 68 b9 02 c0 32 03 a7 a5 3b 01 36 c0
       -2.340531295195663 -22.0048163922067
0004f0 d9 94 e9 28 38 c6 42 40 f6 db d9 b6 98 ff bb 3f
       37.548588861516414 0.10936884369026231
000500 7b 31 55 0f 29 9c 32 40 e4 64 9c 8a ba 3b 30 40
       18.61000152425684 16.233315146619944
000510 7c f0 17 45 9d 04 2a 40 88 91 92 d8 55 fc 2b 40
       13.009012374088563 13.992842452899609
000520 38 33 74 46 2b 37 13 c0 8d 31 af 4c 91 e1 4f c0
       -4.80387601932744 -63.76224669031499
000530 94 af 54 86 ba 99 23 40 e6 9b be c8 2c 66 08 c0
       9.800251195752743 -3.0498901065034145
000540 76 41 7e b7 dd 90 2a c0 26 bb aa 95 ca d4 06 40
       -13.282941564714502 2.8539020245292646
000550 03 f3 68 78 26 31 4b c0 49 4f 3d cf 07 6b 19 40
       -54.383986521954306 6.354521978489921
000560 82 79 81 cc c8 12 15 40 84 ee 18 ec 72 5c 07 40
       5.2683441118264245 2.9201410718067695
000570 57 0e 2a 73 4a fa 2b 40 03 c0 b8 b7 bd 14 41 c0
       13.988849257358352 -34.16203972359656
000580 16 72 ea f4 74 9d 30 40 ca 38 e0 7e e6 30 33 c0
       16.615065867650706 -19.19101708387533
000590 62 44 e5 d1 09 8d 28 40 b9 be 84 d0 4f c7 3b 40
       12.275465544926366 27.778561623009157
0005a0 ba 8a 96 67 d4 d6 35 40 da ae 6f eb 4c 77 44 40
       21.83917853761043 40.932034902127
0005b0 4d 08 4c 5c 0b 5b 23 40 79 ca d9 59 05 d2 35 c0
       9.677821049004843 -21.820394149467095
0005c0 02 c5 8f f9 2b 3f 3a 40 92 a0 38 58 1d 7b 38 c0
       26.246764752960196 -24.480916513276107
0005d0 b5 e8 af 49 c4 b7 d5 bf 4a c7 e8 cb fc 53 1e c0
       -0.3393412322617551 -7.58201902969615
0005e0 0e d8 88 bd 3e 22 0a c0 40 3e bc bf a1 be 2e 40
       -3.2667212302576507 15.372327796677496
0005f0 f9 12 21 14 28 d0 18 40 db fb 1c 8e 11 47 2c c0
       6.203277887839016 -14.13880581001097
000600 c0 06 2e b2 6c 0d 21 c0 f8 77 dc 75 9a 2b 31 40
       -8.526219909780934 17.170325628590916
000610 12 de d8 6e dc 1f 0c c0 dc 70 32 7a e0 ff 48 c0
       -3.5155571613247583 -49.99903800452168
000620 0d 07 c0 8c 05 b7 0b c0 a0 10 36 84 0a bd 27 40
       -3.4643660541631847 11.869220859145855
000630 dc 09 f0 e0 98 6f 40 40 32 6f 91 af ac b5 2e 40
       32.8718529865325 15.35483311319658
