src/params/bias2.npy (npy, 1680 bytes, 1 tensors)

array f8 [200]
000000 81 2a ac 1e 7b 9f d6 3f 8d 93 f9 58 ae ff c0 3f
       0.3534839438949931 0.1328027662704269
000010 55 9b e9 37 6b 1c e0 bf 01 ad 5f 1e 5e f1 c3 3f
       -0.5034690944711239 0.15580345614521465
000020 84 95 2e 4c c9 70 e3 3f a2 94 a5 5c db 6e d9 bf
       0.6075178611687737 -0.3973911671403788
000030 1b f5 8d 2b 02 e5 e3 3f 38 a4 61 98 49 cc eb bf
       0.6217051363634342 -0.8686874366950468
000040 12 c7 88 96 26 9e d9 3f cd 36 8e 4e dd 50 d9 3f
       0.40027775478948613 0.395560576166514
000050 26 e8 19 d4 cc e8 cc 3f 13 4f 6d cf c9 d5 db 3f
       0.22585449558738552 0.43492360359708576
000060 d7 fe 0d 42 f1 4e dc bf 5e f7 cf ba 19 6b b6 bf
       -0.4423182625832686 -0.08757172404145083
000070 39 92 3d 6d 1d 51 b3 3f 6f bb 97 fb f2 37 e4 bf
       0.07545646588329981 -0.6318297304077144
000080 fb b6 01 22 fc 4d c3 bf 06 c3 48 9a 57 e7 a1 3f
       -0.1508174100921947 0.03496812589981428
000090 30 1d b5 c2 11 8d d6 bf c7 e4 56 7e 01 c2 ed bf
       -0.35236019148256315 -0.9299323527876816
0000a0 66 96 0d 78 eb 90 cb bf f7 1e 2a dd b4 4b d2 3f
       -0.21536010133711442 0.2858707580385124
0000b0 d1 13 d5 17 d6 0d ed bf e8 22 6a 2d 0e 7f d6 3f
       -0.9079390016055361 0.3515048449994951
0000c0 ce 31 4e f5 18 b2 e2 bf b9 19 56 b6 ab 07 e4 3f
       -0.5842404166337987 0.6259363709694333
0000d0 78 a6 25 18 09 86 ed 3f 12 35 07 4f 6a e4 d7 bf
       0.9226117583868492 -0.3733163615950882
0000e0 89 32 dc c2 5f 65 98 bf 9c 70 d7 b4 37 3a e6 bf
       -0.02382421137649485 -0.6946066410123595
0000f0 a6 1e 20 5a 54 cf e8 3f e4 0d 62 6e 50 90 d4 3f
       0.7753087768805542 0.32130823878853065
000100 d7 52 00 e5 4a d9 e6 3f c1 72 93 7c 77 5b e9 bf
       0.7140249703103007 -0.792415374100152
000110 0d 6e 19 bf 4c ae db 3f f7 34 fc 33 7f 01 e3 3f
       0.43251341497463686 0.5939327254615411
000120 a1 1f 7a ae 8c ce dd 3f f3 da 6a 63 33 50 c5 3f
       0.4657317832829851 0.16651003221860314
000130 8c 20 c7 79 86 50 d7 bf 64 f8 34 a0 b7 5b e3 bf
       -0.36428987400405144 -0.6049459580460845
000140 eb 13 46 18 d1 3e d6 bf 6a 07 61 c0 e6 7f e1 bf
       -0.3475840317772156 -0.546862960567734
000150 ea 9f 09 e1 04 64 e8 bf e5 76 1d c2 4e aa d2 3f
       -0.76220935776382 0.2916447539954404
000160 d3 01 97 21 3c 74 e5 bf 00 ac 78 9d 0a 71 c3 bf
       -0.6704388290455036 -0.15188725174934348
000170 7f 41 66 09 07 3c e0 bf 44 58 66 88 32 52 c2 3f
       -0.507327574117923 0.1431334653868267
000180 30 fb 66 9b e6 db ee 3f 0a f1 42 60 40 ca e4 3f
       0.9643433604431717 0.6496889000041233
000190 e8 95 6f 47 76 5a da 3f 7c 88 03 24 52 4e b8 bf
       0.4117713639846827 -0.09494508151286313
0001a0 2f 27 5c f1 b0 8f d8 bf 3e 1b 49 13 c2 45 eb 3f
       -0.38377021379766324 0.8522653938933684
0001b0 14 c2 6e 2b 29 70 e8 bf 91 60 d0 99 17 3a ed 3f
       -0.7636915062230991 0.9133413318804903
0001c0 70 ed 3f fa c7 96 d2 3f c9 35 27 ac 5f 1c e4 3f
       0.2904529517979517 0.628463588940286
0001d0 a1 f9 1d ff 6a 7b e5 bf 47 ce 8a 9d c1 f9 d8 bf
       -0.6713156683688802 -0.39024391541463327
0001e0 cb 45 85 8b 24 62 ed 3f d2 50 f3 28 f6 30 dd 3f
       0.918230316640057 0.45611337660853934
0001f0 fb 1b b5 ed bd 2b d4 bf 2b ba 28 2f 3a 76 e5 bf
       -0.31516979421252217 -0.6706820412708273
000200 cc dd 9f d9 50 56 d9 3f ad a4 ac 49 1d 6b 6c bf
       0.39589329960241737 -0.0034690448786887846
000210 4e 6b 5a e9 63 08 d7 bf ad e9 67 dd ef b4 d1 3f
       -0.3598871020164339 0.2766685163657268
000220 75 af 6c 53 15 91 e3 3f 58 49 75 f1 1d 78 e7 bf
       0.6114603642831599 -0.7334127155284405
000230 23 17 bd 81 ac 05 da bf e8 3b 75 1b 2c 88 e8 bf
       -0.4065963046053744 -0.7666225944793696
000240 04 f0 47 7d 28 89 eb 3f 49 f9 20 44 c6 ec dd 3f
       0.8604929396528864 0.46757656720355506
000250 84 c7 03 ab 05 a7 ee 3f 8e 65 0a 0b bb 2a cd 3f
       0.95788844491311 0.22786653555958164
000260 72 f5 34 24 a5 5c e2 3f 9c c1 83 fe 41 6c e6 bf
       0.5738092143216547 -0.7007150622358043
000270 36 f6 6c 95 2e 59 d1 3f 34 f9 83 2b c6 91 c2 3f
       0.27106823532435287 0.14507367253094972
000280 35 d1 88 76 ed 0a b4 bf 9e fa e7 dc bf 8c 42 bf
       -0.07829174178988725 -0.0005660950499189637
000290 a2 09 94 f8 d3 ce dd bf 09 61 33 aa 2c 64 de bf
       -0.4657487800142467 -0.474864164554234
0002a0 4f b5 0c b2 43 f3 e0 bf c8 cf ac d3 5c 9e de bf
       -0.5296953656704008 -0.4784156863345257
0002b0 ca e5 b8 98 8a 33 d2 bf c8 ea 0a 57 e5 e1 e2 bf
       -0.28439583696635096 -0.590075178151289
0002c0 69 b6 4e 67 5f 30 e6 bf 5b 10 1f 52 8a 74 e8 3f
       -0.6934048669551888 0.7642261127407538
0002d0 c3 67 0e a0 e2 1b e2 3f 48 f6 3f dc 51 46 df 3f
       0.5659039617632903 0.4886669779660662
0002e0 c7 de 91 bf 87 5c d6 3f f4 af 4a 77 b4 07 7c 3f
       0.34939759929646325 0.0068432855083919615
0002f0 42 28 2d 5e 66 ae e9 3f fc 4b 0f 3d 7c be e1 3f
       0.802539047182343 0.5545026009152703
000300 65 70 f8 b3 be a6 da bf 40 19 8d 3b 47 a9 ea 3f
       -0.4164273030780861 0.8331638491734239
000310 9b 5f 94 c8 ce d5 e2 3f b3 51 c1 3b 78 9f ee 3f
       0.5885995786256787 0.95696651144913
000320 aa 3f 1c a5 48 ba e8 bf 75 ef a8 23 51 2e d9 3f
       -0.7727397179423765 0.39345196230328067
000330 ff 78 17 d7 97 53 d6 bf 6a 30 de 6d 1a 9e ef 3f
       -0.34885211949394085 0.9880497117860731
000340 8d 88 3e 25 89 e5 ec 3f 59 b3 df d3 a1 3d c3 3f
       0.9030194976260347 0.15031836362268328
000350 d9 7f 3a 60 ef 59 9b 3f fd 1d 32 f6 f0 56 a7 3f
       0.026710262535402627 0.045585184148020354
000360 2b 46 44 37 96 be dd 3f f1 61 e1 33 6e 2d e2 bf
       0.46475749394548654 -0.5680457127846791
000370 c9 ac 81 55 ab 66 d4 3f 41 a2 cf b4 7f 08 f0 bf
       0.3187664351486999 -1.0020749152119068
000380 8f 51 30 57 8b 83 d6 3f 6d 5f f9 c0 b9 83 e7 3f
       0.3517788268520911 0.7348297852540618
000390 b4 11 d9 e0 a8 18 b6 3f 02 13 77 e7 90 17 ed 3f
       0.08631377686930969 0.9091267128756899
0003a0 10 d1 8b 32 a8 f0 e9 3f ee 82 2f 67 0a 36 e2 3f
       0.8106270777921356 0.5690967574447237
0003b0 c2 5f 14 d9 1a 6d ed bf 88 e9 db 4b 08 de e3 bf
       -0.9195684661708514 -0.6208535653707239
0003c0 7a 04 aa eb b6 64 e5 3f 37 60 51 73 e7 67 d6 bf
       0.6685442545714431 -0.3500918031836621
0003d0 7b f7 66 bc 36 ed e6 3f 7f 19 da 3a 16 bc d8 bf
       0.7164567641955125 -0.38647990939389126
0003e0 29 a1 45 0b 40 ad db bf e3 a2 01 b0 24 03 b3 bf
       -0.4324493513181716 -0.07426671311408088
0003f0 53 7f e7 a7 c8 22 e8 3f 35 d3 5e 13 ca 0e e3 3f
       0.7542460708027455 0.5955553415611577
000400 ce ba 95 3d f5 1d ca bf 14 f7 83 69 2d 30 db bf
       -0.20403924471926022 -0.4248155146050163
000410 7e cc 1c 0b af da dd 3f 30 ff d6 7e 37 72 e8 3f
       0.4664723976631605 0.7639424779262978
000420 4a da be 0c ce ab ef bf 23 92 cf bc 55 05 b1 3f
       -0.9897222756324677 0.066487654301064
000430 a0 2a 08 45 c8 7b b6 3f 77 dd 65 eb ef b3 e4 3f
       0.08782626805638438 0.6469649884810867
000440 fa 65 88 fc ad 6a c0 3f 57 76 63 40 71 78 99 3f
       0.12825560408309383 0.024873513750995304
000450 b9 88 b0 82 ce bf ed 3f 3d f6 6b 59 9a 78 d5 3f
       0.9296639015704137 0.33548601849165377
000460 ac c9 43 89 e7 d6 ea 3f a0 e4 4e 0c c2 3b b2 3f
       0.8387334519341514 0.07122433472149448
000470 fe c1 9b 18 24 51 d3 3f cb 0d d1 05 81 41 e4 3f
       0.30182745364348296 0.6329960931402011
000480 7f cc a0 b2 d0 7f ee 3f e6 82 de db 53 fa e7 bf
       0.9531024445372082 -0.7493075651474015
000490 ee 45 87 a7 72 1e e6 bf 88 cd af 4d 3a d5 d4 3f
       -0.6912167808570169 0.3255143889102432
0004a0 6c de 3a 73 45 d5 d8 bf 9f 23 23 5d bf 13 f0 bf
       -0.38801704647946766 -1.0048211706327732
0004b0 10 85 0e 6a 7e e9 e8 bf 77 1c 81 f0 ab e4 98 3f
       -0.7785026618404647 0.024309813074321753
0004c0 51 e9 66 43 0e b6 cd 3f d9 b3 44 fc 80 5f d1 3f
       0.2321183995353047 0.27145409236510215
0004d0 25 ac f5 36 94 6e f0 3f 4a 2a 46 d4 83 81 d3 3f
       1.0269968172895088 0.3047799656857576
0004e0 84 43 d0 91 06 37 f0 bf 71 a7 38 82 e1 da ea 3f
       -1.013433999618628 0.8392188590416777
0004f0 77 30 40 e8 de 69 cc 3f 45 9a 91 41 29 b2 cd 3f
       0.22198091831558361 0.23199954701995487
000500 2f 0e a7 18 c0 40 9d 3f 03 92 7e d7 be 5a e3 bf
       0.028567315582917082 -0.6048273285746862
000510 14 95 75 3b cc 70 c7 3f 6f 89 42 f0 78 87 ec 3f
       0.18312981513296533 0.8915371601654395
000520 52 b5 e4 d5 6f bd a0 bf f0 ae 87 57 88 73 e6 3f
       -0.03269528852465932 0.7016030988283699
000530 5b 2a 51 2c b4 96 e6 3f 6e 47 23 f3 3b 53 db 3f
       0.7058964601104195 0.42695521110464696
000540 fc 57 8f c3 16 5a f0 bf b7 1f 34 99 98 78 c6 bf
       -1.0219943656024943 -0.17555530052800147
000550 db 27 d3 69 8e dd ec bf 25 fd 1b 55 e5 0c d5 3f
       -0.9020454470530653 0.32891209899385593
000560 5f 40 9d 3b 3c ed c1 bf 57 77 09 dc 47 e7 cd bf
       -0.14005234633305272 -0.23362062686913518
000570 2d 04 f5 b0 8f 8e dd 3f c3 c1 20 af ec d6 de 3f
       0.4618262508484488 0.48186795332278737
000580 7e 1d b0 1b d4 1f c0 bf 3e a2 38 ed c6 f3 df 3f
       -0.1259713301844662 0.4992539707768947
000590 34 7c 99 37 77 36 eb bf c1 78 72 1f 56 e2 ec 3f
       -0.850398644059061 0.9026289571954963
0005a0 1f 62 e3 92 04 f7 e0 bf cf 51 f9 98 dd 1d e7 bf
       -0.5301535481367557 -0.7223957050105642
0005b0 cd 0f b0 98 09 30 e5 bf 89 6f 8b 5f 98 8c e4 3f
       -0.6621139509375041 0.6421625009638642
0005c0 98 c4 27 89 87 48 d7 bf 2b 00 50 ac 85 d2 d1 3f
       -0.36380184549404637 0.27847425296204403
0005d0 75 46 ae 5e f0 f4 d1 3f cd c6 34 e9 a5 3f e2 bf
       0.28057488676231596 -0.5702695421989233
0005e0 d5 f4 42 9b bf 65 c5 bf 2b c5 c2 e9 bc 55 70 bf
       -0.16716761666422167 -0.003988016073138294
0005f0 e6 b6 aa 50 91 42 ef 3f 34 71 ec e8 b9 64 e2 3f
       0.9768759322666625 0.5747956799782856
000600 88 69 84 58 b2 03 d1 3f 65 8f a4 2c f0 18 e1 bf
       0.26585062641392954 -0.5342942115716879
000610 f6 5c 42 95 0d 44 d6 3f 08 6d 74 b3 18 5f e2 bf
       0.3479036290750196 -0.5741084580398885
000620 f7 0f 58 a8 21 d6 b2 bf 65 2f d3 d7 b3 41 e0 bf
       -0.07357988700829297 -0.5080203261690995
000630 2b ee c6 45 91 7e e9 bf 24 bf 23 a1 de 4c c7 3f
       -0.7967001307328635 0.1820333754362703
