src/params/bias2.npy (npy, 1680 bytes, 1 tensors)

array f8 [200]
-7.62821741198501 20.813895379212802 18.908388303025333 8.90979798140089 -34.0444467438956 -1.9780541583858402 21.27715420347867 -5.789244328363614
4.960675365231604 28.99330006439467 29.61072473497215 26.63303081387937 -2.492882608533716 -16.653703850630293 26.126905635385995 15.708093644251768
-9.49570529156207 32.34268538390908 -13.521169835426035 -53.58189660180358 -49.194612202731626 18.855922132192592 -2.7765102940813766 12.346720286486066
-30.73438051815065 -27.056845867679524 4.806700190978244 -33.19584933305894 6.3012795416893095 -9.166903772239918 -21.5550857270428 14.470747009771568
1.6857392522169465 11.379044961452335 -35.10644216971157 -4.0647494073283355 -19.819178135559493 14.05759885282493 1.0575071188562326 -58.09994632802748
8.703906556115099 2.393829555529594 -19.043603727133092 17.255297372000935 -3.0505687480116865 -18.339555449152183 4.064026069808878 1.1782328321240363
23.290376895565327 -35.78928066615229 -37.07955285823557 -32.01807301045812 -3.7208107352626767 -17.3889882381393 5.703373212134119 -49.382582695854126
16.956288900535856 -47.21190504894468 3.034690672583279 -11.640785310068217 -6.85879703313047 24.449477913083456 -27.613330453306798 -46.922066280259706
23.057552934712827 -20.63839402833082 -63.67019046522536 -24.714811876635768 -34.62353496483116 -54.03825080310206 -49.82157385713948 9.890965542705025
-42.551441008174585 7.768350725157349 -55.68212641169514 -47.352222498689514 -47.28363053752612 7.025062233185409 22.863527878736534 -38.06237205465154
39.397842438919675 26.253453634046398 22.094472773626457 -39.270723478855686 16.26828229700419 -16.616163804546773 12.948427181510652 7.224340731367397
1.2324519581921562 6.638536642757852 -27.029833308440402 11.636948490176936 7.7133869916615065 9.972245360982786 -38.08665430889238 -16.778167988776246
-16.158478467036602 19.634087066973528 13.8829582432482 -21.704696936155806 -32.925703138216605 8.977523786109606 10.279949205745824 -13.444366083512817
14.377050958218502 -37.1971265729109 -51.20459196347069 13.78691938240669 -5.607823343826695 -10.970365909874971 -7.755778042847206 23.584493626118736
-4.421047453922814 7.285609034555469 7.2666232487757245 -20.784511426593824 13.586235837487354 -0.468192976495452 -61.12372664154437 -36.67848583741141
33.03722941732485 -37.90631324562439 -28.404407395823036 12.700884268783767 27.148436833163217 5.009401447043694 -13.334765171592554 -41.18729548301969
-57.98945993152115 11.402902458221273 -8.468186623784742 -24.202496879017435 -32.73547051290095 -17.323799756819817 -11.274333697677749 -35.858734086863535
-48.33814405319537 17.282903802511584 22.634681712563065 -48.65700764591343 -8.550605626379765 13.85753291799878 -12.120763361659172 -4.873470635453811
-31.97093454575778 11.068851368928676 -1.8941568554683046 0.08711828975632582 -0.6915908347800139 19.941227838462726 19.276368418189218 -35.985426506041975
1.2492589933011362 33.37730249661497 -21.79975881084735 38.74813281186785 32.129500599180105 -41.17513063420669 -23.49548251827266 -41.944701781327545
8.982119142936906 36.19488573009535 41.803716249714135 -22.029842203747588 -30.20428687119982 -28.307698563891314 3.2692444909736915 -12.576150714968996
20.32669761250007 -0.2431871425285096 -43.690930734687235 -62.3789889355231 -49.751526091981475 -68.22777914110713 9.36967959457041 18.1689955048583
-32.86519704289233 -1.5116396273439687 19.106702256026672 3.5152009804803988 17.900712819435224 -1.7079389852547935 12.665798160709816 -56.76123065522064
-5.5768818460364376 16.052167574973712 5.889621644518164 -49.64096538510808 6.856539943254036 -29.031837288049193 -24.64000604055072 27.84763818389536
-26.257309950894726 7.511221749298763 -25.946387999826545 -10.590155050905636 -71.98582550767773 43.297636364844216 24.912411591963792 -1.0603826190132677
00000000: 7503 dd6c 4b83 1ec0 a215 9472 5bd0 3440
00000010: 1090 c522 8ce8 3240 d32a 800a d1d1 2140
00000020: ffb8 4f6e b005 41c0 6abe ff1d 1ca6 ffbf
00000030: cbe3 ef93 f346 3540 3680 4baa 2f28 17c0
00000040: 6bf8 6e48 bbd7 1340 97b0 bbe9 48fe 3c40
00000050: 4b90 cb74 589c 3d40 dff8 b24e 0ea2 3a40
00000060: 195b e36f 6cf1 03c0 f4b9 b322 59a7 30c0
00000070: 34a9 41e3 7c20 3a40 3422 0940 8b6a 2f40
00000080: 2d6d 7f15 cdfd 22c0 755a 5a1d dd2b 4040
00000090: 0fa2 cdc5 d60a 2bc0 3033 7d96 7bca 4ac0
000000a0: 4311 7b0d e998 48c0 95b0 7db6 1ddb 3240
000000b0: e1b1 7007 4b36 06c0 83a2 4652 85b1 2840
000000c0: ce46 945c 00bc 3ec0 a798 6673 8d0e 3bc0
000000d0: ccb6 679d 0f3a 1340 3d37 4897 1199 40c0
000000e0: ae09 ca9f 8234 1940 efb2 4669 7455 22c0
000000f0: 0e20 2419 1a8e 35c0 3e51 87c0 05f1 2c40
00000100: 3baf ddb8 c9f8 fa3f 7f4d 622e 12c2 2640
00000110: cae9 a2e5 9f8d 41c0 70a4 2bab 4d42 10c0
00000120: 87d3 85a8 b5d1 33c0 2357 ca98 7d1d 2c40
00000130: 3065 ac95 8ceb f03f dd1d 910a cb0c 4dc0
00000140: 9fe8 ab70 6668 2140 2495 291c 9026 0340
00000150: 3505 269d 290b 33c0 af7f 272b 5b41 3140
00000160: 6447 7796 9067 08c0 8749 1d1b ed56 32c0
00000170: a3ae cf0c 9041 1040 36bd 90ab 0ada f23f
00000180: 93f7 e523 564a 3740 9d3e 1c26 07e5 41c0
00000190: 6a36 bec9 2e8a 42c0 cf6d 6637 5002 40c0
000001a0: a678 346b 38c4 0dc0 4356 b1bb 9463 31c0
000001b0: 7afe 3b11 41d0 1640 c05a 4378 f8b0 48c0
000001c0: 4d54 7159 cff4 3040 8f89 63b4 1f9b 47c0
000001d0: 7cc5 41e7 0b47 0840 1c00 1d03 1548 27c0
000001e0: eec9 4c7d 686f 1bc0 c0f7 08fc 1073 3840
000001f0: f397 7e39 039d 3bc0 db3a 9344 0676 47c0
00000200: 6361 04ca bb0e 3740 7fa4 81ca 6da3 34c0
00000210: f21d 19cd c8d5 4fc0 69f1 40e9 fdb6 38c0
00000220: 61ee 64fe cf4f 41c0 3e2f fe66 e504 4bc0
00000230: d1d4 0755 29e9 48c0 dc8f b7a2 2cc8 2340
00000240: 3de4 739e 9546 45c0 82a2 5188 ca12 1f40
00000250: f6fb 12eb 4fd7 4bc0 b864 78a0 15ad 47c0
00000260: 2a69 6501 4ea4 47c0 9095 ffe9 a919 1c40
00000270: 905b be29 10dd 3640 d374 b7ce fb07 43c0
00000280: 790f 4480 ecb2 4340 1948 5d56 e240 3a40
00000290: 8a16 215e 2f18 3640 e6f8 2311 a7a2 43c0
000002a0: 90ba 0b26 ae44 3040 e081 3de9 bc9d 30c0
000002b0: 9073 5e3f 98e5 2940 e688 a193 b9e5 1c40
000002c0: 3939 658b 1fb8 f33f 3bc5 b78c dc8d 1a40
000002d0: 4015 dc27 a307 3bc0 d117 cd1c 1e46 2740
000002e0: de4f 9a1e 82da 1e40 b237 da24 caf1 2340
000002f0: 0860 077d 170b 43c0 8c96 6e04 36c7 30c0
00000300: dc0a 790b 9228 30c0 c677 af87 53a2 3340
00000310: 22f8 541a 13c4 2b40 6e61 b604 67b4 35c0
00000320: f238 c070 7d76 40c0 43ce 68ff 7df4 2140
00000330: 6170 9680 558f 2440 3f47 88f3 83e3 2ac0
00000340: a7f2 bcd2 0cc1 2c40 96e9 8b71 3b99 42c0
00000350: c610 c811 309a 49c0 ee0c e818 e792 2b40
00000360: 90ec 1d3e 696e 16c0 f021 f0cc d3f0 25c0
00000370: 2a41 e4ad ea05 1fc0 82e6 d05f a195 3740
00000380: 74a6 5210 27af 11c0 766e dbb1 7624 1d40
00000390: 4a61 57af 0511 1d40 0c8f a8bd d5c8 34c0
000003a0: b280 8b1a 272c 2b40 84f3 90ac dff6 ddbf
000003b0: db89 4b46 d68f 4ec0 973d b99f d856 42c0
000003c0: 00ee fcee c384 4040 b6f1 8a12 02f4 42c0
000003d0: 0a52 3b3e 8767 3cc0 106a 894d da66 2940
000003e0: 34f5 cff4 ff25 3b40 d959 6e88 a009 1440
000003f0: e2a8 2f57 66ab 2ac0 0921 634c f997 44c0
00000400: f94a 7f9f a6fe 4cc0 a613 233b 49ce 2640
00000410: 0629 3b28 b6ef 20c0 05ec e0d5 d633 38c0
00000420: 7d0a d4e5 235e 40c0 6efe 758a e452 31c0
00000430: f16e 6777 758c 26c0 0885 a1ff eaed 41c0
00000440: cfe7 e84d 482b 48c0 88b3 3362 6c48 3140
00000450: e0d3 2e80 7aa2 3640 c735 98d3 1854 48c0
00000460: e196 0cfb e819 21c0 af18 fc8d 0eb7 2b40
00000470: 28c3 01b2 d43d 28c0 6d29 1516 6f7e 13c0
00000480: 1696 982a 8ff8 3fc0 c0aa 937c 4023 2640
00000490: 67b0 3b6b 774e febf fe09 635d 624d b63f
000004a0: f2fd 321a 8321 e6bf 3d48 c04e f4f0 3340
000004b0: 1bc5 a514 c046 3340 ea07 ac74 22fe 41c0
000004c0: 6e65 87ff f6fc f33f 8ad4 bd72 4bb0 4040
000004d0: f846 51fe bccc 35c0 ba04 e4d0 c25f 4340
000004e0: 3e25 c379 9310 4040 0539 3dae 6a96 44c0
000004f0: 86b8 3bf1 d77e 37c0 2ba3 ebfc ebf8 44c0
00000500: 0e61 ff51 d8f6 2140 ba9b fe03 f218 4240
00000510: 9be4 8f2c e0e6 4440 ef22 19bd a307 36c0
00000520: 2ece f624 4c34 3ec0 7af0 4455 c54e 3cc0
00000530: a2e1 daa7 6927 0a40 bcb7 fc39 fd26 29c0
00000540: 7c5e 6974 a253 3440 9cdb fb9b c120 cfbf
00000550: 37a4 166b 70d8 45c0 0ccf 9db5 8230 4fc0
00000560: 5893 c901 32e0 48c0 0871 f6ee 930e 51c0
00000570: 5e5b d1a4 46bd 2240 9489 164a 432b 3240
00000580: c4e8 d5c6 be6e 40c0 c57a ac08 ad2f f8bf
00000590: 420b ccd6 501b 3340 5b3e 10b1 211f 0c40
000005a0: ef8f 861d 95e6 3140 67b9 53d4 b753 fbbf
000005b0: a2f8 1b7f e354 2940 5271 9001 7061 4cc0
000005c0: ca87 591d ba4e 16c0 796c acda 5a0d 3040
000005d0: b713 f4f9 f88e 1740 2174 5b27 0bd2 48c0
000005e0: a2f9 8fce 186d 1b40 f1f6 0e7d 2608 3dc0
000005f0: 6568 956f d7a3 38c0 e1ab e6d0 fed8 3b40
00000600: 3907 a010 df41 3ac0 e9f7 d8b6 7d0b 1e40
00000610: f594 e47b 46f2 39c0 f86a 86cd 282e 25c0
00000620: 76c2 dec3 17ff 51c0 998d caf2 18a6 4540
00000630: cdf9 5bce 93e9 3840 7f8a dec3 53f7 f0bf
