src/params/weight3.npy (npy, 2128 bytes, 1 tensors)

array (column-major) f8 [16, 16]
0	0x3fe8fcfd52c52214	0.7808825127222598
1	0xbfcc94ccf3b94ac2	-0.2232910337503054
2	0xbfde00931c9f934e	-0.468785074188692
3	0x3ff30a5a3cfee16b	1.1900274641648945
4	0xbfd321cbdb7e4421	-0.29893776354680496
5	0x3ff4eaf1b5e99c7d	1.3073594194372895
6	0xbfe89eae264393fd	-0.7693701503127383
7	0x3ff540f529418048	1.3283588038975882
8	0x3feffefc49627034	0.9998761590281959
9	0xbff2fb0c80050590	-1.1862912178770308
10	0x3fe2881e2872225a	0.5791159429509876
11	0x3fda49e564e3cad2	0.41076025822182516
12	0xc00143a387e2287a	-2.1580267539875964
13	0x3fef6c6787f5496c	0.9819829612190865
14	0x3ffc0188f375f7a3	1.7503747472942244
15	0x3f961c47d966bc8b	0.021592257160304256
16	0x3feb49966c86bbc7	0.8527328605322219
17	0xbff5af0b79b3a845	-1.3552355531669644
18	0xc0066edc162d070b	-2.804130719422465
19	0xbfdf967d2cfe27bb	-0.4935601176626922
20	0x40026af06093e618	2.302216295732034
21	0xbfe853935bcd08bd	-0.7602021019922841
22	0x400446aee15c3b26	2.5345132452270205
23	0x3fc743329ae082da	0.18173821031907417
24	0xbfe24a3e7fe48441	-0.5715630052474198
25	0x3ff31ff28630f530	1.1952996484608995
26	0xc000664dc417c687	-2.0499530143504816
27	0xbff188a6b061f610	-1.0958620920131388
28	0x3fde47fb7106ea15	0.4731434444217098
29	0x3febb929af27addc	0.8663528843875912
30	0x3ffad20d4cca0593	1.6762822150779797
31	0xc0058c24acc3ec93	-2.6934293267527862
32	0x3fd72777dd2b12d7	0.3617839488836529
33	0xbfe46a60c666a457	-0.6379855990427455
34	0x3fc14758f7ea5f63	0.13498985390901472
35	0xbff110327a0a319d	-1.066454388349576
36	0x3ff18aaee529f973	1.096358199283341
37	0xc00531114c966653	-2.6489587767980907
38	0x3ff6309ac41db4f9	1.3868663464339177
39	0x4000a83602d2f475	2.082134267866929
40	0x3fc1980ed8b0bee1	0.13745294170939018
41	0xbff2a0314dbe0a6c	-1.1641095196543132
42	0x3feabf87df3f7ed6	0.8358802185357159
43	0x3fe338c026a123e6	0.6006775621873401
44	0xbfe7afdb6f63b4d4	-0.7402169395042173
45	0x3ff8eace18ce49b1	1.5573254555680303
46	0xbfef1fe24792fd36	-0.972642078202546
47	0x3fecbef144faf946	0.8983084056160713
48	0x3fd9aa9e6944f33e	0.4010387447377076
49	0x3ff05d197c3f63d1	1.0227293828413517
50	0x3ff9eeb48d2eba25	1.6207776560728544
51	0x4002a1d17dfc086d	2.3290128557719556
52	0xbff293f54047ef94	-1.161122561547903
53	0x3ff7ca166a56821c	1.4868377832245931
54	0x400b11bca47125b3	3.3836605879812054
55	0x3ff0b79f73a13375	1.0448297993454763
56	0x3fc56253c68d4d51	0.16706320948524447
57	0xbfbb22028cce80c5	-0.10598770082151805
58	0xbfeeabf87c89a55b	-0.9584925110222388
59	0xbfe770cff5d9edc9	-0.7325210382254507
60	0xbff36731eb43cf64	-1.2126940908464912
61	0x3ff5afe5ece23773	1.3554438832538522
62	0xc000b80bc7a0b933	-2.0898662181781673
63	0xbfda1b66a14a4289	-0.4079224181269088
64	0xbfdac8e0d4c11b2e	-0.4185106351546207
65	0xbffef828bb680d82	-1.935585720116109
66	0xbf766666533b0c9e	-0.005468749721049408
67	0x3fd094879b2b1b0b	0.25906553414499517
68	0xbfe3fe4e4acc3344	-0.6247931919948333
69	0x40028aec6a336ee4	2.317833738035789
70	0x3ff790900e968e95	1.4727936334465188
71	0x3ff56884855c458b	1.3380170068161046
72	0x3fe63d8c1a1c5e43	0.6950130948998282
73	0x3fff4ecbf664f54f	1.9567374825267796
74	0x3feeae6e3737c10d	0.95879278931355
75	0x3fe40dfa416a5f75	0.62670624519795
76	0x3fcb8a41aaa7bd62	0.21515675385260652
77	0xbfb6e3c66bb6bb00	-0.08941307191592429
78	0x3fa72d29d1eb83a2	0.04526644408702586
79	0x3fe85e417aee96dc	0.761505832768957
80	0x3fe9398f5a260978	0.788276363440942
81	0x3fe432a86d9968c4	0.6311838284120985
82	0xbffba63d916b917e	-1.7280860596157193
83	0xbfefd3d3adb71655	-0.9946077721476266
84	0xbff0828f0a01c904	-1.0318746939561274
85	0xbff661fc8ca88ce7	-1.3989224905461073
86	0x40006cd661c5c254	2.053143276069287
87	0x3fe441b9945ce2df	0.6330230615340858
88	0xbfe94a2d3d1ef39f	-0.7903047746436761
89	0xbffaf093f25252d1	-1.6837348428427286
90	0x3ff117a15bfdc000	1.068269118633907
91	0xbff151b500daad9e	-1.082448008858456
92	0x3ff7e166f1c56ff8	1.4925298160733274
93	0xbffb411531bdd129	-1.7033893530870705
94	0x3ff91f93282409ce	1.57020869903555
95	0x3fcc9c1c9c93368f	0.22351415295854735
96	0x3fe471d9fc6e0933	0.6388978891630245
97	0x3ff8f60d4b309cc6	1.5600712716202891
98	0x3fcbe630722a2e7c	0.21796231817676304
99	0x3fe9d623433e79c4	0.8073898614273323
100	0xbfddfedd4def7fc7	-0.46868069277661245
101	0xbfd9230d03420300	-0.3927643329443953
102	0xbff6f02075b4e23a	-1.4336247060692942
103	0x3f93319f87f08d0e	0.018743984863374634
104	0x3fdf1743516bc297	0.48579485846770737
105	0x3fd088265942a333	0.2583099242861408
106	0xbff215c267a2fd2a	-1.1303123520190845
107	0xbfde0f3ddc007293	-0.4696802757696698
108	0xbfdb438537e3be3c	-0.4259961171910367
109	0xbfd80b20492ebcdd	-0.37567908426986013
110	0x3f9d80c1398285b7	0.028811473021624425
111	0xbfd22bd79cad9ba5	-0.28392591763116065
112	0x3fcaa0198d4b2874	0.20801085852719192
113	0xbffacd0d91735221	-1.6750617677363453
114	0x3ffd3eca7bd125ab	1.8278298222161122
115	0xbffdb6606e840187	-1.8570255581872475
116	0xbfd2f89fc127d4f6	-0.2964248071942416
117	0x3ffc3bb929905ebc	1.7645808814612982
118	0xbfdc8035f8227426	-0.44532536727803274
119	0x3fe4827dbbcf2610	0.6409290950916233
120	0xbfdd7228407af399	-0.460092604607604
121	0x3fff077b41d66522	1.939326531579646
122	0x3ffb972af4b9a88c	1.724406200368807
123	0xbfd4a0c719c85288	-0.3223130943090742
124	0x3fc3c09faef39be7	0.15431591074522474
125	0xbff3427f37bd4b10	-1.2037346055337288
126	0xbfe9b2aee729c086	-0.8030619158653429
127	0x3ff754083c0b77a6	1.4580156655788215
128	0x3fdb8b41b03c763c	0.4303745480591237
129	0x3fe48bc423c689ef	0.642061300157648
130	0xbfc08df843a1a6fb	-0.1293325739127836
131	0x3fd97321f71b53ee	0.3976521409179544
132	0x3fe7ca7d00f8a87c	0.7434678095790015
133	0x3fc5840c96d4d872	0.1680923210603314
134	0x3fc25b06be159677	0.1434029033800248
135	0x3f9fec6282b8eded	0.031175173977528493
136	0x3fe56dd05f23b44b	0.6696550234024782
137	0x3fc0643fe0279321	0.12805937237785606
138	0xbfb2fa3dbc9c931f	-0.07413087706352116
139	0xbfeb62a4c879129d	-0.855791465328895
140	0x3febb98c66a93bc4	0.8663999562357891
141	0xbfd9649d9e5066df	-0.3967660947833859
142	0x3fb908d1ce7551e3	0.09779082575307245
143	0x3fef4b1b3735d41a	0.9779182508779087
144	0xbfe932bdc7330bd7	-0.7874440088856954
145	0xbfefbf4a0d01b760	-0.9921007398640818
146	0xbfd3293e9ecda590	-0.2993923712552595
147	0xbfd43bb0cf5fb2ce	-0.3161432290205938
148	0x40012be720a60adf	2.1464369345352305
149	0xbfe5be0d2254b8bb	-0.6794496222044225
150	0x3fe9aa7854d75a52	0.8020593316130749
151	0xbfe76f2ed45f5ac4	-0.7323221347713447
152	0x3fc59cb7ace1d550	0.1688451379920175
153	0xbff3a8df791469a7	-1.2287287454297287
154	0x3ff4fd72971fc1c8	1.31187685997803
155	0x3fc2da1144229548	0.14727989031704625
156	0xc0010410ef07e770	-2.126985423496926
157	0x3ff73deb057de480	1.452616712047785
158	0xbff3ea30c2da400d	-1.2446754084994638
159	0xc00151d7847b20dd	-2.1649618482662008
160	0x3fdfe52aa1f4dec5	0.49836221519533935
161	0xbfefe4ded734d66e	-0.9966882899522724
162	0x3fff6c2d12319527	1.9639101706209858
163	0xbff6ac72d1e2ea22	-1.4171016882597844
164	0x3fcdcc68bb37e57f	0.2328005708839491
165	0xbff3e055af8bf39f	-1.2422692162792612
166	0xbff39ff636a965bf	-1.2265531668875693
167	0xbff4ea1e93973ad6	-1.3071580662978497
168	0x3fdffebb5b538691	0.4999225990160108
169	0x3ff2b569835b5e70	1.1692900782708442
170	0xbf9ed60d232f55fd	-0.030113415977970338
171	0x3fe44c6977179603	0.6343276334779947
172	0x3fe375df3d47e8f3	0.6081386753933472
173	0x3fd4318285bc393b	0.31552184162218894
174	0xbffb0c9485f9a69f	-1.690571330395336
175	0x3ffb8d1e5830d9b5	1.7219527668909056
176	0xbfc9776db401b255	-0.19895716943155387
177	0xbfe42fc54cfbdd3a	-0.6308313850012504
178	0xbfe6da86f7db1bdb	-0.7141756859717775
179	0xbfe9bcc7ea5a9db0	-0.8042945458627653
180	0x3fde95ae1543e99c	0.4778857429188521
181	0x3ffab9c6440933fc	1.670355096593311
182	0xbff475e9d5df7923	-1.2787874559795191
183	0x3fe103837877b92a	0.5316789009937442
184	0xbff276a0eda1b670	-1.1539620668876545
185	0x3fa61a29cb41f70a	0.043168359815338134
186	0xbfe6c7680412857d	-0.7118415908372949
187	0xbfe842f3014876f4	-0.7581725144443383
188	0x3ffd8ea0240c2727	1.8473206909279243
189	0xbff5ba2ea00654c4	-1.3579546214071323
190	0x3fefebb7ca1ab95f	0.9975241610862148
191	0x3fd4e29c6a7d1d6f	0.3263312377861984
192	0x3ff2264f693663b2	1.1343530759679479
193	0xbfe5e0fe66714972	-0.6837150574522595
194	0x3ff1861c1bc9dbbe	1.0952416501511233
195	0x3febe78af3e9116e	0.8720145000338968
196	0x3fd11016005f05da	0.2666068080544314
197	0x3ffc0993eed14c5d	1.7523383454142938
198	0xbfa0cbf65f124340	-0.03280610952891161
199	0xbff2eb85dbfaacd9	-1.1825007050454615
200	0x3fe6e17797bf4f99	0.7150228465857139
201	0xbfde876bb64d056d	-0.4770154266626239
202	0x3ff01247a2cf47cb	1.0044628486398206
203	0x3fee218c8f0ce9e6	0.9415953439668641
204	0xc0043db3311f803c	-2.53012693765052
205	0x3ff12c3296e72c1c	1.0732904333733648
206	0x3fd6cf7a02ec200d	0.356413367132064
207	0xc002c1a1d6f4e83d	-2.3445469659318676
208	0xbfe7ff8d708134ca	-0.7499453732831622
209	0x3fd0c94cadecd0bd	0.2622863481985965
210	0x3fc456390302b8ae	0.15888130805018846
211	0x3fcc48c86fa78310	0.22097115947601553
212	0xbfe8b82287e1590d	-0.7724774030600955
213	0xbfe39f2533fec2f9	-0.6131769195108908
214	0xbfdf4c864c2eab97	-0.48904569091490074
215	0x4001431fe171108a	2.1577756512288646
216	0x3ff128f7cd5196c4	1.0725019474279387
217	0x3fded878689b3169	0.4819623014016288
218	0xbfdc98ff11cf2d09	-0.44683815707385627
219	0x3f7afcb7f54d7d35	0.006588667475482969
220	0xbfe9fa4e49ee8a77	-0.8118049091320491
221	0xbfc05176eed6da19	-0.12748610174249178
222	0x3ffdc275a57b3580	1.8599754776108455
223	0x4001caff324c62e3	2.2241195611535303
224	0x3fea376d95d9d3fe	0.8192661215567794
225	0x3ffe9ab6734da346	1.9127716545137488
226	0x3fd5236dccb59b01	0.3302874087443542
227	0x400a3476021379f9	3.2756157076066725
228	0x3fed955d7ea5e677	0.9244830583185849
229	0xbff139e2b3b69a47	-1.0766322155046895
230	0x3fe864c3c7a92da7	0.7623003863931687
231	0xbfd25b4050a277d8	-0.2868195331046741
232	0xc00060ee465a9a8a	-2.047329473152165
233	0x3fd8fb339688a9f1	0.3903321237618505
234	0xbffc6925deab2a86	-1.775670881079948
235	0x3fc5390a5d47c071	0.16580323748303585
236	0xbfcea2d28e404a4a	-0.23934394784790164
237	0xbfc4a900954fa636	-0.16140754023153797
238	0xbff3760d9efc38a5	-1.216321583782283
239	0xbff01b177769a0df	-1.0066141762309184
240	0x3ff1ce1c09e588d8	1.1128197084986393
241	0x3ffe792de44423fa	1.9045847813270016
242	0x3fc5e51370b821b5	0.1710533428561242
243	0x3ff04c8c4fdd36fa	1.0186884994213288
244	0xbff291988c82339d	-1.1605458725564184
245	0xbffc7f2a69d114d0	-1.7810463078943037
246	0x3ff5e3110467eb25	1.3679361507517538
247	0xc001f28811cbba5b	-2.2434235945031964
248	0xbfdd3a80fe67e7fe	-0.4566957935745676
249	0xbfef0781b6e9ce8d	-0.969666344883494
250	0x3fe0daa6f80ff6c8	0.526690945145412
251	0x3fdaa6a3b060a5c1	0.41642086243026816
252	0x3ff813afe63b03b5	1.5048064225559135
253	0xbfebbe17edca5e43	-0.8669547695489616
254	0xbff3d90fbd42952a	-1.240493525788518
255	0x3fe5bccc367b6cf8	0.6792965950111514
