src/params/weight4.npy (npy, 6080 bytes, 1 tensors)

array (column-major) f8 [10, 75]
0	0x3fc741f3d05d26b1	0.18170020746247453
1	0xbff055bc6ab17355	-1.0209316413595009
2	0xbfd11e4cc523ccc2	-0.26747435810029796
3	0xc0070d9ba5b25b8a	-2.881644529824773
4	0xbfe2ea67006d5b90	-0.5911135681479767
5	0xc0017cd76ddfc080	-2.1859577735813787
6	0x400006d4d35a8210	2.0033356201167933
7	0xbff82cd8e5338d70	-1.5109490349940096
8	0xc006a0bf01b2adde	-2.828489316239696
9	0xc0120d33f934d17c	-4.512893575524114
10	0x3ffbe878d7991af7	1.7442558690833587
11	0xc01316cc7db7da38	-4.772264446588956
12	0xbfd8a164e0492046	-0.38485071089644796
13	0xc001740c934f518e	-2.181664610727416
14	0x3fe923926ac52d6c	0.7855922780376381
15	0x3fc67e6d57a282f4	0.1757332494644498
16	0x3ffe0bbd34330f0e	1.8778659857788997
17	0xbff868480b5ad337	-1.525459331850653
18	0x3fe0acea523f391a	0.52110782684193
19	0x3ffce6de69e60c1c	1.8063644539513524
20	0xbff435ba2f9d1b77	-1.2631170139227075
21	0xbffed180f9998a46	-1.9261483907690873
22	0xbff8daf36e22c2aa	-1.55345480939665
23	0x3ff148a64b2d5af2	1.0802367149933016
24	0x3fb23327fbbd3b3a	0.07109308143593021
25	0x3fdc1a2ea161312a	0.4390980316136558
26	0xbff65468f18cde66	-1.3956078944737782
27	0xbff93c80d0607e86	-1.577271284077058
28	0x3fed33a3f370b1db	0.9125537638370206
29	0x3fecf03b35b78659	0.9043251084478455
30	0x3fcf3d8a61571e1e	0.24406556847519395
31	0xc002c113b12054f5	-2.34427584056777
32	0xc0000441fcdc77b4	-2.0020789866238946
33	0x3fde7435c1922473	0.47584289458661216
34	0xbff860cb1c36801f	-1.523631200987445
35	0xbfee3cddc3359f41	-0.944929963367919
36	0xc003fe80f3ff292e	-2.4992693960422434
37	0xc012e07b203a1a99	-4.719219687982922
38	0x4000e247edd4807c	2.11048875622515
39	0xbfe4fa1bcb4923d7	-0.6555308313774003
40	0xbff79341979f1168	-1.4734512255391454
41	0x3ff83fef17952ccf	1.5156088753890804
42	0x3ff4d3967efce2bb	1.3016571960890093
43	0xbff7ab1d2a1b708d	-1.4792758602916678
44	0xbffbd535f72fd3b8	-1.739553418706448
45	0x3fd13dbc787be1ca	0.2693930794335101
46	0xbfef539b899dad76	-0.9789560020266623
47	0xbff668a3929f48f4	-1.4005466201238592
48	0x3ff667c22a657f08	1.4003316551315397
49	0xbfdc624eef2e337c	-0.4435002647158439
50	0xbff1380f121b3582	-1.0761862475659147
51	0x3ffbc4a1be7da4dc	1.7355058136984587
52	0xbff114fc0d31f4d7	-1.0676231875834696
53	0xc001a02535a5374b	-2.203195971588604
54	0x3fee56fbfe22369c	0.9481182063625115
55	0xbffa1447d8aecf5c	-1.6299513305829896
56	0xbff8753a3efae141	-1.528620000854133
57	0xbfdb6ac20d595153	-0.428390992198975
58	0xbff3ee48fc72ef7e	-1.2456750737464684
59	0x3ffc509770ddcf41	1.769675675282045
60	0x400eb39bda243c5c	3.837699608069256
61	0x4004ec9c12741425	2.615532058875504
62	0xbff20ffadbce4748	-1.1289013467944233
63	0x40095bc300576410	3.1698055292768075
64	0x3ff8c658d161c537	1.5484245470982623
65	0x400660a91a2dff0d	2.797197536972709
66	0xc000cd60ff6b415a	-2.1002826647383417
67	0x3feea086583f8c24	0.9570953105543407
68	0x40052daa063e550d	2.6472969520351683
69	0xc00b1b9880f29721	-3.3884744714768122
70	0xbfd89b61f2bfe1fb	-0.38448380189905124
71	0xc00ce66ae98cdf16	-3.6125086065402554
72	0x3ff40f38a771d88c	1.2537161389168743
73	0x3ff1626586e3338a	1.0865226048510714
74	0xbfe1f0e3302d039a	-0.5606552067693997
75	0x3fd667f495f205c8	0.3500949348745874
76	0xc007f6c7aab1f6eb	-2.9954980216560805
77	0x3ffd3607c2b2510c	1.8256909947713806
78	0x3fdd4f9c59936e5a	0.45798405406615006
79	0x40005f91550cee7a	2.046663917977466
80	0xc008569426fdb26a	-3.0422747656032714
81	0xc00637e001669f2e	-2.777282725281018
82	0xbffe7f7d92020b9f	-1.9061256125866988
83	0x3fed8f2ce5876357	0.9237274630532778
84	0xbfe459c8c9d49924	-0.6359600011826712
85	0x3fd06701dec0ec3d	0.25628706696778975
86	0xc001f212d4b7aa11	-2.2431999796438125
87	0x3ff1b1c83ad98ec6	1.105903844721
88	0xbfee9efecdc2ec4f	-0.9569086092736913
89	0x3fe9f37438753e42	0.8109685042090364
90	0x3ff15688c7d67829	1.0836265379107408
91	0x3ff58fd83ed263e7	1.3476183370569232
92	0xc0008ca0a29c91c6	-2.0686657623320768
93	0x3ff07a59e12348ba	1.0298708719679284
94	0xbffcdb71bdbc161f	-1.8035752688896378
95	0x3ff37277f403a2c0	1.2154464275173922
96	0x3fb45a033040b822	0.07949848106429205
97	0xbfc7f999af609fc9	-0.18730469764090987
98	0x3feed4ab088fc228	0.9634604613511941
99	0x3feff93d883e117c	0.999174848650497
100	0xbff447b06a7a2407	-1.2675022277128407
101	0xc0082e73e3df7dc6	-3.022681980379022
102	0x3fe3db0e309fbb46	0.6204901647268819
103	0xbfdbc5cb772f507a	-0.43394743575232264
104	0x3fe3cee2d6758ab1	0.6190046490340447
105	0xbfde747fd757af8d	-0.4758605578378983
106	0xbffd65f55328601e	-1.8373921631191545
107	0xbff7d4fc82961c98	-1.4894986248998858
108	0xbfe73b2339fd24f5	-0.7259689457506783
109	0xc000ca30229545b0	-2.0987246228985086
110	0xbfff1703dc41f117	-1.9431189159213937
111	0x400c096cf2e3a36f	3.504602334567998
112	0x3fcc521511dbaf4d	0.22125495311717672
113	0x3fd5cc6108c05f5a	0.3405993066276004
114	0xc01111d433641110	-4.267411044104179
115	0x3ff81131fd25a7ee	1.504198063712916
116	0xbff907de7557ea9c	-1.5644211372115597
117	0x3ff025df56f2f874	1.0092461964082107
118	0xc012aa802af42e19	-4.666504546311921
119	0x3faf37cdc57b4606	0.06097262416518494
120	0x3ff83251a7d74025	1.5122849041254167
121	0xbfe4121791d6ec1c	-0.6272085045269509
122	0x3fef9c63da2838b9	0.9878405819779551
123	0xc000d610d6fe281b	-2.104524306899305
124	0xc00677e5b638a3c5	-2.8085436092410156
125	0x3fc13ec9196429cd	0.13472856273467784
126	0xc01255743a56da6e	-4.583451186705686
127	0x3ff9b82b2baea668	1.6074630457245807
128	0xc00a89ee3aff90c9	-3.317348919796221
129	0x3fd3eaa4fec620f9	0.311196564486195
130	0x3fe6ab3a9278a9f0	0.7084019528168124
131	0xbfc61714b77bc75f	-0.1725793739238339
132	0x3fd14b2f0efa3c2e	0.2702138563408337
133	0x3fca49bfbde270e6	0.2053756405993063
134	0xbfecb53f47e33ee0	-0.8971249012047018
135	0x3face5b9741fef94	0.05644015829599805
136	0xc001233b8852ce3b	-2.142203393008257
137	0x3fe6a8575b25bfec	0.7080494671081374
138	0xbfdf185806f051cd	-0.48586083104717376
139	0xc00611b21b737449	-2.7586404938324773
140	0xbfe12ab9483208ac	-0.5364653024737627
141	0x40082c1cb62f6c48	3.0215391381475776
142	0x40076e601d010cab	2.9288942590661313
143	0x400102f656e97d18	2.126446417809017
144	0xc0109cfc0506fcc7	-4.153305128623464
145	0x400028c10bd6ee7d	2.019899456497852
146	0xbfe1ab178fab7f9c	-0.5521352582982106
147	0x4012455ec4c36eae	4.567744326046222
148	0xc00c67805858203d	-3.5505377675908947
149	0x4009e3f6a96638af	3.2363103136368276
150	0xbff173651a184c4f	-1.0906725901920884
151	0xc00adf03a348cd7e	-3.3588936573593733
152	0xbfedc1d1f7e54aef	-0.9299096910202403
153	0xc0053f51d22875f4	-2.655917779788746
154	0xc004686e843c9f16	-2.550992043590564
155	0x4005c5163b0c1c17	2.7212338078566165
156	0x3fd80886871a51b4	0.3755203551638957
157	0xc00362f0490f6e72	-2.423309870513372
158	0xc00073628ba3b0ec	-2.0563403043107567
159	0x3feefa4b5aff8ef3	0.9680535104093607
160	0xc00bef4231bfcf0d	-3.4918254744205854
161	0xbff61fd745f1deca	-1.3827736599177336
162	0xbff049215fd98456	-1.0178540939453078
163	0xbfdb69cac5eb7079	-0.42833203628629907
164	0x4005a86d978ae8a7	2.707240280081425
165	0x3fee3c0f5debab61	0.9448315462480928
166	0xc0067969da70f638	-2.8092839303706363
167	0xbfe12d12141a69c6	-0.5367517845764318
168	0x3ff1350265842c9b	1.0754417386513413
169	0xbfef2eec03e247a3	-0.9744777751786738
170	0xc0009f8a144bfe43	-2.0779000840846336
171	0xbff59d927e6cdaee	-1.3509697855458245
172	0xbfff1e4b0adc495f	-1.9448957847822255
173	0x3fea881e36390f37	0.8291159686127462
174	0x3fd552ba35d5201c	0.33317427880365513
175	0xbfccb7178f968b83	-0.22433752547393845
176	0x3ffb20c23cb09426	1.695497738904359
177	0x3ff89260bd02182e	1.5357367880947197
178	0xbff141f09190687b	-1.0785985647294456
179	0xbff8bb5401fc7e7b	-1.5457344129171406
180	0xbffeb2d91befddb2	-1.9186640826500079
181	0x3fef9f8f35c41e98	0.9882274675482732
182	0x3ff9f112e4d3852f	1.621355909206908
183	0x3ffe9c1938188dec	1.9131099883314802
184	0x4002418db5ed6909	2.2820085728718635
185	0xbfe17cbe4c7ea563	-0.5464774602925612
186	0x3ffac59657f282b0	1.6732390819017091
187	0xc00b1c4f96a65752	-3.3888236779702448
188	0x3ff54dbe685461b7	1.3314804149032236
189	0xbf9ff56d7aed379c	-0.031209669711919838
190	0x3ffa0b3fbd47e47b	1.6277463334829736
191	0xc00abbd223f7a908	-3.3417094049410743
192	0xbfdace4f9f962824	-0.41884222588180564
193	0xbfe061ff344ab97f	-0.5119625111890825
194	0xbff3a62ee25866a4	-1.2280720559705651
195	0xbff06ed7ad216195	-1.027061153689009
196	0xbff3736e46684307	-1.2156813383373348
197	0xbfef625515964573	-0.9807534619923629
198	0x3fe4eecf1bddd159	0.6541514915721037
199	0x3fd98183e5380a39	0.398529981466854
200	0x40091a27b408461f	3.1377710404419896
201	0xc0051a61d5883235	-2.637881916254879
202	0x3ff8249629bd0448	1.5089322691349185
203	0x3fe8864c474e5ea9	0.7663937943170441
204	0x4007190e97ca432c	2.88723486505514
205	0xbff1fbad052cdf77	-1.1239443018111765
206	0x3ff5014692cb440e	1.3128114446774393
207	0x3fea90a3ca7f99fb	0.8301562266395303
208	0x3fdb7d7fcd66cf54	0.42953486498594384
209	0xbffc6ad31de0b572	-1.7760802428341234
210	0xc009b55a32d9631b	-3.213550946482781
211	0xbfdf1342f8ff374b	-0.48555063549143956
212	0xbff6d841e0a9dd6d	-1.4277972007674535
213	0xbfff0bbdb7f8d04f	-1.9403664766696413
214	0x40079343596f5b69	2.946905802450989
215	0x3fd4785ed88d35af	0.31984683177582957
216	0xbfefb50ef0b2d303	-0.9908518506186684
217	0xc00126552d0fc4ef	-2.143717147868862
218	0xbff01c6327358adc	-1.0069304973227906
219	0x3fe16406cca2ac4f	0.5434602734361621
220	0xc003c7595effb2ee	-2.472338430574715
221	0xbffa46ccde2ddd3e	-1.6422852209924055
222	0x3fffa3494cf217ee	1.977364826745084
223	0xbff5fff8c5f55536	-1.3749931080577205
224	0xc007c53f80693033	-2.9713125259495654
225	0x3fd0d0438a51d2ea	0.26271141536498865
226	0xbfe81c1c7269f291	-0.7534315333028464
227	0xc001965cc64f27c8	-2.198419141092902
228	0xbfeb0cfe51a429dd	-0.8453361124568876
229	0xbffce3c378fd6713	-1.8056063390890287
230	0x3feb294596fa520d	0.8487880657945098
231	0x4001c9c8a96eb0a2	2.2235272633461856
232	0x3fd45737ea656c32	0.31782338991405645
233	0xbffe5e0c0fd0e893	-1.89796072176117
234	0xbfe27280178696ad	-0.5764770946013492
235	0xc002d85862dd4852	-2.3556373332767544
236	0x4005cc1daefaa8e6	2.7246659918065346
237	0x3fceb40faf556f4a	0.2398700338479734
238	0xc0032238d19a4ef5	-2.3917099356857485
239	0x3fd3b885d07900ab	0.30813737257632096
240	0xc00257a77446903e	-2.2927998622926955
241	0xbfe93e11b80618f4	-0.7888268083777619
242	0xbfdef345d593423f	-0.4835981927581407
243	0x3fe68cf3dae068de	0.7047061228688809
244	0xbff6b3d416a3875f	-1.4189034351661218
245	0x3ff137f032185904	1.0761568028297583
246	0xbffb387ef51e6f59	-1.7012929511028771
247	0xc00532cc5f1f7b58	-2.6498038703424918
248	0xbfd6b9bf923c5a72	-0.3550871780475183
249	0xbfec23b059358d38	-0.8793565504424015
250	0xbfd4ebbd2cb0199a	-0.32688836444904157
251	0x400063f35dc442aa	2.0488040280836985
252	0xbfc0870eb269fdc0	-0.12912162505743474
253	0xc0006edf3b9a4e14	-2.0541367203202388
254	0xbfdbc684dd79cfc9	-0.43399163845537864
255	0x3fe4aa1955b119d3	0.6457640336673712
