src/params/weight4.npy (npy, 1360 bytes, 1 tensors)

array (column-major) f8 [10, 16]
000000 f8 dd a2 ae 9d b1 0c c0 6e 2b 58 72 74 ad f1 3f
       -3.586726536126431 1.1048473803118344
000010 60 df 94 27 1e 20 cd 3f c8 c8 0d 88 f2 37 f2 bf
       0.22754265721027434 -1.138659030399639
000020 48 d3 fb a8 82 05 05 40 0c f6 4a fe 5e 35 f9 3f
       2.6276906205988873 1.5755300458253059
000030 fe 8f 8c f4 5d a6 02 c0 83 3e c7 90 a8 a7 11 c0
       -2.3312338929554235 -4.413728964005375
000040 f9 79 b7 8b 87 d4 03 c0 e0 1b 62 ae f0 7c 05 40
       -2.4787741580360003 2.6860059379282433
000050 9c 45 36 96 76 a7 ee bf dd b2 3e ac f9 01 f5 bf
       -0.9579422887638205 -1.3129822471921024
000060 ea 95 b3 11 d6 22 0a c0 a4 9d 09 d0 26 d0 06 c0
       -3.267009866993921 -2.851636529248667
000070 c1 17 f3 8a d5 3c f8 bf 23 56 da c7 4e 68 08 c0
       -1.5148520877569214 -3.050931512213326
000080 03 5c f4 34 6a bb 0e c0 99 1c a4 58 8e 86 06 c0
       -3.8415111672470643 -2.8157011914332313
000090 8e 96 5f 77 0c fa f4 bf 1c ab 07 e3 a1 fb e9 bf
       -1.3110470450423324 -0.8119668420962145
0000a0 23 5b a7 ff 29 d6 03 40 c4 7e c2 74 51 fe fb bf
       2.4795722935626983 -1.7495894013335809
0000b0 e5 2b be 8f 4a 63 e8 bf 52 f1 08 fb 5f d5 12 c0
       -0.7621205146291429 -4.708373949452225
0000c0 ef 75 e2 67 1e 28 06 c0 a1 73 28 3b 91 7e 18 40
       -2.769589244459659 6.1236008876266235
0000d0 48 2d 79 fc 5b 13 e4 3f 53 02 4f f0 4b e5 df bf
       0.6273631983871519 -0.4983701559795339
0000e0 ae 47 83 2b 22 54 17 c0 88 e9 0d 42 17 19 e8 bf
       -5.832161598098464 -0.7530628481029433
0000f0 96 05 85 9c 93 d5 10 40 63 47 f4 77 0a 35 0e c0
       4.208570905322082 -3.7758988734648695
000100 2e a7 d1 49 98 f7 10 c0 97 3e 2e eb 30 17 f1 3f
       -4.2417918714725555 1.0681618868583536
000110 0c 4e 87 91 5a f4 11 c0 fe 9e 94 bd 09 52 ee bf
       -4.488626741298059 -0.9475144102807176
000120 3c e0 4d e5 ae b0 12 c0 a1 0f 3f 6b a6 9b f9 3f
       -4.672542174223107 1.6005005063352444
000130 c7 01 8a db 73 f8 b4 bf 81 72 af a9 92 a6 05 40
       -0.08191608533707671 2.7063344246546994
000140 c0 87 ae c5 f6 b3 fe bf a2 34 7f a5 ba 0f 07 c0
       -1.9189365121787745 -2.8826802186436717
000150 3b 3b 4e 3a f6 b1 dc 3f 85 07 86 b9 ff 95 e9 3f
       0.4483619279280224 0.7995604156023864
000160 96 cb 9c 66 78 16 dd 3f 7b 37 f6 4c a4 e0 03 40
       0.4544964792323126 2.4846883785857563
000170 6b 19 88 c6 97 c4 07 c0 d6 d2 60 fa 72 60 ff 3f
       -2.9709926138195235 1.9610471516036134
000180 a7 bf 23 22 3d 8f 06 c0 a3 a3 ef 23 f2 63 11 c0
       -2.8199408213767643 -4.347603379727761
000190 8f cd bc d6 c8 69 e9 bf 45 32 6f 53 dd 9d da bf
       -0.7941631502239249 -0.41588528774153516
0001a0 db 7c 53 37 3e c4 e5 3f d2 01 11 14 d8 01 ea bf
       0.6802054482067449 -0.8127251045153179
0001b0 37 4a fb 6b 00 98 11 40 38 06 54 a0 e6 b0 00 c0
       4.398439109051245 -2.086377384723871
0001c0 27 fc 2d 83 3b 98 0a 40 19 d1 af 9f 1c 59 cc bf
       3.324332260933733 -0.22146947667318598
0001d0 4d 2d ea 21 2e dd 05 c0 3c 8c eb 39 46 39 16 c0
       -2.7329981469717155 -5.555931954385468
0001e0 ba 78 1f 3c b6 c5 14 c0 7b 92 20 aa 4d 6d f5 bf
       -5.193077983303903 -1.3391853948207018
0001f0 74 45 b1 68 74 ee 13 c0 2a 6d 3a 67 27 eb e8 bf
       -4.9828659399221245 -0.7787053123642285
000200 09 ec 04 96 db bb ee bf 60 7e 4b ec 28 5f f7 3f
       -0.9604318552077312 1.460732386614744
000210 f5 5b 60 e1 3c 8a 02 40 fd 5f ae 8c 92 ac ee 3f
       2.317498932603025 0.9585659740141633
000220 b6 a5 7a 0b 09 72 04 40 fc 3d 4d ea 2d 8b f5 bf
       2.5556813141635883 -1.346479335061189
000230 e0 c9 89 9d aa 21 e9 3f 99 37 aa a8 a9 61 00 c0
       0.7853596760672268 -2.0476868798204575
000240 71 9a eb 38 4d 2c 08 40 52 25 ce 5f 55 d7 e8 bf
       3.021631664934198 -0.7762858267971444
000250 32 d9 ad 97 fe 27 08 c0 53 9a ae 28 a1 df 03 c0
       -3.0195285654000594 -2.484194104984718
000260 a5 0b 9f 46 ef 8e f7 3f 68 d7 27 99 1e 3f 17 c0
       1.4723961599963584 -5.811640160614708
000270 70 fb ae 6b 23 57 11 c0 69 53 b7 19 09 18 f4 bf
       -4.335096056513848 -1.255868053868847
000280 fb a8 b6 9a 4a 29 0d c0 d2 5c 7f 73 71 d4 f9 3f
       -3.645161827754348 1.6143660079595077
000290 b5 af 10 91 1d 39 e4 bf 0a f7 9e 20 19 f9 0f 40
       -0.6319721062950437 3.9966299580108897
0002a0 8f b8 0c f8 d7 3d 02 c0 7e 7e 1b 99 0c bb 11 40
       -2.2801970843202706 4.432665245345218
0002b0 43 00 62 ff e0 d6 f1 bf a3 58 e4 7e 06 71 15 c0
       -1.1149606681720037 -5.3603763415214045
0002c0 74 cb d4 35 bb 1f 04 40 04 89 53 01 8c 03 e7 bf
       2.5154937940182496 -0.7191829706100923
0002d0 b8 c1 22 b6 9c a2 05 c0 d4 b7 c4 c5 0a 94 05 40
       -2.704400465903941 2.6972861719759553
0002e0 88 b8 75 05 51 70 02 c0 9e 90 f9 a5 d8 79 ff bf
       -2.3048420359182877 -1.9672476275818904
0002f0 f1 cc 9b ab d1 51 0b 40 8c 71 0d 45 33 37 16 c0
       3.4149506956979327 -5.553906516023186
000300 8c 0b 4f d4 dc e3 ff bf a7 7b 74 48 02 c5 05 40
       -1.9931305211364103 2.7211957607791706
000310 ac 49 4a b3 4a c5 0d c0 93 e0 b0 d3 93 5d 10 40
       -3.721333885864814 4.091384227438669
000320 dc 87 ea 75 80 60 fd 3f b7 f1 b0 50 53 59 17 c0
       1.8360600095843358 -5.83723188476545
000330 70 f5 08 30 f2 7a 05 40 bf 84 a3 d8 a3 27 f6 3f
       2.685032248757743 1.3846777403307866
000340 85 c9 88 da a3 7b d7 bf c3 df f7 14 4c f3 10 c0
       -0.3669213899730937 -4.237594916943581
000350 2c 45 09 c6 52 f3 c3 3f 26 23 3b ae e0 94 f3 3f
       0.15586313886391545 1.2238470846079479
000360 a8 8a a0 1d ec 3f 04 40 6b 44 68 ac 09 67 be 3f
       2.5312120737665573 0.1187597318569417
000370 f2 0e 99 f7 bc 0f f6 3f 2b 0c fa dc 5e f7 c1 bf
       1.3788423225204807 -0.1403616503704098
000380 a9 9b 0e 41 71 09 05 40 10 3c f1 fc c4 58 16 c0
       2.6296105463583967 -5.586688949798386
000390 44 62 ef 7e 3a e7 f7 3f 98 67 93 4c cc 05 06 c0
       1.4939522703554227 -2.7528310759052594
0003a0 e0 87 e6 17 f7 ca ff 3f 26 8d 77 5c 6a f2 07 c0
       1.9870520528424933 -2.9933669303878956
0003b0 05 3a 9b 57 eb 18 10 40 3a ae 65 41 46 85 f6 bf
       4.024335259293825 -1.407537703950665
0003c0 98 03 e9 ef d8 44 f7 bf 39 80 31 9b c2 b8 09 40
       -1.4543084498875256 3.215214931915423
0003d0 4a c4 9e 5f 8f 92 f4 3f c7 e1 ab cf bd a7 06 c0
       1.2857812628901848 -2.831905004914208
0003e0 d2 46 f0 aa 72 5e 09 c0 46 73 45 01 83 95 b3 bf
       -3.1711171488358127 -0.07650011807477339
0003f0 62 35 5d a9 86 c3 01 c0 fa f8 04 68 0c a2 00 40
       -2.220471690327643 2.0791252256886965
000400 dd 9c cd 97 1b 53 fa 3f 89 e4 d6 77 ca 8b 16 c0
       1.6452899865924373 -5.636514542094241
000410 72 e7 8e 11 f1 ef 0d c0 3a 73 b3 a6 11 4e 10 40
       -3.742159020589434 4.076239208891645
000420 08 ba 23 00 f0 ac 06 40 87 5f d9 37 0d 66 18 40
       2.8344421397116584 6.099659798281102
000430 b5 cc 2e fc 83 56 08 c0 3f 39 27 e7 52 ce 0a c0
       -3.0422439290792576 -3.350744062313566
000440 4d b8 b7 f3 51 90 0d c0 a4 08 72 70 ac 67 fd 3f
       -3.6954688110772964 1.8378109352493448
000450 e1 93 2a f5 4a 7a 08 c0 58 a1 9b 07 d9 40 11 c0
       -3.059713282930247 -4.313327902673642
000460 64 e0 a8 6e a7 ba 00 c0 f8 ed 0e 5d 68 94 e3 3f
       -2.091139664200499 0.6118661706490789
000470 2b 7d e2 db a7 e2 fc 3f 7f 1b 18 dd 73 c7 0d c0
       1.805335863995263 -3.7223889611227032
000480 46 0f 37 f6 45 a4 0e c0 2c b2 63 f2 46 39 fa 3f
       -3.830211566500938 1.6389836757981682
000490 70 30 50 b7 e7 71 f6 3f a9 6b 9b 07 86 ef 08 40
       1.402808872287121 3.1169548601441943
0004a0 a1 cf 06 1d 46 05 0c c0 ed e5 fa 08 28 16 f5 3f
       -3.502575136919362 1.3179092741760272
0004b0 03 22 ba 88 76 fc fc 3f 25 0b 5c bf 1b cc fb 3f
       1.811636480417406 1.7373311495763997
0004c0 3a 27 81 19 5c 20 12 c0 a3 f1 c7 2c 20 e5 00 40
       -4.531601332195175 2.1118777750509294
0004d0 d8 fe 7d f6 80 26 04 c0 f8 c4 02 5e 28 f5 dc 3f
       -2.518800664634778 0.45246323757881113
0004e0 31 20 70 ec 1f a8 13 40 94 af 4d 4c bd 46 f4 bf
       4.914184278815854 -1.2672703724483414
0004f0 a6 e8 ec cc fd 2f 04 c0 75 1e 07 3e 30 7e 00 c0
       -2.5234333047674964 -2.0616154523775614
