src/params/weight3.npy (npy, 120080 bytes, 1 tensors)

array (column-major) f8 [75, 200]
2.2096671885932673 -2.64828021881024 -2.182151214079771 4.615891110007113 3.1666818646017894 -0.9161831865394385 -0.3321229599840175 1.1984250656491158
1.1143196945701879 -1.818152202937688 3.624614091489375 -3.89241214749575 -3.211779556456078 -2.39287887349848 1.9648418234846579 1.131780744877064
-3.916094463571048 -1.6689198245101131 1.9527306580245696 2.3243909907820033 -1.0114460886914407 -3.3156549793135914 -0.8946934438580695 -4.57260448771365
3.8848382280744063 -0.31558946768721646 -7.7587375023451495 -1.7495508947660525 0.5241911241009521 -3.970323463717121 -3.5445286795577333 3.3110069656834034
3.1036385732962595 1.5186362654347152 -2.6613847288228785 -0.8917285038915698 2.8653019097085526 -3.5612153148935364 3.4256141376821727 -1.4242895407300402
-2.700753750619828 2.043667588582966 2.333139332795077 -1.23918179063764 -2.223505789160993 -3.969249182413466 -2.194624533605835 -0.5061979624069955
2.6016938396498075 3.2866757100596042 -0.2565941176549122 -3.55504665727807 -4.01862179466402 -1.3333152422245993 4.709096956397724 -3.2274489238488497
-4.294783441066288 -4.8870423871841036 0.8975097632263597 -4.374839479029642 1.1647318020380135 -1.3712947653376704 -0.07236565868961439 -1.8342952909531023
-1.820728293069252 5.179950622033298 -2.7950394751475587 0.9074277731877319 -3.8112607470040976 -5.299288958336863 2.6431498182622963 -3.6049339339203974
-1.2438120022139043 3.1495399146099223 1.9708815141215625 -0.2930549410860722 -4.084084577924149 3.3352457775001265 -1.572060577968672 -0.3943296793416669
-5.963465634324355 2.631679832120749 6.540088911299074 3.1721942896130098 6.468538755253041 4.68673777235678 0.12854095635966953 -6.064577100880494
-1.083915428133982 -4.167750335303186 -2.7905245348373904 2.94606024793504 -2.267637265001034 1.2264029674580887 0.06809911054674743 2.119371374175697
0.8041711663011415 -4.950665214490519 -3.264231710514106 -5.36258303120608 -0.6638767653238199 -5.539370369504191 -2.0523677250197565 5.678769291597468
2.2098216132001656 -2.7892057596498225 -4.550785845075376 -3.5559784023441563 -3.582316058995953 -3.4328020449135117 1.3279566432842895 -3.6218373581474617
-0.1229511635747646 4.993699150804097 -0.6466985892012558 2.2335896854986066 -0.41048048525859043 5.907730000395321 6.634453947414007 2.020562044292014
1.0222141248004344 -0.4617565919917661 0.8990546841298778 -2.3922048525141166 -1.0533115295701545 4.927790544093513 -2.6498991476130156 2.153001763322138
5.760003682014512 -1.6934037026456072 -1.8471119229836537 0.6078796005977836 -7.714053441541056 -4.52767545951281 -3.6438155313115494 2.6587749831261536
6.234729994613976 0.6384520111765097 -1.67322674442748 2.910810511598885 5.290820437701083 6.34181140133311 3.0707491551194543 -5.935517198531776
0.7275566025877366 1.1771477638216097 -3.9997965618479996 -1.0383544393711164 1.2856510833332904 3.905460041914263 -2.776011932498172 -2.20433069545956
2.852734407771412 -0.5384266080012929 0.46112234706450883 -0.14292328284216102 0.5498236188080409 -1.2505789517633314 -2.3626367742705496 1.734968792942276
-2.2106792547406617 -0.06286095104918633 0.8496120332584824 0.8265968527797942 3.78132774648417 -3.754792123501209 2.3849820867439293 -5.1514008165950385
0.7801494789756837 2.459276647185211 -3.1803767160668603 -0.7512201054882197 -4.344686419380531 -2.29013633213547 3.268394433907764 4.746647552749387
0.24325517663633986 2.4887340228229986 -0.3488437819816899 -1.7078807384029455 -0.8638689627940004 -1.5640769116414954 -5.064070192387619 -4.962450768453088
4.880769361941577 -1.243421074170656 1.5676652173241374 -3.6461462230800925 3.550493653848316 -0.18216136572078603 4.136714926832575 -6.400306760496799
0.6978073776132373 0.6733156658887879 -3.23073345769347 -2.4873419170175306 -1.9055361152048338 -0.6583474409380714 3.0170868159938014 0.23205382634035793
-3.053379522885768 1.991502912060091 2.6520683406630163 -5.02511116951088 -1.6152857110282273 -5.222615137259719 -3.5765853591583685 -2.418237490532128
4.570662259504459 3.7320610667659846 -2.957036745680454 -1.5793145503360506 -3.244032856780986 -1.0093670943861663 0.5134334052532669 1.5520938916760196
-0.3620152046997244 5.360478673278306 -2.1226826255221427 1.8353147406296413 -2.6406429070519297 3.1962840505159695 0.7169961528692608 -2.5023576310556854
1.0548054383961425 -4.628679970689644 4.653752542862459 2.119629235541011 -1.1171738330583059 0.5785847940442452 -3.131473281439993 -0.3385436531773623
-3.534915898730769 -3.631612305512232 -1.7492166795263075 -4.058230747653053 3.9141488464129823 0.1350875992630464 -3.0205680101093635 3.6754351795640385
-1.7475148918424677 4.378882136815537 -4.9963001739493835 -5.338612884725384 -2.664776523213988 -6.22480622432943 -1.4987677825213865 -4.3124913625818095
-3.4542359808271517 -1.9628167904708493 4.598097242935758 2.1472091521282684 4.017273283989155 -0.851534303632054 -1.1037532545975777 -3.117669900411443
00000000: 356b b0fd 65ad 0140 3a78 138a ad2f 05c0
00000010: ca31 1bb2 0b75 01c0 c182 bd28 ac76 1240
00000020: 6b68 2a4d 5d55 0940 629f ea66 5f51 edbf
00000030: dd73 d8a8 8041 d5bf b4b6 fac2 bf2c f33f
00000040: 8f7b 57e3 40d4 f13f 9a48 acc3 2617 fdbf
00000050: 7b8a 3cac 35ff 0c40 0661 e0fa a823 0fc0
00000060: 9d85 e77a b9b1 09c0 ebb8 c7ad 9d24 03c0
00000070: afdf dafa fd6f ff3f 08d5 5720 c61b f23f
00000080: adac 8855 2954 0fc0 03ac 1e46 e5b3 fabf
00000090: 1bcb a180 623e ff3f b834 c44d 5a98 0240
000000a0: b68c 0918 e22e f0bf 7ec5 271e 7686 0ac0
000000b0: d71c 2a25 54a1 ecbf 8317 b1d4 584a 12c0
000000c0: 2da4 9e10 2614 0f40 e56e ab2a 9e32 d4bf
000000d0: d948 db7b f208 1fc0 e052 3b14 29fe fbbf
000000e0: 03bf db76 2cc6 e03f dea6 b9f2 38c3 0fc0
000000f0: ea79 33da 315b 0cc0 de81 5338 f17c 0a40
00000100: d24a d775 40d4 0840 a1fc 688a 554c f83f
00000110: daf1 a213 844a 05c0 7702 2437 0a89 ecbf
00000120: a8ea 5a68 23ec 0640 4ddb 7b74 5e7d 0cc0
00000130: 3c7b 9062 a867 0b40 b086 57d4 e3c9 f6bf
00000140: 27b1 4bc8 249b 05c0 47df 8664 6e59 0040
00000150: ceed 5af4 44aa 0240 eb65 0949 b0d3 f3bf
00000160: 1a4e 3767 bdc9 01c0 e61f 21b7 05c1 0fc0
00000170: c6b0 b64e 978e 01c0 53e0 ba11 c632 e0bf
00000180: 3601 1cdc 44d0 0440 cf1b 7aa2 1c4b 0a40
00000190: ef1f ebbb 096c d0bf 821b 464d bc70 0cc0
000001a0: 974c 7c97 1113 10c0 bcce 095d 4255 f5bf
000001b0: 7aaf 3583 1dd6 1240 9687 cbbd d0d1 09c0
000001c0: d220 dbb5 db2d 11c0 697c ecd6 548c 13c0
000001d0: bfbb 1c65 66b8 ec3f 5cba 9eeb d57f 11c0
000001e0: a4d4 65d0 bda2 f23f 14d2 a4c7 d2f0 f5bf
000001f0: 7ee6 6c49 8e86 b2bf 279b dd04 4659 fdbf
00000200: 4326 9afd b321 fdbf 8a1c d2f9 44b8 1440
00000210: 5a4d 06a8 3d5c 06c0 6959 2af8 a509 ed3f
00000220: fe49 4746 767d 0ec0 6471 00ce 7832 15c0
00000230: 54eb 5ebb 2b25 0540 0b6e 339a e7d6 0cc0
00000240: 9218 fe69 a7e6 f3bf eb91 95fb 4132 0940
00000250: d416 f70d bb88 ff3f 3656 f982 69c1 d2bf
00000260: f520 8144 1a56 10c0 8fe1 9356 95ae 0a40
00000270: 064d 1bfe 2827 f9bf 0956 278d b23c d9bf
00000280: d5f8 38bc 96da 17c0 d702 e427 ae0d 0540
00000290: dad8 4b11 0d29 1a40 0f91 5366 a760 0940
000002a0: a6e1 9a9f c8df 1940 12cd c42f 38bf 1240
000002b0: b773 e1b1 0774 c03f ab68 e17f 2042 18c0
000002c0: d571 37b4 b757 f1bf b414 70be c6ab 10c0
000002d0: 657f fe86 fe52 06c0 c769 0709 8891 0740
000002e0: 6ef6 a201 1f24 02c0 8f32 cfb7 589f f33f
000002f0: 1f5a af7c f16e b13f 3b4e a1fa 78f4 0040
00000300: 5cc9 742b c5bb e93f f7b9 962e 7bcd 13c0
00000310: 36cb d983 251d 0ac0 6a75 54f7 4873 15c0
00000320: 7b7b 747c 7a3e e5bf c8ce c5b4 5028 16c0
00000330: 309b 12c5 3f6b 00c0 c7c2 134c 0fb7 1640
00000340: 6782 35f4 b6ad 0140 2b16 fc1b 4b50 06c0
00000350: 3acb 5e34 0134 12c0 c9cd facd a472 0cc0
00000360: f795 6a52 95a8 0cc0 185d 24eb 6076 0bc0
00000370: 6597 1677 4f3f f53f 2565 65dd 85f9 0cc0
00000380: ec0a 8f3a ba79 bfbf f710 2b45 8cf9 1340
00000390: b2a3 5f3d c1b1 e4bf 0e32 df44 64de 0140
000003a0: 213d f5f0 4f45 dabf 132f 25f9 83a1 1740
000003b0: 56d8 ab4b ae89 1a40 512f de6e 1c2a 0040
000003c0: 1e6f b832 fd5a f03f 904a 5485 6b8d ddbf
000003d0: f1e8 3454 0ec5 ec3f 8a0b 374c 3c23 03c0
000003e0: 8b0e c030 5dda f0bf c2ad 71b9 0eb6 1340
000003f0: c691 0553 fe32 05c0 6197 0dfd 5839 0140
00000400: 1e5e bc67 3e0a 1740 6f9c 1c7b 2e18 fbbf
00000410: 6f43 543b c58d fdbf 0023 8feb bf73 e33f
00000420: 720f 4cd3 30db 1ec0 8409 a6f4 561c 12c0
00000430: a81e ddc1 8826 0dc0 2799 7fd1 2b45 0540
00000440: 7507 490f 5df0 1840 7231 82e9 326e e43f
00000450: bbbc 2168 89c5 fabf a75c 8105 5749 0740
00000460: fcbc 33d5 cc29 1540 a780 d8ce 035e 1940
00000470: 58a9 dbee e490 0840 7728 7238 f8bd 17c0
00000480: 654d c3c8 2448 e73f 06c6 c2e4 98d5 f23f
00000490: bd52 fe56 95ff 0fc0 f415 6c8b 199d f0bf
000004a0: 39bc cfde 0692 f43f 36da 9ed5 613e 0f40
000004b0: 5115 7bbe 4535 06c0 be8a b421 78a2 01c0
000004c0: ca6a cc6a 66d2 0640 2e2d 1570 ca3a e1bf
000004d0: 6a32 064e 0783 dd3f e36f d264 4f4b c2bf
000004e0: 3d2a abb3 2798 e13f 453b 2e13 5f02 f4bf
000004f0: 338d ee1b aee6 02c0 6148 14a3 6ec2 fb3f
00000500: 5174 e89a 78af 01c0 69a3 f3c0 a717 b0bf
00000510: 8e43 2493 0530 eb3f c44d 353e 7b73 ea3f
00000520: e9da f4c2 2840 0e40 8bba ed73 d009 0ec0
00000530: 5ae3 007d 7114 0340 1b74 cfd0 089b 14c0
00000540: df24 460a fcf6 e83f ecd0 1b3c 99ac 0340
00000550: 81bc 0359 6971 09c0 266d 25bf fe09 e8bf
00000560: 7975 0a7a f560 11c0 d539 4fff 3252 02c0
00000570: 8d7f 20fb ab25 0a40 c8c9 122d 91fc 1240
00000580: 232e 1e52 fc22 cf3f 06bd 2362 ede8 0340
00000590: 558e c1de 7453 d6bf 318b cec0 7a53 fbbf
000005a0: 7a59 e785 d0a4 ebbf cbdc fe82 7506 f9bf
000005b0: 21d0 d39d 9b41 14c0 7810 bab1 8cd9 13c0
000005c0: 736e 5367 e885 1340 c485 0b7f 0de5 f3bf
000005d0: 11be 771f 2815 f93f db80 04b6 4e2b 0dc0
000005e0: f578 7f37 6967 0c40 c5c7 2e4a 1051 c7bf
000005f0: d87b 6eff fe8b 1040 4bce f203 ea99 19c0
00000600: 3d34 3823 7054 e63f cd0e 9c4b cd8b e53f
00000610: 7517 77c8 8ad8 09c0 5f7b dc84 13e6 03c0
00000620: 286d 0270 137d febf 747f 07a7 2e11 e5bf
00000630: d416 9f69 fe22 0840 6e91 8595 f0b3 cd3f
00000640: 4c90 483e 526d 08c0 5bfd 5228 32dd ff3f
00000650: b53c 2f9b 6f37 0540 1141 0fbe b619 14c0
00000660: 5bff 68d4 35d8 f9bf 0c80 f838 f5e3 14c0
00000670: 3880 e7c8 d89c 0cc0 705f bee5 8c58 03c0
00000680: 5088 f6af 5b48 1240 6c7a 23d5 42db 0d40
00000690: 7e24 9ee1 02a8 07c0 00a5 7c55 df44 f9bf
000006a0: b730 987f c7f3 09c0 0bc1 401c 5e26 f0bf
000006b0: 0393 87e4 0b6e e03f 311e 9167 60d5 f83f
000006c0: 93c3 35d2 412b d7bf 0d8b 4252 2171 1540
000006d0: 7a3d 4307 41fb 00c0 bfef 4dfd 725d fd3f
000006e0: 879e 7163 0920 05c0 3e8a 4d5f fd91 0940
000006f0: 24cd 7dea a1f1 e63f db3d e213 d404 04c0
00000700: b8de d8aa 7be0 f03f 8e0c a7ae c483 12c0
00000710: 9b15 7d4e 719d 1240 5d5a 322c 00f5 0040
00000720: 0feb 4eab f1df f1bf f440 0c42 c483 e23f
00000730: 1ca9 20dd 410d 09c0 9d91 aaff b2aa d5bf
00000740: d745 99fc 8147 0cc0 da68 9fc0 8a0d 0dc0
00000750: 67ee 02a1 cafc fbbf 7d2a 53d7 a03b 10c0
00000760: ba28 3845 2d50 0f40 3508 77ea 8c4a c13f
00000770: ad1b 968f 1f2a 08c0 0c5d 368f 4a67 0d40
00000780: 32c8 db2c d2f5 fbbf 33a5 caad f983 1140
00000790: 6572 e01c 36fc 13c0 5699 0756 bd5a 15c0
000007a0: 41d2 925a 7651 05c0 83ba 559a 33e6 18c0
000007b0: 0da5 23ed f3fa f7bf 1049 5abc fd3f 11c0
000007c0: 848d 5279 46a2 0bc0 aeca 3194 b267 ffbf
000007d0: 88f2 889a 7364 1240 9e80 f0fd 7b2d 0140
000007e0: d04f 7716 b011 1040 a2b2 30de c43f ebbf
000007f0: 3f9a 352c f9a8 f1bf 01ed afea fcf0 08c0
