src/params/weight4.npy (npy, 6080 bytes, 1 tensors)

array (column-major) f8 [10, 75]
0	0xc00afa6a3f9d9950	-3.3722729654283867
1	0xbffbccfc4356b51c	-1.737545264283944
2	0x3fc5fc7fc622941a	0.1717681615311058
3	0x3fd64956f3ae724e	0.34822629735007105
4	0xc0029986ec442862	-2.324964376287469
5	0x3ff09e439c4a7a1d	1.0386386971582688
6	0x3ffdeb354b3f8719	1.869923871934992
7	0xbfcfdae031994601	-0.24886705800831524
8	0xc001bd30b2b2a6a6	-2.217378040387149
9	0x3ff42259b8562831	1.2583863449713244
10	0xc009e105495d1fca	-3.234873364595818
11	0xc0108ef56ccf1d82	-4.139608097211182
12	0x40035733b9a1201b	2.4175791265770505
13	0xc001296832ef2428	-2.1452182749967683
14	0xc007b022da9b9409	-2.961003978608009
15	0x400a242b79f5f87c	3.267661049670151
16	0xbfdaa620efd0b77f	-0.4163896886774338
17	0x3fa8478f97bac8e8	0.047420966407473675
18	0x400d6a87ea836d69	3.6770170518263297
19	0x400177d0d05080c6	2.1835037493293354
20	0xbfd980dad28e06c8	-0.39848967134467417
21	0xbff9f5ecf62b4a71	-1.6225404373150492
22	0x3ff5283a711c91c1	1.322321359483894
23	0xbfcb9236bacf9d52	-0.21539959069853382
24	0x3fe0a85c5881e043	0.5205518463763003
25	0xbfea0d61c52e9009	-0.8141335345467279
26	0xbffadd97d0cc98ea	-1.6790998607844423
27	0x3ff800688a288427	1.500099696808556
28	0xbfdf18e0d782ddb3	-0.4858934502221601
29	0x4006da5f286963a9	2.8566268117105733
30	0x400a7575100df92a	3.307352185656005
31	0xc00038f1929d7ab9	-2.0278045133885283
32	0x3ff6a0f5eaf3e534	1.4142970254745935
33	0xbf98fe2b9587f5f6	-0.024407082559255465
34	0xc006546d984abc42	-2.791224660664313
35	0xbfb8f9eb3ad5d3cf	-0.09756345926673692
36	0xc007724967b91f13	-2.930804071747738
37	0x3fe75039934caa00	0.728543079084659
38	0xbfc8047b86f6f1b9	-0.18763679590291618
39	0xbffa98ccbcb27b45	-1.662304627512371
40	0x4004bf82aac4f1e2	2.5935109464028168
41	0x40045223fe0537ac	2.5401077123014684
42	0xbfc37f273e2f5491	-0.15231791054126068
43	0x3fd9aa7bcb09c0b9	0.4010304911416927
44	0xc005b4895b573067	-2.7131526123030656
45	0xbff7a1af036c7fae	-1.4769735463851066
46	0x40029a184dad7ba5	2.325241667610913
47	0x3feb2afc952769a6	0.8489973939097595
48	0xc00d36d5cb4746b6	-3.651774967301061
49	0x3fb6b86f98aea4c4	0.08875176885216535
50	0x4002f90fc7b344b6	2.371612129362428
51	0xc007e816d6722c5a	-2.9883248094170485
52	0xbff123286d2804bd	-1.0710834754866447
53	0xbfdf6256a1022c3c	-0.4903770992611418
54	0xbfabae0703cd6399	-0.05406209870734031
55	0xbfeee8e759de3205	-0.9659306292756474
56	0xbfefba6d10a3dcc5	-0.9915070843698223
57	0xc00988247a0b30f7	-3.191475823847323
58	0x3ff2215038a57a48	1.133133145594586
59	0x3fa9dbc9b96afb30	0.05050497425462763
60	0xc00b56769b0c49f4	-3.417218409836318
61	0x3fd3a10a36e46a6e	0.30670409546443167
62	0xc005776193c750b7	-2.683291582603569
63	0xbfd48350d664f0b9	-0.32051487862532785
64	0xbff5c8c4ed30df99	-1.3615159287710183
65	0x3ffbfd56cc8edecb	1.749350356154468
66	0x3fea7bcb86622e21	0.8276116966894201
67	0xc0045627c99ca001	-2.5420680762217676
68	0x3fd85f2902097711	0.38080811690257216
69	0xbff0985451b0cb00	-1.0371897879637686
70	0xbff4b064a40d6131	-1.2930647285739492
71	0x400e1f9b82568e63	3.7654333288826805
72	0xbff31ea0d9150772	-1.1949776153346332
73	0xbfe0f898d26be57b	-0.5303463086885779
74	0x3facfedc02eabecb	0.05663192306144323
75	0xbff0e7e0656f2aba	-1.0566104852938865
76	0x400275da6a1f9e22	2.3075454989336928
77	0xc003c39c3e821caf	-2.4705128558594747
78	0x3fbb40bbcdc0e216	0.10645650647428115
79	0x3fe4b4a970725f29	0.6470534511781568
80	0x4000f7101be6d9f6	2.1206361942124614
81	0x3f5f6416057fb4d1	0.0019159522107615077
82	0xbfdc6da9f0e2e836	-0.4441933491140192
83	0xbfe41519c48ee852	-0.6275757636096932
84	0xc0015dec53506ce3	-2.1708609112662187
85	0xbfd9c7bac6ea2a4f	-0.40281552720322095
86	0x4007a35b0c907144	2.9547635060863815
87	0xc004114779676cd0	-2.508437107533247
88	0xbff36752578793d1	-1.2127250117421122
89	0xbfedafcf4596bbdc	-0.9277111395984963
90	0x4010a5d5f151a675	4.161948938950094
91	0x400a059f406eac48	3.252745154740783
92	0x400a4dec6007af0f	3.2880485060067097
93	0xc009db7fc411f086	-3.2321772878622737
94	0xc0111f2049a519d8	-4.280396605207407
95	0x4003f0ee1b202a3c	2.4926416510764096
96	0x4010321a525ccebc	4.048928534426235
97	0x400dff516f7b3a32	3.7496670445900913
98	0xbff21cf848dfa3a9	-1.1320727202057503
99	0x3fafa1e0165cefba	0.06178188584314577
100	0xbff903a5ac943a7b	-1.563390421044146
101	0xc01173c06670140c	-4.363038635817258
102	0x400376d50cdae69d	2.433023548536609
103	0xbfeab997be94edec	-0.8351553652095709
104	0x3fe7d82e9d9d7a77	0.7451394155903718
105	0xbfe5c321ba1c6ef3	-0.6800697932225986
106	0x3ffb7abb2d6a37f2	1.7174636625309145
107	0xbfdae5f29d15afce	-0.4202848943739327
108	0xbff9a0ddf7586b25	-1.6017741834572885
109	0xbfe0960392f6d7a6	-0.5183122511286811
110	0xc01196fc3a9920c0	-4.397446551891505
111	0x3ff7084232f9a17e	1.4395162574020044
112	0xbfc4c75da1fb3390	-0.1623341599392032
113	0x3ff45160fefe978b	1.2698678932879115
114	0x3fe2cce6a1fc907d	0.5875123180199037
115	0xbffd25f763a742a0	-1.821769131918849
116	0xbffad6cb777b1403	-1.677440134736799
117	0xbff91aeb951e78e5	-1.5690723252260395
118	0x3fea87033b2ae82b	0.8289810329072272
119	0x3fe992439e86c31d	0.799104508993057
120	0xc0129974d553883b	-4.649859746192358
121	0xc00e5f2941842ba6	-3.796465408178352
122	0xc0003b2b8e4df75d	-2.0288916699927726
123	0x3f73a5aa2cba9041	0.0047966620874469465
124	0x4006349dc86610d9	2.775691571821977
125	0xbfeb492cf9ff67c6	-0.8526825793044217
126	0xc001264ec6cc02dc	-2.143704941845824
127	0x3ffd52f52c5bcddb	1.8327533467062185
128	0xbffb7f8c0263ce05	-1.718639382682228
129	0xbfdbbcf6d24714ec	-0.43340845618179347
130	0x3feac08229138f54	0.8359995653413343
131	0xc0102d4788e91ed6	-4.044218196133178
132	0xc005f330587dbc43	-2.743744555794849
133	0xc00360bf80da2f1b	-2.422240263613174
134	0x3fe34a49cab16a0c	0.6028183897827275
135	0xbfca1117b31d881c	-0.2036466240488729
136	0xc010b5afd83055b0	-4.177428605985753
137	0x3fd2a77c1a28e5d9	0.291472459360731
138	0xbfd4d0e70446e0f6	-0.32525039117491816
139	0x3fd75d06bcbdb5b8	0.365052875821529
140	0xc010325b7f28903f	-4.049177157259748
141	0xc003cd2e18b818c2	-2.475185578458963
142	0xbfe24d2d1e447255	-0.5719209281119882
143	0xbffc27256e7d94ad	-1.7595571819340805
144	0x3fe1615801fa77a4	0.5431327856674568
145	0x3fe60cbcad9cdca6	0.6890548125146736
146	0xc002c85d75dd5198	-2.347834511582004
147	0x3ffef215c42a8469	1.9341027891862501
148	0x3fafd3d8b6a1c9fe	0.0621631358088912
149	0xbff81906600f1ec9	-1.5061095955187958
150	0x400605bb9b10c001	2.752799235771818
151	0xbff7fe827bd4c23d	-1.4996361577178867
152	0x3fffa2d78f6e323f	1.9772563555481069
153	0x3fb653ebfe4c2b51	0.08721804579196869
154	0xbfed38925be9cf58	-0.9131557269269974
155	0xbff08a9935a79cb9	-1.0338375182998745
156	0xbfeaa644a43e0854	-0.8327964027269084
157	0x3ff25e3923dca853	1.148003711782185
158	0x3fdd45a418cbbb84	0.4573755495211389
159	0xbffa7a7b5b28ccfb	-1.6549027977860635
160	0x3fe34701239067d5	0.6024175352679274
161	0xc00a2de6ac85cadd	-3.272412631829282
162	0xbffa2a1df514b6a6	-1.6352824758027196
163	0xbff78f6558688738	-1.4725087598275888
164	0xbff1e6899e8f75a4	-1.1187835878148258
165	0xbfc6bcfb74129a88	-0.1776422802697264
166	0x3ffeeeba153ba21a	1.9332829312717252
167	0xbff9b2278d03f199	-1.605994749871661
168	0xbfcf513d9fd39005	-0.24466677001976236
169	0x3fc1348b788e53ae	0.1344160402919931
170	0x3fefa2fb4d0cc866	0.9886452202683926
171	0xc001b9bb42ed463b	-2.2156892040882474
172	0x400870365ed6340d	3.054791203414885
173	0xc01047f178873be8	-4.070257075552014
174	0x400adfc09343f095	3.3592540269001554
175	0x3fe968a7dbf2abe6	0.794025353990375
176	0x4002a9cc7289103e	2.332909483726353
177	0x400d42f3dc1bf447	3.6576916881590793
178	0x400d116b046555d6	3.6335049003052786
179	0xc00443f0b4f7c169	-2.5331739557370168
180	0x40120d1b232396a0	4.51279883293833
181	0xbffe03341cb0f636	-1.875782119822714
182	0x40094246eb8548b2	3.157361831669811
183	0xbfed8a37a23a0ec6	-0.9231222313396408
184	0x400edc8ba6a6c44e	3.857688238109893
185	0x400df34fc2447e21	3.7438044716980277
186	0x4012d6626766ad10	4.7093597561281655
187	0x400e7f5095c1afaa	3.812165422414144
188	0xc00cb91d48c346ab	-3.5903878864854355
189	0x3feef8df89ca5755	0.9678800288408903
190	0xbfde4fd20768c4bf	-0.4736218521457651
191	0xc000be87f6174be9	-2.0930327630862746
192	0x3fe31f45a5c7fd18	0.5975673902429746
193	0x3fe58cb550b5af17	0.6734263016091714
194	0x3ffc9416f086a4b9	1.7861546893639526
195	0xbfc07c3d77f018b7	-0.12879150730458885
196	0x3ff3a02d31b2fcf6	1.226605600488083
197	0xc0098219f67f73c7	-3.188526082767996
198	0xbffcc3b29940debc	-1.7977777468167195
199	0xc008194766bf9e04	-3.0123432185389465
200	0xc00f1eb7e1fe1e96	-3.889999166076289
201	0x40128a6106bdde26	4.635135751093491
202	0x4005a1e5c78d674f	2.7040515508678378
203	0x3ff3bccaf8390390	1.2335920044135698
204	0x3ffe1e6fd0aeb2be	1.8824308540016967
205	0x4011fb8d2388e0fa	4.4956555893224905
206	0xbff6825e8e7c5913	-1.4068284574364653
207	0x4009609fc1e857a6	3.1721797131567255
208	0x3ff3fd50a75af3ce	1.2493444955173234
209	0x4003de52e4e204bc	2.4835565453982706
210	0x3ff31e46e71365b6	1.1948918367764754
211	0x4002d67e3f09c204	2.3547329830983035
212	0x4010867498733b86	4.131304151566729
213	0x3f9d80cdf4c05d96	0.02881166273445287
214	0x400fe90fbfb6d2f3	3.9887995698612655
215	0x3fe609ef5f047ba2	0.6887127738772174
216	0xbffad2c59a80c9e8	-1.6764579806591602
217	0x3ffdf3ecba7c1d71	1.8720519337237784
218	0xbff6b3fe18d5346e	-1.4189434976608726
219	0xbffd2f4e15519f2b	-1.8240490753905287
220	0x3fe4bc29518d472d	0.6479689209756764
221	0xbff3a1afdcf9b88b	-1.2269743568281537
222	0x3ffe615e92f1f85c	1.898771833424255
223	0x3ff398cca5157004	1.2248045395454037
224	0xc0007cc0ec2c93f4	-2.0609148455719097
225	0x3fefd39c9c9819cf	0.994581514213502
226	0xc00633e12966e7d1	-2.7753318056611325
227	0xc0115110f781171e	-4.329166285757109
228	0xbfd035b41dbd39f4	-0.2532778063222445
229	0xc001e0e74079c2d0	-2.234816077915049
230	0x3fb153994817aebc	0.06768186578818364
231	0x3fe6292158e7e487	0.6925207840387352
232	0xbfe1433d252f5a70	-0.5394578672665613
233	0xbffab79b44c06fc9	-1.6698258100141052
234	0x3fcc17e756128e02	0.21947948172338277
235	0x3ff3532a155d31db	1.2078038057835474
236	0xbfe068b8773178ae	-0.512783272551834
237	0xc00a643bbae30677	-3.2989420509846314
238	0xbfe6be4723f7a36f	-0.7107272818076192
239	0xc001597118375900	-2.168672742070271
240	0x4000d44f6da3ca41	2.1036671224221952
241	0xbfd702e6a19a1479	-0.35955205708916754
242	0xc006a0478fd1cad4	-2.8282614932917145
243	0xbffe4dfe31b51b6f	-1.8940412465760479
244	0x3ffc5b8b2f43ae09	1.7723495336784956
245	0x3feb907eb1922021	0.861388537233328
246	0xc00b309ed95075db	-3.398740480201679
247	0xc0005257d2aebca7	-2.040206571538494
248	0xbff754105c492867	-1.4580234150803564
249	0xbfeab54d063491eb	-0.8346314545820496
250	0x3fbc0f0bf2ce2811	0.10960459401954405
251	0xc00a748934de6f4d	-3.30690232566659
252	0x4004fe91e70d9b1c	2.6243017245318594
253	0xbfa526b5b88256d9	-0.04131095769223032
254	0xbffa5357759aee30	-1.6453470796540266
255	0xbfb8f5fb1648565d	-0.09750336927421573
