src/params/weight3.npy (npy, 120080 bytes, 1 tensors)

array (column-major) f8 [75, 200]
000000 90 14 3d 09 ea 3c d9 bf df 20 16 94 cd 80 da bf
       -0.39434290792662186 -0.4141115137249595
000010 47 b3 49 98 cd 0d cc 3f 75 2d bf 05 ae a2 e0 3f
       0.21917123733455865 0.519858370994753
000020 14 32 f0 d0 58 48 dd 3f f3 d5 cc 33 c4 fb e8 3f
       0.457540706673883 0.7807332050057866
000030 e5 dd dd f5 85 f7 dd bf ce 15 ae ea d1 73 d8 3f
       -0.4682326222459479 0.38206909101458286
000040 b0 4c 76 c8 45 31 e8 3f 57 c0 05 65 63 55 a6 bf
       0.7560147204661885 -0.04362021072563554
000050 45 34 31 f7 02 f2 f0 bf 35 7c 1f 10 30 3b f0 bf
       -1.0590848594613516 -1.014450133305002
000060 91 33 4b 68 c4 0c f0 3f 9d 7a 00 ac 06 69 af 3f
       1.0031169961905315 0.061348160263368735
000070 a9 3b 24 45 89 b4 e4 3f 11 2e c7 0b 06 c4 f3 bf
       0.6470381117268192 -1.2353573284225414
000080 bc 57 55 6a dd c7 e6 bf 66 0d 73 67 20 f8 e0 3f
       -0.7118975712607987 0.5302888889786288
000090 37 07 ab a4 ce 28 77 3f b4 44 e3 97 89 e4 d2 bf
       0.005654151153693657 -0.2951988204268432
0000a0 ad 9f 3e 65 88 7f df 3f d4 81 04 5a e0 54 8b 3f
       0.49215898406191166 0.013345482585067105
0000b0 5c da 10 31 6e 4b f1 3f 22 86 ea 6c f5 78 e7 3f
       1.0809156338342722 0.7335154654758222
0000c0 6c d9 2c 87 1b 65 ce 3f 2f f6 76 6e b5 d5 e1 3f
       0.23746055698729707 0.5573374898446611
0000d0 c3 ff e9 e4 69 56 c7 3f 22 89 e9 c3 da 22 ec 3f
       0.18232463529056817 0.879254706040488
0000e0 4b 5c 13 c8 1d b4 d4 3f fa d7 60 47 46 2e d5 3f
       0.323493428598742 0.3309493729642551
0000f0 c9 69 d8 63 39 1f e2 3f e9 1f 84 96 57 67 b7 bf
       0.5663115453820008 -0.09142062592229618
000100 ce 40 7f 57 47 ef 77 3f ba 85 15 96 f9 9e e3 3f
       0.005843428305482413 0.6131561213807608
000110 36 29 1b a3 c4 09 d7 3f 5a a0 59 82 82 c1 c5 3f
       0.35997119835214464 0.16996795048476337
000120 1d 82 3b e4 36 9e eb bf fc 35 d1 41 cb 26 dd 3f
       -0.8630632836976165 0.4554927962061297
000130 60 98 2a 21 6a 4c 99 3f 4e b3 33 31 54 ce e9 3f
       0.02470556094581189 0.8064366303420714
000140 ad 33 ac fd 74 6d e7 bf 05 ec 6e e1 d4 2d e1 3f
       -0.7321114496750077 0.5368446734422611
000150 7d ca ba c2 4d 83 d2 3f cd 6f 03 d9 e2 e0 e2 3f
       0.2892641450554619 0.5899519194167567
000160 96 4a 0c 69 10 5f ea bf c7 f3 1b d6 d0 5d ea 3f
       -0.8241045047492033 0.8239521200008476
000170 46 ae 5b 15 1d 33 d2 bf 72 00 46 3a 9d 17 d6 3f
       -0.28436972699885066 0.3451912945820431
000180 77 4c 3f 27 0b 6f c6 3f 6e ca 08 90 27 2c d7 bf
       0.1752637807499899 -0.36206997934201623
000190 50 4f 60 8a 12 42 cb bf 03 d0 46 f0 4f f6 c6 3f
       -0.2129538703599061 0.17939185364014074
0001a0 d4 46 09 82 c0 63 e7 bf 3a ac ea fc c1 c8 db bf
       -0.7309267558832411 -0.43412828158278993
0001b0 6b f3 f0 08 54 6d e0 bf fa d3 1e cc 5f 89 cd bf
       -0.5133457350380984 -0.2307548281366108
0001c0 79 24 a8 d2 66 80 d6 3f 80 34 80 84 2c 70 ea 3f
       0.3515870148845078 0.8261931026369354
0001d0 22 b6 1e 33 6a ba e1 3f 1a 2a 78 00 f4 30 ca 3f
       0.5540057180821274 0.20461893103522827
0001e0 32 4c cd 99 60 3f d5 bf 40 fb a3 0a 51 a3 e9 bf
       -0.3319932462665661 -0.801186104566888
0001f0 c2 46 44 2b 86 29 eb 3f 81 18 05 db a5 dd d7 bf
       0.8488188595822168 -0.3729033125749837
000200 a1 9d d5 28 fd e1 e5 3f a3 a7 9d be 9a 96 e8 3f
       0.6838365361735904 0.7683843348470315
000210 de b3 38 0c c4 d9 90 bf 36 33 03 fc 65 77 cd 3f
       -0.01645571064561923 0.23020624928758487
000220 2a 67 bc 7a 11 98 d0 bf ad a8 92 70 57 9c e3 3f
       -0.2592815111726049 0.6128346632661043
000230 6e 8d 87 c8 a8 8c dd 3f 76 fa 7c c6 65 39 ee 3f
       0.46171016295394096 0.9445065380785553
000240 e1 7c ff fe 3e 2f e2 3f 1d 75 ce 38 7c b7 d5 3f
       0.568267343562095 0.3393240504027107
000250 d3 f0 aa 0c ed 14 c5 3f 87 e7 6d fb 07 0e df 3f
       0.16470111006299834 0.48523139527934983
000260 d1 0f d6 e5 63 84 e7 3f bc 45 a7 b1 46 7b c7 bf
       0.7349109162319057 -0.18344958948595813
000270 48 0b e0 28 be 7a e2 3f e6 e0 f6 7c 99 ca cd bf
       0.5774832533209997 -0.2327453479936203
000280 cd e5 fa 0d 15 6e d3 3f 54 3a 55 60 86 4d df bf
       0.30359388699761497 -0.48910674483787386
000290 de c4 2e 9f 73 c7 e5 3f 66 4c f3 d0 ae 79 e0 3f
       0.6805971249615614 0.5148538666784475
0002a0 8d 45 b2 43 4c bd e1 bf a5 63 7b 7c 0d b9 e8 3f
       -0.5543576547808456 0.77258943856133
0002b0 91 c3 31 e3 86 ec e8 3f 1c 42 47 e9 57 02 e9 bf
       0.7788729131117283 -0.7815360599725554
0002c0 4c a3 2d d0 d3 b7 eb bf 75 bc fc 28 e9 4c b3 3f
       -0.8661898675901312 0.07539231539407061
0002d0 27 f7 3c 4e a0 70 e3 bf 33 74 0a 61 de 98 ec bf
       -0.6074983146752161 -0.8936607261017627
0002e0 fa 14 83 0a 45 e6 72 bf ae ef 97 1f 7e 2a e3 bf
       -0.004614133540774329 -0.5989370934544149
0002f0 8d 1e 98 36 68 d4 d4 bf cb e8 70 ae 59 41 b2 bf
       -0.3254642995020525 -0.07130966671766996
000300 53 a7 9c ef b0 28 e6 3f 42 15 28 ff c3 aa e6 bf
       0.6924671821518394 -0.7083454116370052
000310 cf 12 ef e3 5a 7f d2 3f 35 f8 b3 1b eb d3 a7 3f
       0.2890231347958378 0.04653868401690923
000320 20 13 4e ef 25 04 d3 bf 33 f9 6a f9 e9 26 cc bf
       -0.2971281849825562 -0.21993755987745942
000330 44 bb 52 c4 09 7c e8 3f b9 83 c0 77 c6 c5 ee bf
       0.765141375964824 -0.9616424883753246
000340 82 f5 7d 7c 73 48 e4 bf 98 87 80 48 84 0b c4 bf
       -0.6338441306576643 -0.15660146274700248
000350 cb 46 cc 6c 42 ce e8 bf 12 1d a7 97 2f 29 e0 bf
       -0.7751781582794249 -0.5050275766342642
000360 97 9e ba 11 40 32 e4 3f f7 51 a4 c8 1d e6 e2 bf
       0.631134066225928 -0.5905903738772044
000370 5d 2c 38 0e 6d cd ed 3f 9e fc ce 7b a4 3a e7 3f
       0.9313264157984907 0.7259085100303257
000380 10 2d 2a 20 c6 a6 dc 3f fd be 99 f5 9e f2 d2 3f
       0.44767907277192 0.2960584066813537
000390 cb 66 db a8 0f bc d9 bf ca 95 cd fd 6c 71 ef 3f
       -0.4021033429140572 0.9825959164706373
0003a0 02 40 ff db ad 20 e0 3f c3 65 89 4a 1e f9 d5 bf
       0.5039891526048452 -0.3433299758813428
0003b0 bb 6e b7 f3 80 d9 96 bf 5e 21 8d d5 90 c5 dc bf
       -0.02231408584144277 -0.4495584569417782
0003c0 3f 0e ea 0a 7c 72 e0 bf 9d ee d0 66 07 ec c1 3f
       -0.5139751637620477 0.1400155307800234
0003d0 2f 32 c9 18 8d 08 e8 3f 06 6b 66 43 29 da ea 3f
       0.751043842706684 0.8391310039909008
0003e0 bd 36 d9 cd 6f 73 bd bf ee bf 47 01 d0 50 e5 3f
       -0.11504267478559434 0.6661148095135994
0003f0 c6 b1 36 33 44 6c e0 3f 7b 64 b5 bf 7f 86 ec bf
       0.5132161140696148 -0.8914183372791195
000400 df 6d a0 f4 02 ca eb 3f 36 91 35 c8 52 a7 d6 bf
       0.8684096124520088 -0.3539626078766277
000410 ba 3c 3c 20 0e c0 e7 bf 57 81 b2 c4 1e 5f f4 3f
       -0.742194235763143 1.2732227023589837
000420 31 3a 48 f6 bc fb e9 bf 3a 28 82 3d 66 a1 bc bf
       -0.8119797525594717 -0.11183775903387608
000430 4e ec a9 99 0b 82 dc bf b2 21 ce 61 b6 ca e4 bf
       -0.44543733602740054 -0.6497451696641774
000440 df de 52 da 0e 6d de bf ae 1d 6d 3b 57 76 dd bf
       -0.47540637322116014 -0.4603479461988752
000450 35 94 3c b1 6d d5 e9 bf f8 4b 44 9c 9f 1b dd bf
       -0.8073032819417053 -0.45481100330761093
000460 6a 11 50 7e f9 4e ec bf 1a 30 6c 97 e5 37 ed 3f
       -0.8846404521032529 0.9130733449433166
000470 00 72 1a 66 86 3e d5 3f ac 78 83 e5 73 50 e8 3f
       0.3319412228682097 0.7598208887755127
000480 bf 16 c9 65 10 c2 e7 bf ab 1c 56 6c 99 c9 d7 3f
       -0.7424394596098053 0.37167964534496417
000490 f5 1c 85 d3 19 53 72 bf b3 47 7d 3e 2d c3 e7 3f
       -0.004473782428539898 0.7425752850051509
0004a0 d9 6a 1b 59 a4 e8 ed 3f 1e 83 ca 87 47 f4 df bf
       0.9346486797688512 -0.4992846323093988
0004b0 b5 d0 89 73 68 94 e7 3f 4e e6 a7 5d bd 8c e8 bf
       0.7368662125213833 -0.7671801404205298
0004c0 87 21 7b 67 a8 52 a7 bf 85 3e 97 f9 97 ef c3 3f
       -0.04555250418849526 0.15574931799936934
0004d0 72 61 06 5c 17 f9 c0 bf 00 6b 01 17 62 8a e0 bf
       -0.13260166161922943 -0.5168924760176594
0004e0 a9 48 2d 2b fa 5e a4 bf 4a 60 d9 cb 8e 64 b9 bf
       -0.039787118692985964 -0.0991906402281312
0004f0 e0 f1 8c fe fd b3 e5 3f 2a df 8e bd f0 83 c1 3f
       0.6782216998759019 0.13683900123373266
000500 86 88 28 09 02 f3 e0 bf d7 84 d0 a0 74 aa b7 bf
       -0.5296640566705413 -0.09244469572196877
000510 b5 3a 54 e9 bd 5a dc 3f 29 da e0 7d a4 2d dd 3f
       0.4430384424785346 0.455910799911552
000520 da 5e e3 72 ac 3e e0 3f 92 7d 87 3c 45 7f d4 bf
       0.5076505893620962 -0.3202679720979741
000530 80 14 6e b7 58 6a e0 bf 09 46 e9 b3 b3 04 d7 bf
       -0.5129817564599222 -0.35966198510604436
000540 33 80 68 8d 9a 58 c7 bf 36 4f 2d d3 44 16 c7 bf
       -0.18239147095391814 -0.18036709128738843
000550 70 05 4c b4 32 23 c7 3f 0e 20 35 53 b6 62 cd bf
       0.18076165965616608 -0.2295749574934693
000560 52 56 af 48 f5 1d ec bf 16 dc 31 c0 1b 08 ca 3f
       -0.8786569995524565 0.20337244877347932
000570 b1 52 28 6a 2a 1b ee 3f cf e5 04 74 6b 26 e0 bf
       0.9408161233319189 -0.5046899095534004
000580 31 9d 96 ef f0 ee e3 3f fd bb 0a d4 e9 74 e5 bf
       0.6229176215610207 -0.6705216542667355
000590 41 55 99 3f b2 a6 d9 3f 67 5a 84 93 d5 5d a4 bf
       0.40079933367572457 -0.039778398759314375
0005a0 19 b9 18 99 87 24 ef 3f 93 4b 0e 5d e8 07 c8 bf
       0.973209189430949 -0.18774132293455334
0005b0 c2 63 27 c1 3f a2 db 3f c2 57 32 59 27 66 a9 bf
       0.4317778955715391 -0.04960749591661752
0005c0 da 0c 35 3a 8a 68 b2 bf 58 a1 aa db 45 21 e8 3f
       -0.07190765305590521 0.7540616312372022
0005d0 b3 98 38 f5 7d 7f f0 bf 93 6e da 56 66 66 e8 3f
       -1.031125982184261 0.762499971041921
0005e0 5a 4b c4 94 c2 75 e1 3f b3 03 bd 4e 07 52 ee 3f
       0.5456250100709028 0.9475132501466902
0005f0 ff d7 c5 27 b1 ad e2 3f b2 90 de fa 5d 5d e0 bf
       0.5837026383221654 -0.5113973521988753
000600 18 36 c3 fb f4 63 d5 bf 5f 89 a4 7c 32 ee e3 bf
       -0.3342258890741916 -0.62282680839807
000610 3a 17 d6 4a 0c 95 d8 3f be 5a 30 3b 42 57 99 3f
       0.3840971690009273 0.024746928083994695
000620 90 dc 39 16 2b a8 eb bf e7 ad 59 10 f8 71 c1 3f
       -0.8642783578969944 0.1362905578456399
000630 f5 1c b3 17 2a 23 d1 3f 40 1a f6 6c bb 27 dc bf
       0.2677712661211012 -0.43992505684619587
000640 51 48 32 c3 9e 72 e8 bf 3b 9e 3c e7 78 cb eb bf
       -0.7639917194776534 -0.8685879246085685
000650 49 5e 07 95 d8 e0 e9 bf 26 6d ed 17 f7 9e eb bf
       -0.8086970244139106 -0.8631549327214187
000660 25 91 c3 9b e5 67 e7 3f c4 3f bc 7e 42 02 e2 bf
       0.7314327280296636 -0.5627758479404226
000670 e8 82 49 1b ce 84 d4 3f 79 b0 c2 fd 80 ab c8 bf
       0.3206057802654372 -0.19273388281488105
000680 4d 37 99 37 b5 f4 e2 3f 52 f2 b0 29 ab 58 df bf
       0.5923715673359112 -0.4897869021549798
000690 34 87 4a 3d c0 7c f1 3f b6 78 15 24 e8 64 e7 3f
       1.0929567712959853 0.7310677246821544
0006a0 f7 d4 96 05 f2 05 e6 bf 2b e1 57 37 81 2b d2 3f
       -0.6882257565654574 0.2839053192578997
0006b0 e0 60 b2 40 a2 3d ee bf cd 8e 2f a2 4c b8 aa 3f
       -0.9450236571892923 0.05218734245116039
0006c0 37 77 ca 52 9a c4 c5 bf 65 83 f3 f7 ae 0d dd 3f
       -0.1700623420955993 0.4539601727865857
0006d0 cc 20 31 46 c8 38 cd 3f 91 a1 06 ce 83 a8 ea bf
       0.22829535891856378 -0.8330706619208731
0006e0 fd d8 ed 28 10 33 e1 bf 93 87 cb 3e dc 62 e7 bf
       -0.5374832915684064 -0.7308179117646766
0006f0 b2 c7 58 0d aa 46 e9 3f b7 99 91 ea 26 49 ea bf
       0.7898760090522414 -0.8214296895428593
000700 91 0f 0c 87 76 b2 c0 bf 3e 40 64 71 9e 68 df bf
       -0.13044625848862926 -0.4907604319896598
000710 9a f2 b3 24 61 c0 e1 bf 68 a2 3b 3f ef f4 c0 3f
       -0.5547338215688626 0.13247480952783808
000720 90 11 4c 71 ec 24 e3 3f 87 f1 1c 65 16 19 e3 bf
       0.5982572758517097 -0.596812436567732
000730 b1 8a f7 73 60 d3 eb 3f 2f 7b 24 b4 b9 fc e6 bf
       0.869552828309983 -0.71835026916583
000740 95 c9 7f bd 51 af ed 3f c2 3b 05 55 2c c1 ee 3f
       0.9276512814670236 0.9610807095103768
000750 3b da bf 99 ac f1 e9 bf 06 0e 8a 48 30 dc d8 bf
       -0.8107512476843292 -0.3884392460242626
000760 be 3b a0 4d 99 e1 ec 3f 02 66 46 1e fb 01 d2 3f
       0.9025389209872328 0.28137090641538987
000770 d2 2d 30 b4 fc cd d2 bf 8d 6a d4 e3 9d 6f d8 3f
       -0.29382245632652115 0.38181254624365907
000780 59 04 86 e0 f5 29 eb bf 1a e8 39 57 00 3e d4 3f
       -0.8488721261238751 0.31628426092322715
000790 9b d0 68 7f e8 ce e7 3f 0d dc 67 ce 78 80 b1 3f
       0.7440073479142656 0.06836657561494537
0007a0 dd 54 60 84 c1 df d9 3f 0b fb 55 2a 0a de cd 3f
       0.4042819779145484 0.23333861415081744
0007b0 63 ab 7d 13 34 0b e2 3f 30 d2 c2 d6 ec 7c e4 bf
       0.5638676052743502 -0.6402496523429075
0007c0 90 b4 49 be a1 87 e0 3f fe e0 b0 33 19 54 8c bf
       0.5165566174088259 -0.013832280054075326
0007d0 11 c0 8d c2 ae 93 e8 3f 85 aa d6 ee 97 8d e5 3f
       0.7680276679875552 0.6735343613448356
0007e0 9d 84 d5 c4 70 a3 f0 3f 62 10 80 19 04 c8 d5 bf
       1.0399024666624321 -0.3403330086732749
0007f0 92 2d 35 f5 42 3c ea bf 90 51 93 4b 00 a5 e6 bf
       -0.8198561467374239 -0.7076417423327701
