src/params/weight3.npy (npy, 120080 bytes, 1 tensors)

array (column-major) f8 [75, 200]
-6.218179881094084 -0.7252320158095408 1.05028159301184 3.0798699168125516 1.8746216703512588 -0.6230875585988815 -5.84340484164568 -5.459999982666629
2.235229576386554 -6.798305199630144 4.1348991570043925 -3.7475650635899425 1.5982751206372956 -3.554056340984867 -3.041359471439873 -7.1470087486624525
-4.966954335303781 2.2673058462405398 5.884123105880907 1.026248179634049 4.687387179972839 -7.284975124049445 -1.521844516443194 -3.2559289752725036
5.634958151668057 0.6131672106953736 1.8210647680381518 0.8844211646815477 -2.8901886667384558 0.7766782645836183 -3.958661635940068 -5.936438571754448
-6.329818951551832 0.589091117707428 -1.8452248591827278 5.216587353106251 -2.970342345916934 4.3908825347003555 0.8812498577977387 -2.284987802056354
0.6231142466215648 1.8438101671463034 -0.12812526026118123 -0.9846735104232016 2.5377697853204726 -7.440985659030862 -5.349565811584363 0.8964311809093255
-1.3979114364925704 1.547761919980566 0.871799377902706 -8.428561745547107 -3.699163180337269 1.6500892995769247 -2.3491091023306825 3.21834174724717
-0.4789368492577494 3.324870320375926 3.397458961947378 -0.24391347564338037 -1.678581337544331 3.6575384922583374 -1.4453610551320317 5.190833029764841
3.8140083879542184 2.139888232379075 3.0204467890132873 -2.8851105376529187 0.44402987294215984 -1.6257453339133465 -5.948009744206906 -2.057391986735009
-4.344544535014803 -2.34568186842035 -1.4961408207765783 2.1661798552323774 -3.8165396712605433 1.3306525773489821 0.9671427515030767 -1.5407169875740248
3.1584350382763935 2.0426772666327473 2.867675621080489 -3.853000477231221 -1.6756897831618365 -3.5338985843563946 -3.3638912121988365 1.4682889227273646
-2.3101651451408296 4.309406626637833 4.770450840695962 -4.130487809303252 -4.746674105614302 6.686864362579 1.6025888719871726 -3.731082027929507
-3.4757041593272993 5.150525474346964 -4.879551313002327 5.144834780348423 0.8376307481857406 -2.068505796140066 -2.503680107700281 -7.845499486903627
3.4723168622438227 -4.65548387031448 -4.159174236528737 0.7353423183372455 -0.3744884936901983 -4.419512155134635 4.465662445055961 5.3167435325462185
-0.9369261104702931 0.8295240849120077 -4.411252522915727 -0.09039283412591173 2.7959477197106266 -1.197815063618667 -1.943743698633372 -4.0623530715869265
-4.042850696860955 -6.64303321883382 -2.340807563690931 2.35989772737932 -5.717384824790259 0.43379731981025194 3.268260686368716 -3.8254021914190273
1.8552948517301853 0.1507808674397722 -1.1849366331502842 -0.5184247423709575 -0.7529257069189692 -3.648272050789214 -3.4229933203886906 4.111063630088563
-0.8599481515562186 0.22477902660857965 -3.7812941770166955 3.906637038060029 2.16483205757469 -8.694628707277518 -4.664508315335607 -0.9975076504597217
-0.25537535182149956 0.13840022928346632 2.1868948807368245 4.201662534105672 0.49329145217373205 -0.809322875032294 3.736409328335521 4.68396096582446
0.879481868273657 -7.600740255438284 -6.185728288926966 3.4059383319206553 -1.3392801825110532 -3.6357082835636563 -1.1659124799647056 -0.0923839555442326
6.497069739861177 4.529216631996643 -0.5396906494755116 -0.5991548794162266 2.6648517646917695 -1.8173388336821465 1.6229249416009948 -4.28388332560767
-6.031290092755243 2.8157010367808306 3.1345709336941163 0.4992730209171714 2.1285037175627344 0.7087716700246113 -0.7024547292260329 2.10362144589887
-4.986215010209247 4.459743220509157 -3.437962524719372 3.4546528343245737 -4.041869917131044 -2.0374007165330883 7.7332055712929515 -1.8762052003956384
2.180700508173867 -1.131650603407241 -3.6059919217793297 2.196693841974641 -0.050309668005426134 -0.9517182516040591 0.23213493949459918 1.0312936268733202
1.873688426585347 -0.26566221183718375 0.4104439422014855 -1.568851940871181 -1.7646467773401942 3.0777068901362328 -1.34481873913027 -2.8667976664517396
-2.9630458303405685 -2.1767886416356665 -4.141299841764212 3.744037711175848 3.484678353625677 -2.9481082309601603 -1.3634656293253968 -4.984530310921773
-3.789573580806422 4.67028706658885 1.5860534813164082 -1.8248771618027395 4.57648705907541 -5.4918779676373575 0.06685327382088006 -3.4611979378247955
8.396483344363716 6.872339872133507 5.557076915584963 5.764568310900972 4.512755571485577 4.266276054484531 -1.4506026588448286 -6.086429855789166
1.663533005259353 -0.2657091085027727 1.9610352258207302 3.79005030561072 -6.4414498838057055 -2.151552227534669 2.7036099328127263 -3.8201845754780495
2.9910736116308194 1.5324861863241859 3.191928583069074 0.35809313022723505 3.526215877883093 0.27477434869280737 -3.1798567601807224 -4.0671212181551875
5.003571060570176 -1.6172935784356384 4.205202156500393 -2.979998435309814 5.794770423065801 4.403000559518358 3.617182552611496 2.88432032845413
-1.9322730382208955 -2.8148270262752577 1.367555300488907 1.9644890462944506 -1.1235878799477492 2.347037911864493 3.3704153905058774 -0.883892586920898
00000000: ecc6 f78b 6adf 18c0 9340 bdc5 1935 e7bf
00000010: e639 5912 f4cd f03f 3827 c5d6 92a3 0840
00000020: 3a81 e84a 73fe fd3f f640 d751 55f0 e3bf
00000030: 01a0 d084 a55f 17c0 deda 463c 0ad7 15c0
00000040: b60e 4d0b c0e1 0140 898d 12eb 7631 1bc0
00000050: 0a5e 2e01 238a 1040 f901 5e64 03fb 0dc0
00000060: bb5c d2ee 8892 f93f 165f 4517 b56e 0cc0
00000070: 7ab6 4946 b454 08c0 aaec 1e76 8996 1cc0
00000080: ae6b fb46 29de 13c0 d10f 5d3f 7123 0240
00000090: f595 4591 5789 1740 71b9 1136 836b f03f
000000a0: 29b1 c66c e2bf 1240 17dd d784 d023 1dc0
000000b0: f986 bba2 7959 f8bf 5027 977d 240c 0ac0
000000c0: bef8 3e78 328a 1640 4651 9dd7 109f e33f
000000d0: 6ff2 69cf 1423 fd3f bd51 469d 2d4d ec3f
000000e0: c64a 573c 1b1f 07c0 56d2 3c60 8cda e83f
000000f0: f056 b2ca 56ab 0fc0 dd97 c1c0 e9be 17c0
00000100: 8410 2a0f bc51 19c0 135c 9d9d d5d9 e23f
00000110: dd4b 7f80 0a86 fdbf 3346 3913 c9dd 1440
00000120: e218 0dd9 42c3 07c0 6376 dc82 4390 1140
00000130: ed11 dbe6 3233 ec3f 4aba 4caf a747 02c0
00000140: 5d29 dd49 8df0 e33f 88cf fe16 3f80 fd3f
00000150: 5d7f 4e95 6866 c0bf 522a 9005 7282 efbf
00000160: b4d3 c53e 5a4d 0440 952b 9ebe 91c3 1dc0
00000170: d937 8294 f465 15c0 c8d8 a371 90af ec3f
00000180: 1f0a e761 d85d f6bf a0f8 c400 a2c3 f83f
00000190: 127d 18cf c7e5 eb3f 0ce2 f271 6cdb 20c0
000001a0: 68ed 90dd e297 0dc0 5999 9209 c466 fa3f
000001b0: 37f8 89b6 f9ca 02c0 8939 3ef5 29bf 0940
000001c0: fe52 1abe e6a6 debf 29a5 4b9c 5599 0a40
000001d0: 5e87 d8f6 fe2d 0b40 d393 7888 8e38 cfbf
000001e0: 86dc c61a 78db fabf bbe2 808a a342 0d40
000001f0: 1d44 ebe9 3220 f7bf aa58 d7bb 69c3 1440
00000200: e276 67d4 1683 0e40 984e b9b8 7d1e 0140
00000210: 56f6 9001 e029 0840 9c83 64d5 b414 07c0
00000220: 7ff3 ae45 fc6a dc3f ce84 0c8a 0d03 fabf
00000230: c7a1 fe10 c3ca 17c0 77a2 10ee 8975 00c0
00000240: ce9d 5748 d060 11c0 117c fdda f4c3 02c0
00000250: d222 775b 31f0 f7bf 0dd1 9b1a 5654 0140
00000260: e19a 7ff3 4588 0ec0 f2d4 605b 5a4a f53f
00000270: 099d 085b d5f2 ee3f 6b5a 20db c6a6 f8bf
00000280: 3e80 df96 7944 0940 38c3 c32d 6757 0040
00000290: 159e 80ea fff0 0640 a371 09ea f1d2 0ec0
000002a0: 22be 0e17 a0cf fabf 0388 f99e 6c45 0cc0
000002b0: ff90 bdcb 3fe9 0ac0 f216 8386 1c7e f73f
000002c0: 62e9 15dd 377b 02c0 fb4c 3a17 d53c 1140
000002d0: 05dc af10 f114 1340 c6ef a598 9e85 10c0
000002e0: ae88 0123 98fc 12c0 3e42 185f 59bf 1a40
000002f0: 1ee5 a13a 34a4 f93f 6934 c588 41d9 0dc0
00000300: 2e0e 77fb 3dce 0bc0 f123 9659 239a 1440
00000310: d4fe 7119 a984 13c0 e5ad 9391 4f94 1440
00000320: d69d b2ff decd ea3f 7010 50c4 4c8c 00c0
00000330: 6abf b16f 8907 04c0 b824 149e ca61 1fc0
00000340: 117e 2510 4ec7 0b40 8c39 e829 379f 12c0
00000350: db06 3192 fea2 10c0 fff1 139d ec87 e73f
00000360: 4e2c 4896 9ef7 d7bf 9a4f 2a98 94ad 11c0
00000370: 87f6 b19d d6dc 1140 a705 a66a 5844 1540
00000380: e8a0 6777 4cfb edbf f31f fe17 768b ea3f
00000390: 3b48 a161 1fa5 11c0 3211 5d1a fc23 b7bf
000003a0: 03dd 8bd6 195e 0640 945f ce20 402a f3bf
000003b0: 8cfb 16fe 9219 ffbf 8015 cd7b d93f 10c0
000003c0: b383 960d e12b 10c0 0f88 d44c 7792 1ac0
000003d0: 8241 e250 f9b9 02c0 c1fd 470f 12e1 0240
000003e0: c17b a420 9ade 16c0 ea5b 6bd5 55c3 db3f
000003f0: 970c d6db 6525 0a40 1988 d176 6c9a 0ec0
00000400: 9ee4 89a7 49af fd3f 3217 4297 c94c c33f
00000410: b667 731d 80f5 f2bf a374 3d7c ef96 e0bf
00000420: e21b f1a6 f717 e8bf 7a67 c841 a92f 0dc0
00000430: 8ef7 6b52 4a62 0bc0 8d05 0caa ba71 1040
00000440: 4a11 66fc b184 ebbf f126 0e24 8fc5 cc3f
00000450: 4cbc 5629 1740 0ec0 267b 5eeb ca40 0f40
00000460: ebec 4478 9351 0140 493d b95f a663 21c0
00000470: 5d25 29de 74a8 12c0 6b7f 072a 95eb efbf
00000480: 0bc8 11dc 1158 d0bf 9104 4445 19b7 c13f
00000490: 946f 44be c27e 0140 d83f 939f 80ce 1040
000004a0: bae1 9e4f 1692 df3f 8463 0516 f9e5 e9bf
000004b0: f55c ed92 2ae4 0d40 97d3 6f43 60bc 1240
000004c0: 7b21 b528 b724 ec3f 12fe 1974 2867 1ec0
000004d0: 8f88 7b8e 2fbe 18c0 0856 9e98 5c3f 0b40
000004e0: dd0d 810e b16d f5bf 1a9e 7d39 ee15 0dc0
000004f0: 8b25 37d8 93a7 f2bf 26d3 bc93 79a6 b7bf
00000500: d323 92d9 fffc 1940 0cb3 fbf6 ea1d 1240
00000510: ce89 2e53 2545 e1bf c99b 8ada 462c e3bf
00000520: f34f 50cd 9d51 0540 4fa6 86e2 d113 fdbf
00000530: ac9f c024 80f7 f93f 6a75 7d4f b222 11c0
00000540: 514a 9482 0a20 18c0 b24b e243 8e86 0640
00000550: d5aa f9ec 9913 0940 ec51 27d4 16f4 df3f
00000560: 5bc5 02f5 2c07 0140 c7c8 e2ec 41ae e63f
00000570: 7948 1e57 827a e6bf 2766 0a7b 37d4 0040
00000580: 2db1 fe58 e2f1 13c0 0494 42ed c6d6 1140
00000590: ab58 047f f280 0bc0 79a9 7306 21a3 0b40
000005a0: 670e 93f2 df2a 10c0 47da 32bf 984c 00c0
000005b0: fbca f770 cdee 1e40 e08c 84be ef04 febf
000005c0: 97d1 a71b 1372 0140 d01f c2a9 3d1b f2bf
000005d0: 9475 ed4a 12d9 0cc0 6cd8 9438 d492 0140
000005e0: 5008 8355 30c2 a9bf d9a9 b4d5 7974 eebf
000005f0: ecb1 b102 99b6 cd3f fce7 ffbe 2d80 f03f
00000600: 843e 31b7 a0fa fd3f 2aeb e713 9c00 d1bf
00000610: 3e30 26ab b644 da3f f2ec 247e 041a f9bf
00000620: d5af 5a42 fe3b fcbf cd78 3eca 249f 0840
00000630: a8cc 79a7 6084 f5bf 5346 6d9d 33ef 06c0
00000640: 2fe5 4e5f 51b4 07c0 1e09 d129 106a 01c0
00000650: a43a dde7 b090 10c0 7ded 230b caf3 0d40
00000660: 1436 6f0b 9fe0 0b40 a356 a8c4 b995 07c0
00000670: 20c3 f255 c1d0 f5bf a451 bdb6 28f0 13c0
00000680: 27cb 1af4 0b51 0ec0 3ab9 97bb 5fae 1240
00000690: ee5f 7f9d 7960 f93f a28f 1265 b232 fdbf
000006a0: 362f a59f 524e 1240 6880 a2db aef7 15c0
000006b0: 53f3 b0d0 4b1d b13f 6785 5f8b 88b0 0bc0
000006c0: d8e6 6add ffca 2040 ae3d d7a9 467d 1b40
000006d0: 062d f75e 723a 1640 b382 cbfe ea0e 1740
000006e0: 487d e9cb 0f0d 1240 3be0 86ab aa10 1140
000006f0: bdaa 3322 ab35 f7bf c30c 7011 8158 18c0
00000700: 007d d6c8 d49d fa3f c732 d1c6 6001 d1bf
00000710: a143 1379 6660 ff3f c157 06e5 0552 0e40
00000720: f312 3770 0bc4 19c0 c82d a703 6136 01c0
00000730: 4392 943e fea0 0540 1ae5 42ee bc8f 0ec0
00000740: 5510 6f00 b8ed 0740 a458 3d3c 1085 f83f
00000750: 2698 5bda 1189 0940 39e3 cf72 ffea d63f
00000760: 8826 91ab b035 0c40 6894 5a26 e795 d13f
00000770: 9786 b7bd 5870 09c0 7960 b36c bb44 10c0
00000780: 9b71 d121 a803 1440 0d97 363b 6fe0 f9bf
00000790: 92f3 9c83 20d2 1040 6a4b 6e6b 09d7 07c0
000007a0: 3295 3b4c d82d 1740 ad9a bd2d ac9c 1140
000007b0: 8006 f967 fdef 0c40 0f30 4f89 1613 0740
000007c0: f19e 2122 97ea febf 4afe 2d08 c484 06c0
000007d0: 1424 b1aa 81e1 f53f 55f5 f210 8c6e ff3f
000007e0: c1eb e848 37fa f1bf e770 0fd0 bbc6 0240
000007f0: 3343 2158 9cf6 0a40 2811 401b d948 ecbf
