src/params/weight3.npy (npy, 2128 bytes, 1 tensors)

array (column-major) f8 [16, 16]
00000000: 9857 7fee f118 ca3f 84f3 e2dc 8257 e53f
00000010: 1182 5558 e084 c4bf ad57 b71d 8b06 e83f
00000020: 621f ef16 ae62 e8bf e620 1464 d936 d23f
00000030: 57fc 13b6 bcaf e2bf 5888 44b4 3ccf f4bf
00000040: 24c0 98ef 8fe4 f5bf 88ad 64da b8fb fd3f
00000050: 6364 1d8d 7f2c f53f 32e3 da47 8e4a 0740
00000060: d3d2 00de cc15 00c0 964c ce09 2689 01c0
00000070: 3c76 e6f0 e6d6 d2bf 2a28 07d6 294e f1bf
00000080: bf5a 9d5b 45d9 da3f def7 bc6f 43d4 02c0
00000090: b63a ebf3 bd91 f53f 81e4 aade 2550 c5bf
000000a0: 5c97 cec2 6907 07c0 8b14 39b4 5bc2 eebf
000000b0: 1319 1f03 bf9c e53f 0d33 7199 c7d8 fb3f
000000c0: 7bb5 0726 4f86 f13f 6c88 eb95 b905 f43f
000000d0: e012 794e 0539 f13f d169 6992 ff37 d3bf
000000e0: 8a73 c1c8 cf2e fb3f 118c 69fa e975 f33f
000000f0: 7c3a 0e74 50b4 fd3f ba3e 4887 c984 fbbf
00000100: 967a 3354 5ef1 e5bf 46ac 9939 a450 e63f
00000110: 1d18 688f 90dd e43f c4f0 51c2 6bbb e9bf
00000120: 51ff 00b2 4456 e63f 62ac 1a61 1367 bdbf
00000130: 487c a824 611c d5bf 8366 dd28 8142 ef3f
00000140: 6577 7e69 42c4 d0bf a8b8 3b3f e017 e63f
00000150: 0fcc f4df 51e9 d23f dcec e82f f2cc e03f
00000160: 21b1 1f79 7785 e3bf bf22 f432 40d3 dc3f
00000170: d02b 8952 a5fc d83f 65e6 c592 3418 b9bf
00000180: fe3d 9f53 fb51 e1bf 22a8 9d64 4e70 f53f
00000190: 9fda c000 c0cc 0040 7bae 1cec 50f9 e63f
000001a0: 4fbd 302e ef88 ddbf 50b1 97e4 1a7f f23f
000001b0: df58 70b4 9678 d63f b658 8973 78f0 ffbf
000001c0: 43e3 ff2d 2ccc e23f 7398 96a4 d90a 04c0
000001d0: 665d 6a1c 5e35 e03f 977c 6408 5363 cebf
000001e0: 5d82 67aa def7 05c0 254b 1037 0c2a f4bf
000001f0: 516e 21ca cc90 0140 974f 286b 8751 e5bf
00000200: 52da c216 0432 ccbf 1f2b 13bc 8940 e33f
00000210: a897 3fc5 02c3 03c0 99bd 5f45 94ea c8bf
00000220: aeeb d364 0a2b 0640 9150 fbe9 e85b ebbf
00000230: ee8b fef6 517b 98bf a0dc 50fb b626 e33f
00000240: a962 f636 e03d f13f ee6c a14f 8b90 ea3f
00000250: ff64 03d8 acbf b5bf 29e9 fb17 d6dc e43f
00000260: 8c3c 789e fd30 d23f 19e8 ae6d f57a de3f
00000270: 8e13 a1d6 a1be f3bf fa00 88e9 5592 c83f
00000280: 02a7 26e1 4b66 e0bf 8efa 242d 9b49 d13f
00000290: 032c e373 f683 cbbf 87ff a830 1ffe f03f
000002a0: 0ae4 6731 6733 f9bf 32cf d79d 9896 f0bf
000002b0: 65af 2a9c f58c de3f 8ddc fb3e 0b69 f5bf
000002c0: 134c 2ef7 a50e d7bf 7f4d 56c9 d4b1 e6bf
000002d0: 245a 4601 7966 f73f 8bc4 351c 6ec1 d4bf
000002e0: 43c0 fc02 f5e2 e23f ced1 39dc e2af b8bf
000002f0: 33d0 00fb 32a6 c53f 90a6 86a5 aff3 f43f
00000300: 210f b91f 0c0e a5bf 6afa ac73 0f00 e63f
00000310: 24a3 4545 97ff f43f 7eec ab75 013a f43f
00000320: 01a7 198f 9c90 f53f 4697 bc53 f11a eb3f
00000330: 9191 f23d d1bd c23f f088 37b7 52f7 d53f
00000340: 2284 fa6f a9e3 ff3f 5162 c6ac 6d23 e4bf
00000350: 707e 72f9 0f7b 02c0 c60a 68e1 0778 f6bf
00000360: 3036 e0d2 84bf f53f 143d 7bfe 1323 db3f
00000370: d0c8 a52f f5ce fabf 8c3d ce1c 2eea b23f
00000380: 1f2c 769b 7b4d f13f 0d33 390b 04d3 c3bf
00000390: 2023 aa39 1586 fe3f 857b d79e 995e f33f
000003a0: e501 f299 e411 f23f 37c6 3bb9 45f3 c5bf
000003b0: 43ca f956 e71e c9bf c4a0 672c 38cd a8bf
000003c0: 29d4 b74e ea1e efbf d271 5b8c f056 d6bf
000003d0: 944a cf74 6eb4 e5bf 2d3f 4038 7081 cdbf
000003e0: b19e 662f 15e1 00c0 5dc3 3909 34a9 ea3f
000003f0: c4fa cb26 ae73 dcbf b657 5f3f d3be d13f
00000400: e31a 8bcf f94a f93f 946c cb28 751e eb3f
00000410: 2523 88a8 cb03 f9bf 65bd f4f7 0b84 e9bf
00000420: 5f70 6c45 bfa1 e63f cba8 2e82 9525 06c0
00000430: 1004 cc49 7879 dd3f 9351 3c4c 3826 e93f
00000440: aab1 776a d359 f4bf cbe4 c085 20a3 bdbf
00000450: 5551 90d2 997f 0040 759f 854c f7e7 09c0
00000460: 0c74 5763 aaf9 dfbf bd07 aca2 b939 fc3f
00000470: 3d80 9260 b498 0240 8faa 166f 08ff 05c0
00000480: a11d de58 a0e4 e73f 3d17 451b eb47 63bf
00000490: 7eac a134 87cc fe3f 24d0 5018 469a eb3f
000004a0: 360c e142 5e76 e0bf b5db fe41 fe3b edbf
000004b0: d2c9 2fcf 5176 d33f c165 6c82 c683 edbf
000004c0: 18fa 2e87 0efc e7bf e10c a5ce 2050 00c0
000004d0: 056b 81ca 01e6 ca3f e9ba c055 64af ca3f
000004e0: 7711 9951 be78 f4bf f78f 8146 e2ac f43f
000004f0: 2d4e 6447 e642 e0bf e1b6 63b9 1ad9 923f
00000500: a079 565c 8649 cebf 87f5 96d9 ab74 c43f
00000510: 318e bac1 6906 08c0 8b0a 8b5c 04b8 c5bf
00000520: a361 06fe 5e3f f1bf 20df 9f79 c64e eabf
00000530: 87a4 9e38 0b10 a13f c54a e31a 1b2b fdbf
00000540: 9ac2 7f60 8b71 d5bf 036f 40a8 0c14 ddbf
00000550: 3c66 c4ff a0ee e13f 88e5 30b5 ffb7 b1bf
00000560: 8c34 6039 64c2 0340 0298 99ef a4ca 0640
00000570: c350 5183 d02a efbf 5646 4190 6948 e13f
00000580: ca0c d819 5494 c73f 59b2 7b7c 1508 e8bf
00000590: a6a9 0681 f464 e4bf 9336 96ab cd9b f13f
000005a0: 87ac 00d9 6fb0 d23f d41b c9b0 7da0 dd3f
000005b0: 17ce 80be 4429 bfbf af3e 8355 fd0f ddbf
000005c0: 9099 5e72 136d f83f a378 78b4 fe46 eb3f
000005d0: 8bb2 0bcc 5756 e3bf 2b23 1721 72c4 e23f
000005e0: 9928 a82b b900 dbbf 5440 863e 5f18 c3bf
000005f0: d3c1 2831 75dd da3f 5462 b01a a97c b8bf
00000600: 3517 a0ab ae3f db3f 119d 718d 544f e6bf
00000610: c899 eab2 3adb ea3f ada9 def7 3c11 0bc0
00000620: 330f 555d f2b6 ebbf f2fd a661 e562 0640
00000630: 5a13 e533 616a f93f 2563 4a60 a95f fc3f
00000640: 46cf 4ed6 c769 ccbf e2b2 dd93 6e6f ae3f
00000650: 2184 02f3 ee87 cebf 8d4c 4857 d90f e3bf
00000660: 8883 fe16 958a d73f 52d7 ce64 f34c d5bf
00000670: 87a0 7d86 e76c b83f 63fa b18c f63d d63f
00000680: 2ab1 9e47 0aa9 d23f d5d3 7c4b 5e55 f0bf
00000690: bea1 88d1 2bd7 f0bf fde4 8936 1a4d f03f
000006a0: 39c4 4c84 bf5f e1bf 3877 79ff eb22 e33f
000006b0: c81d e403 374d da3f d00d cbe0 67ad c7bf
000006c0: 854f 7a7b f758 0140 fc14 f1ba 398b e53f
000006d0: ad6c 1c90 dffc f4bf f9fc 8722 38f9 fa3f
000006e0: 7ff6 9f8a 5359 b33f aab3 ccb2 15a8 eb3f
000006f0: 109d 1c98 651c e7bf 0799 17e7 411b fabf
00000700: 098a 834d 9a16 f0bf eedd 8391 3821 b5bf
00000710: 9a89 cd9a 548c d23f 4233 21d0 a1a2 ee3f
00000720: 6ead 5065 f18b e0bf 3246 44e6 66aa e13f
00000730: 1a6d 7531 a519 e0bf eec3 7407 f2d9 e3bf
00000740: 75f5 99c2 0943 f43f 3355 9545 a09d d3bf
00000750: 7e3a abeb 3ea0 eebf d74f 6b13 0635 e53f
00000760: 41f6 4cc3 d2dc c23f 9a49 484d aa40 c33f
00000770: bbf6 dfe4 4153 c1bf 0911 a3c0 9a13 02c0
00000780: 1b6c f6a1 192b f53f 6637 9745 b439 e73f
00000790: 12ed b4a5 e1d3 d93f a4de 2d9d ea04 e7bf
000007a0: 8b38 dbaf 4b50 d3bf 6715 3a53 db19 da3f
000007b0: 0a40 d8c1 994a eb3f a747 0546 d810 dfbf
000007c0: 79cf 5a64 c21f e9bf e657 5f60 cb23 f03f
000007d0: 2141 fde8 8d10 f0bf bc72 8af0 0856 cebf
000007e0: b135 d940 1766 cfbf d0de a4db 7d08 f73f
000007f0: 9a0c 72a0 3fe2 f7bf 9797 342d 8ab8 c1bf
0.20388626237280216 0.6669325174512868 -0.16030506432709093 0.7507987575906917 -0.7620459030085664 0.2845977284746496 -0.5839522892200745 -1.3005950013835186
-1.3683013304944405 1.8739555865275594 1.3233638298318275 2.911404191367546 -2.010644659423954 -2.191967083557368 -0.2943665840665266 -1.081582866713243
0.41951116511101455 -2.353644249872544 1.3480815437393807 -0.16650842068137098 -2.8786196917816778 -0.9612253684978368 0.6753840504614196 1.7404247278056488
1.0952903256942068 1.2513976913692444 1.07642107633108 -0.3002928666880083 1.698928627206643 1.2162875920992102 1.8565220387860384 -1.7199187550030914
-0.6857139248421216 0.6973439335828366 0.6520464707289225 -0.8041285319627822 0.6980308033598509 -0.11485406037051996 -0.3298571451177321 0.9768682287351144
-0.26197872450017307 0.6904145464921116 0.29549071188665804 0.5250178275813613 -0.6100423207949782 0.45039372421210183 0.3904202753080286 -0.09802559455229128
-0.5412575371973956 1.3399185114199175 2.09997559155029 0.7179340945780973 -0.4614828063085569 1.1560315064808329 0.3511101495836452 -1.996208621325008
0.587423410265821 -2.5052979334314442 0.5065146021833413 -0.23740613851348222 -2.746030169757701 -1.2602655554698654 2.1957031051113423 -0.6662022679251888
-0.22027636634239173 0.6016281770074307 -2.470220128062426 -0.1946587885608835 2.7710159184620897 -0.8549694604830781 -0.023907929134690357 0.5984759243500726
1.0776064059229304 0.8301445536884822 -0.08495598100434519 0.6519575565755861 0.28424015498689736 0.47625480376484713 -1.2340410598710352 0.19196580794233126
-0.5124873540382568 0.27011756333005443 -0.21496468218387585 1.0620414639269897 -1.5750495843806243 -1.03676664025711 0.47735347986848914 -1.3381454906755466
-0.3602690614581558 -0.709207909809649 1.4625177430913334 -0.3243060374725892 0.5902047212930558 -0.09643381001098492 0.16913449531569 1.309493681512695
-0.04112279784433626 0.6875073680201471 1.3124001222551636 1.2641615482851019 1.347805556283163 0.8470389018518538 0.1464177658537094 0.3432204045513023
1.9930815099871855 -0.6293247580061437 -2.3100890625062718 -1.4043043904245436 1.3592575299584375 0.42401599742602625 -1.6755267964586444 0.07388580516111726
1.0814167092055482 -0.1548771910478525 1.9077350857280138 1.2105957226519604 1.1293684018602275 -0.17148658318142093 -0.19625560519087246 -0.048440699978358676
-0.9725238358938714 -0.3490563746143184 -0.6782753259124825 -0.230512645212451 -2.109903688735209 0.833154695528815 -0.4445605639338448 0.27727204502786706
1.5808046443141215 0.8474679753084211 -1.5634266455910588 -0.7973689883128087 0.7072445255212293 -2.7683515711297324 0.46053893286449554 0.7859155167557667
-1.2719301375283103 -0.11577037110773174 2.0623051119129436 -3.2382646539953677 -0.49961337758378543 1.7640930513739328 2.324562792273382 -2.7495278052131833
0.7466584907241903 -0.0023536292957570247 1.9249336296004738 0.8625822520175501 -0.5144492441398885 -0.913573388001956 0.3040966533000332 -0.9223358676273891
-0.7495186462691121 -2.039125074779449 0.21014425647702964 0.20847753703261354 -1.2794783770960672 1.2922079805512092 -0.50816644614901 0.018406312527921357
-0.23661880024606052 0.15981052517410552 -3.0031314024979783 -0.16967825430591107 -1.0779714510773395 -0.8221161246756061 0.03332552972944663 -1.8230238962466256
-0.33505520271050104 -0.45434872084454997 0.5603795047238189 -0.06921384976967293 2.469917724846317 2.8489474028347113 -0.9739763798520688 0.5400893990974491
0.18421412717734703 -0.7509868079483325 -0.6373236198463033 1.1005379393203938 0.2920188540617307 0.46292059196679003 -0.12172345782237702 -0.45410092688414755
1.5266298739967148 0.8524163746658541 -0.6042899117724841 0.5864802023216716 -0.42191914809576186 -0.1491812758727088 0.4197667102880846 -0.09565216924273418
0.42576185951508033 -0.6971838724684024 0.8392613882504572 -3.3834170689417165 -0.8660823653121724 2.798289072903338 1.5884716059819852 1.7733548890448187
-0.22197816814661503 0.05944390826230063 -0.2385233580180577 -0.5956846909270027 0.36783339734579856 -0.33282170147446266 0.09541174920525651 0.3475319265343499
0.2915673922932621 -1.0208418797239933 -1.0525320229445323 1.0188238268295315 -0.5429380020124263 0.5980129232154701 0.4109628236769507 -0.18497942424993008
2.1684407850934257 0.6732453013616175 -1.3117366437279927 1.6858445500254773 0.07558176168819307 0.8642681591205605 -0.722216412633232 -1.631654646591018
-1.0055182483562268 -0.08253816177954551 0.2898150932070621 0.9573525490792252 -0.5170828799067928 0.5520510194202812 -0.5031305280676037 -0.6203546662928809
1.2663667298905612 -0.3064957313084335 -0.9570612528712699 0.6627226237565037 0.14736399208224962 0.15041092656663296 -0.13535331416635707 -2.2595725106967888
1.3230224920905644 0.725793968123736 0.4035572164754778 -0.7193501539140539 -0.30177585767240406 0.40782817008615385 0.8528565202741458 -0.4854031261248743
-0.7851268730214392 1.0087388767765275 -1.0040415860312992 -0.23700057740361113 -0.24530306497983426 1.4395731525273057 -1.492736460438016 -0.1384442063073805
