src/params/weight4.npy (npy, 6080 bytes, 1 tensors)

array (column-major) f8 [10, 75]
000000 9f 64 54 88 29 7e a2 3f e0 94 9e 3c c5 60 da bf
       0.03611879147701668 -0.4121563999163538
000010 a6 9d 8c a6 97 73 e9 bf ca 72 a3 0b d7 9b e0 3f
       -0.7953603985705981 0.5190234401048539
000020 6a 20 18 69 82 7a df 3f d0 92 36 7c 0d fe d3 bf
       0.49185238135442566 -0.31238114481156476
000030 b9 d7 84 7c e3 9f 8f 3f d2 7f ea 8d 55 18 e2 bf
       0.015441682088390129 -0.5654704829976203
000040 8a ad a3 38 03 4f ea 3f 6c d4 6d 0d f3 b0 f1 bf
       0.8221450906980163 -1.1057005428858941
000050 d2 eb c9 aa 20 6a ff bf a3 c9 39 23 c2 e9 63 3f
       -1.9634100600658155 0.002430800604821219
000060 3a fa 88 4b c5 e7 fb 3f 79 f0 d4 7c 18 2d f1 3f
       1.7440846396053886 1.073509681343266
000070 52 ed 1b 4c 86 d0 eb bf 1f da c2 76 1e d9 f8 bf
       -0.8692046629434265 -1.5530075682742177
000080 09 df c3 65 8c 77 e0 bf da 81 cf 79 2e b2 f7 bf
       -0.5145933139419593 -1.4810013540483085
000090 b6 1d 3e d0 8f 18 ef 3f f1 35 11 d9 fb 1e f4 3f
       0.9717482630957679 1.2575643996418615
0000a0 35 ce 2b d3 68 53 f0 bf fd 65 51 8c 12 6e e0 3f
       -1.020363640677613 0.5134365788064198
0000b0 46 81 7e 3f 8d a3 e9 3f b5 e7 99 8e 2e 4b ea 3f
       0.8012148132438959 0.8216774735621956
0000c0 47 25 64 e9 a6 51 ad bf 60 ee e7 a0 62 93 00 c0
       -0.057263580312858546 -2.071965462758996
0000d0 a4 e0 41 0a bb 17 e3 bf 8f 7c bb 30 6c 0e d7 3f
       -0.5966468048418574 0.36025528677959867
0000e0 55 28 6f f4 f1 ec ba bf ab dd 39 e4 76 cd d2 bf
       -0.10517799584991512 -0.2937905529756459
0000f0 0b ca 2c 76 cf c9 f3 bf aa 99 be c5 ee 71 d6 bf
       -1.2367701164445204 -0.35070390044202304
000100 07 a2 4e fd 69 6a ea 3f 61 41 28 13 69 78 d5 bf
       0.8254899928479639 -0.3354742705423828
000110 72 a6 0d 07 d2 26 eb bf 9b de 7a 51 c5 9d ce 3f
       -0.8484888208160568 0.2391897819377292
000120 d7 9d 6a d6 cf f3 a9 3f 89 b7 7f f1 15 c2 d6 3f
       0.05068826191319047 0.3555960520160331
000130 ab c1 5a f4 2d 55 c1 bf 83 1e 16 15 05 a0 de 3f
       -0.13541197234509403 0.4785168367311387
000140 68 e1 b0 2a f6 c3 ed bf e4 5b 13 7e 23 30 ae bf
       -0.9301710923964892 -0.05896101869591755
000150 a7 3a 12 b8 dc 0f e8 bf e9 3e ec 71 5d d4 e9 3f
       -0.7519363017216464 0.8071734643035288
000160 fe 8d 79 26 ff 96 f0 bf 98 8a 40 42 f5 f9 93 bf
       -1.036864424030568 -0.01950820176001375
000170 e6 3e 46 05 d6 dc d8 3f 37 9f 8e f5 d4 bd d7 3f
       0.38847876086309296 0.3709614179629059
000180 99 52 eb e9 6a 22 a7 bf a1 d3 d5 4c 9a 29 d8 3f
       -0.04518446069201793 0.3775392294258442
000190 a1 91 74 b0 e0 cc f2 bf 8a 94 47 af b3 ca d6 3f
       -1.1750189678942677 0.3561219417300171
0001a0 91 6e 8f c1 bb 3f ec bf 7a 4d 37 8c a1 18 ec bf
       -0.8827799587702022 -0.8780067194551713
0001b0 75 c5 6e cd 1f 4e e8 3f 2d 0e ec 28 ea 0f df 3f
       0.7595366489751273 0.4853463554029272
0001c0 8c ea 7b 12 6e 7f e1 bf d9 d9 dc ac 28 94 c3 3f
       -0.546805416204124 0.15295895042954902
0001d0 14 62 f6 a9 61 fa f8 bf ed 08 a2 df e6 e5 e2 3f
       -1.561128295818098 0.5905641906577138
0001e0 1c 13 71 85 8f e6 e9 bf e9 19 79 7d af 54 d3 3f
       -0.8093946081431542 0.30204379323222824
0001f0 50 38 c7 59 c2 0f f5 bf 5c 2b 35 1f 46 17 c6 3f
       -1.3163474566422515 0.172585263479358
000200 f9 07 bb 4e 22 9b 75 3f 1f bc e4 bc 1c e3 f5 3f
       0.005274900449593994 1.3679473284389656
000210 2a 5f 0c 4b 6e 2f f3 bf 06 b1 ce 5f f1 5a a9 bf
       -1.1990797931266095 -0.04952196402095592
000220 54 90 ac 98 cd 79 d6 3f ac 57 7e 0f 3a c7 d8 bf
       0.35118427190378054 -0.38715983880080773
000230 8a c2 75 50 aa b9 f1 bf 1d a4 d6 41 fd 3d 85 3f
       -1.1078284399956453 0.010372141429643428
000240 11 87 c9 8b 2b 18 ab 3f be 6c d9 d1 62 00 c4 3f
       0.05291877824198655 0.15626178022907838
000250 64 a4 4e 7e cf 63 d2 3f d1 54 d6 ff ab cf ee bf
       0.2873419507473669 -0.9628505703755313
000260 4d cd df e8 a8 09 e5 3f bf fc 3b 42 13 46 e9 3f
       0.6574291752171263 0.7898041051520507
000270 2e 4a 6b 8c 91 74 b3 bf 06 f9 a9 e3 94 a1 e3 3f
       -0.07599744489861202 0.6134743162690774
000280 70 b5 92 ef a9 28 d8 bf 55 1f 9a 20 11 cb f1 bf
       -0.3774819221096868 -1.1120768807904444
000290 db bf 1d 33 9e 81 e3 3f 5b 4d b5 65 88 08 cf bf
       0.6095725057948543 -0.24244790044995565
0002a0 d5 8c d3 82 32 b6 f8 3f e8 bf 1c d9 b2 46 d3 bf
       1.5444817648320186 -0.30119010164616933
0002b0 44 72 7f 9f ab ec e3 3f 63 99 f3 8f 8c 3c ec 3f
       0.6226404299919257 0.882391244082822
0002c0 2c af fe 17 a3 86 e9 bf 40 5b b9 5e 5c a7 f1 bf
       -0.7976851910256975 -1.1033595752866887
0002d0 f8 85 76 93 2d 68 e6 bf bf 2d 88 59 50 95 ea bf
       -0.7002170448433267 -0.830726790301405
0002e0 8c 44 ec e6 5d 7a e2 3f 07 2f 5d a6 b9 04 db bf
       0.5774373541081714 -0.4221634030006815
0002f0 bb d8 63 28 6d 12 c1 3f d5 1f bc 55 40 be f0 bf
       0.13337482902688244 -1.0464480732934949
000300 4f 57 20 4f a1 9d e8 bf a4 2d a8 56 4c 48 f7 bf
       -0.7692419572292496 -1.4551509270703287
000310 15 fd 14 c3 10 40 d4 bf b0 e2 6d a2 55 e8 e4 3f
       -0.31641024638152376 0.6533611462064837
000320 dd 0b 46 c3 42 0d f4 3f 76 11 ab 42 c3 1f e8 bf
       1.2532374980807994 -0.7538772871126145
000330 5c 99 1f 05 4b 22 ed bf c9 46 4a ec 5a 6f ca 3f
       -0.9104361629550044 0.20652329003910655
000340 7c 3e c5 35 ef 05 af 3f 47 99 f2 70 4c 0a e9 bf
       0.06059215098741519 -0.7825071531304183
000350 dd 0c a1 80 47 d2 cf 3f 94 90 54 5a 7b 7c eb bf
       0.24860471516340157 -0.858945537973812
000360 40 c5 fc 59 04 d8 e4 3f 5c f6 c2 b3 f1 e6 db bf
       0.6513692624631986 -0.4359707122310732
000370 20 59 14 54 20 9f e3 3f d8 f9 86 29 76 97 f0 bf
       0.6131745950868073 -1.0369779226453968
000380 2f 1f 53 85 99 12 c2 3f e2 64 10 1e 59 02 c9 3f
       0.14119261751170017 0.19538415878267928
000390 72 94 06 d7 05 3a d1 3f 35 d9 aa 13 19 9c f0 bf
       0.26916643141368646 -1.0381098526245982
0003a0 87 b9 be 48 74 4e e8 3f ab 5f 6f 24 cf 11 d9 3f
       0.7595769329835073 0.3917119842349119
0003b0 9c 66 27 e9 31 96 da 3f 64 61 28 55 cc 77 e9 bf
       0.4154171730893752 -0.7958738005864174
0003c0 56 6f cb d4 81 b0 d3 bf 01 23 d2 bc d0 a8 d6 3f
       -0.3076481416771818 0.35405367316757014
0003d0 29 89 bd cc 97 0e c4 bf ee 2c 33 dc 73 58 d5 3f
       -0.15669534203613836 0.3335237169637385
0003e0 22 a6 af 85 24 10 f3 bf 51 9e b3 36 c7 72 e3 3f
       -1.191441080295029 0.6077610081092165
0003f0 7e 02 51 9f 69 1f f8 bf c7 f0 dc 24 82 2b f1 3f
       -1.507669088678227 1.0731221618616915
000400 14 86 ca 42 dc 63 fa 3f d7 8c cd d9 43 ad f0 bf
       1.6493799790408774 -1.0423010356833424
000410 25 9e 11 d1 6e 50 d6 bf dc 10 dd 43 25 fe cc 3f
       -0.3486592332542123 0.22650590718888608
000420 81 69 15 3b bf db e2 bf ac b5 fb 2e 36 e7 99 3f
       -0.5893245843865743 0.025296064965848394
000430 97 6a cf 0d 9b c4 d5 bf 4f 98 2d de 3b 7e f8 bf
       -0.34012485836653056 -1.5308188132126082
000440 d4 93 46 ce ee 01 e3 bf 70 96 d0 8e 85 c8 da 3f
       -0.5939859417745716 0.41848887392766354
000450 6e 8e 71 30 5f 95 f0 bf 19 ae f4 94 7e 16 b2 3f
       -1.0364677326514555 0.07065573822608719
000460 12 98 22 6a 69 b5 f2 bf a8 94 16 d9 26 7d e0 bf
       -1.1692899843124036 -0.5152773132328052
000470 92 97 98 a7 ab 60 e8 bf 13 cc 6b 5a 72 f6 ec bf
       -0.7618006013260461 -0.9050838247334262
000480 4b ee 37 51 0d fb f2 bf b1 9b a8 46 fe e1 f0 3f
       -1.1862919972035282 1.0551741371252599
000490 c1 f6 10 2d 4f 79 f4 3f 62 40 a1 5f 33 86 da 3f
       1.2796165237809165 0.4144409593473083
0004a0 cb ad 03 42 4d b7 ea 3f a9 f8 a7 02 fc 61 dd bf
       0.8348757066100289 -0.4591054941119049
0004b0 fc 4d d3 cf 2c d3 d2 3f 5c 18 48 82 d5 27 e9 bf
       0.29413910193872517 -0.786112551170628
0004c0 75 ce b2 57 fc 28 e1 3f e7 0c b6 3a 00 69 c0 3f
       0.5362531388149835 0.1282043730426274
0004d0 ad c4 92 66 ed 76 ce 3f 0a 59 23 95 56 ff f1 bf
       0.23800437458479476 -1.1248384309488437
0004e0 85 55 64 28 dc 66 d7 bf 55 11 cf ed 6f 3a e5 3f
       -0.3656530756428185 0.6633834500030767
0004f0 45 dd 6d 48 a7 9e ef 3f 38 c4 37 bc 1a 50 ef 3f
       0.9881168760902389 0.9785283733491559
000500 9b e5 75 6b 23 ce f0 bf e1 87 bc c8 89 3e e5 3f
       -1.0503267476727618 0.6638840599664456
000510 c4 89 3a ed 7b 52 ec bf de 17 0d 4e ef 03 e3 3f
       -0.8850688584682804 0.594230320399898
000520 18 5b 8b d8 7a 3e dd 3f 22 e5 b1 f4 a3 7e dc 3f
       0.4569384684268001 0.4452295198057802
000530 3b e2 d1 f7 69 de e5 3f c1 a9 92 35 69 46 96 3f
       0.6834001388770682 0.02175297154887246
000540 41 49 a7 75 e9 66 e2 bf 11 a3 1f 6b 4c f1 d3 bf
       -0.5750624940795107 -0.31160269223487186
000550 2d 67 d0 cd e3 79 90 bf 1f 08 40 7e b8 49 d3 3f
       -0.01608997291268748 0.30137455300439514
000560 f2 fd 78 e4 77 53 da bf 56 5f 75 89 24 4a df bf
       -0.41134450256137634 -0.4889003126495387
000570 5e 6a f4 c0 8e b1 e4 3f 76 fe ab 21 c0 ec c9 bf
       0.6466745155951903 -0.20253755230077147
000580 5c 86 2c 84 b6 5c e6 3f a1 4b 58 7c e4 77 df 3f
       0.6988174993059135 0.4916926588350013
000590 83 06 9d b4 b0 72 d0 bf 83 51 84 2d 36 0c ed 3f
       -0.2570001376917405 0.9077406777383178
0005a0 68 a1 4d 38 53 21 e0 3f 84 51 92 0f aa c7 bc 3f
       0.5040680026695954 0.1124216354385848
0005b0 0b f2 20 64 34 5f b4 bf 12 c7 ae 4e 6d 48 cf 3f
       -0.07957770771549393 0.24439779607706008
0005c0 68 e7 a9 41 a2 4c ae bf 8f 3a 78 6f f3 c2 e1 3f
       -0.05917841960486109 0.5550477196828342
0005d0 ad 81 7f 4c 92 31 e1 3f 74 e9 3c 18 b7 a2 e2 3f
       0.5373012060263612 0.5823626969716273
0005e0 bd b9 e7 fa be fb e4 3f 92 43 e5 8b d5 9a de 3f
       0.6557307148448711 0.4782003275077439
0005f0 8d 2c 7f d8 83 af f2 3f 4d fe bb 56 dd ca e7 3f
       1.1678503472237793 0.7435137456922775
000600 0b 03 84 41 a6 66 e1 bf c4 cd d2 4a 5c 23 f0 3f
       -0.5437804488757093 1.00863293865119
000610 66 a3 b1 e4 58 72 e3 bf c7 15 6c 36 f7 ec f0 3f
       -0.6077084032705045 1.0578529477946732
000620 d9 82 54 c3 28 a8 c6 bf 29 31 c3 74 76 c3 fc bf
       -0.1770068124542579 -1.7977203904184285
000630 1a ab 51 65 54 1e ec bf 54 20 41 11 90 15 ee bf
       -0.8787023524176647 -0.9401321732521049
000640 07 25 06 f8 7e be e4 bf 8d a2 5a 32 c5 7e ea bf
       -0.6482539028376387 -0.8279748900868796
000650 c0 47 61 07 a2 29 ef bf d3 1c ac fc 11 2e e9 bf
       -0.9738321441784521 -0.786873811245551
000660 82 cc 43 0f 96 8a eb bf 05 b5 2b 7c 12 4b f2 bf
       -0.8606672571317093 -1.1433281755847144
000670 14 e1 f8 2a 29 60 ee 3f 8c f7 62 01 92 85 92 bf
       0.9492383803654172 -0.018087655386572574
000680 eb 56 d9 e0 71 44 e2 bf 64 2f 9d 80 56 2a e3 3f
       -0.5708550826627435 0.5989182006828568
000690 b3 a7 7f 13 a2 08 bb bf 3b c8 6a 74 41 41 d7 bf
       -0.10560048080483746 -0.36335789078578146
0006a0 69 b8 fa d0 29 e0 e9 bf d5 35 13 b6 b6 b7 fb 3f
       -0.808613689577908 1.7323519813829666
0006b0 47 a5 5c 2c da df e8 bf 01 f5 7d 92 79 b8 e9 bf
       -0.7773257128184604 -0.8037689076587925
0006c0 9f 37 c3 fa 74 8e da 3f fa 3d 3b 45 26 20 e2 bf
       0.4149448822835157 -0.56642449876557
0006d0 50 25 aa 67 b3 1f ca bf 5f c3 d1 4b 69 ac c9 bf
       -0.2040924316573105 -0.20057407571905636
0006e0 27 79 69 34 4e 24 d8 bf e3 c6 82 87 d0 5a f9 bf
       -0.37721591108665325 -1.5846715253250572
0006f0 ac e0 bb ed de 55 f0 3f 12 ab 5a b6 f3 ad ec 3f
       1.0209645544510222 0.8962343751530588
000700 a3 52 29 24 ee 1f f2 bf d5 2d fd 5c e7 6f ee 3f
       -1.1327954685740813 0.9511601272765186
000710 c1 a7 b2 2b 23 40 e9 bf 3b 18 82 67 70 f4 a4 bf
       -0.7890792706941668 -0.04092742217567077
000720 37 38 66 36 4b 38 f5 bf e4 54 ea e0 d2 5c da bf
       -1.3262436032268974 -0.41191551174536145
000730 75 33 ec 20 d9 42 f3 3f a2 73 de 0b 88 b3 f5 bf
       1.2038203512231267 -1.3563309157973227
000740 e1 c5 f5 98 eb d7 81 bf 1f ed 96 8a 3a 60 d1 bf
       -0.008712616544218345 -0.2714983323491697
000750 2a 68 b0 0f 36 01 b1 3f 29 01 76 9e 12 32 f0 bf
       0.06642473109278116 -1.0122247877007544
000760 b9 28 3a 4e b5 1d e3 3f cc c1 13 3f 2a ca f8 3f
       0.5973764922976194 1.5493566955520803
000770 56 25 81 ac 4e 71 f2 bf 68 99 06 ac e4 43 ed bf
       -1.1526629198509304 -0.9145377502325518
000780 75 63 7f c4 8b 81 f1 3f b4 cd f2 f5 9f f5 ea 3f
       1.0941274333656257 0.842483501785344
000790 3c 88 d3 8a 6c 0f df 3f 23 08 64 4d 00 3a d0 bf
       0.4853164058423578 -0.25354011113825176
0007a0 b2 72 af c7 7d d9 dd bf 04 7c 59 52 9a 29 eb bf
       -0.46639961720010625 -0.8488284691228505
0007b0 94 fb 50 ec e3 77 f9 bf 38 47 df 6b f6 be ec 3f
       -1.5917700987917884 0.8983108622435116
0007c0 a3 22 ca 0d 77 dc ef bf db 2f f3 40 22 a6 e8 3f
       -0.995662238056941 0.7702800053170863
0007d0 a7 fc d1 6d bc f8 ea bf 2c 97 30 01 80 d9 da 3f
       -0.8428632874419194 0.41952514759246884
0007e0 81 5c f1 30 d2 46 d5 bf fe e2 53 1c e2 56 e8 3f
       -0.33244757442066236 0.7606058648371741
0007f0 ef db 9e 34 a3 59 dc 3f 68 72 e5 76 62 31 c9 bf
       0.44297104014134353 -0.19681959920389436
