src/params/weight3.npy (npy, 2128 bytes, 1 tensors)

array (column-major) f8 [16, 16]
1.939126364595065 0.33258423426333644 2.060678313123048 -0.21639954303093506 2.285395216703991 -2.318582801018424 0.65215768067215 1.055368070785548
-1.3086884133798624 -1.7652005518678522 1.0582277554311423 -1.279955227406095 0.008814617221460302 0.3440066202330626 -1.626742608378291 -2.839142168451213
-1.267541824271844 -0.7969954807101257 -3.8335709491476715 -1.855560155034391 -0.9553158705991184 -5.365562064347742 1.103065672951502 0.4246020300466688
-0.7921240138503811 -0.4135516729411008 0.10427971982317541 2.2301527174473335 0.8958951591350777 -3.3135203706365886 0.054771731816366624 1.2629857635025412
0.14516368335093516 1.262092791774414 -0.5849292241681658 0.7352104226183929 0.922013617647612 2.818427085924393 -2.340440316074313 1.3884000047104037
1.7904556872808932 2.482347253513293 -0.4387687627817676 2.561841875486443 -1.009718840461203 -1.087388132411038 -1.9534998495050584 -3.639734298849309
-1.278829221608933 0.1877700756978378 0.2850884999959942 -0.3697950951459166 0.4263749756348253 5.1193007758398545 0.4605967322978429 -3.538038986438363
1.3478866278960058 -3.464383592853168 0.5319635979086672 -0.9193755614300302 -0.6548309942039122 0.9540272703870704 0.16847930638986586 2.339924213638672
-2.6390278379880088 2.1214858194014146 -0.46072686295265064 -3.778930295163401 -1.816215837454871 3.9582252493396783 -1.6377095435739872 1.302170258151556
2.613414949016872 1.383241842697391 0.8911384660374566 -1.6297112313089825 -0.21878643914022405 2.6655736280692297 0.7749234951875988 0.6614822755908938
-1.5927362449750786 1.0431023780089164 -1.1700982165431704 -2.4803217190892743 -1.0314998334454546 1.9285292521352448 -1.61112012036348 2.3963479640165484
2.273639985546761 3.560913518445708 -3.0002917121507706 -1.3208471709144631 3.020528048910996 -0.08447051201945302 -0.8719696617328729 0.2615341766129321
-0.41339309321954526 -0.07455572192132193 1.2560882751356381 -1.1643286808968834 2.9250102708780936 -0.9359975915325612 -2.102660454551114 3.218352226267556
-0.9755035865725205 -2.721033572988447 -1.5456279340589534 -0.0562826840206476 0.7891896899901769 1.7213044530558153 -1.74547905962646 1.3810594027215142
1.1813926672793 -2.9739229501227804 -1.3933864182994429 3.8063506469388493 -0.8975055919506071 0.374645932602012 0.7786267730431844 1.0727912173790086
1.5195965487550018 1.2345391006445758 -2.073843982783962 -0.37838180922628717 -1.7057631604249972 3.7668440462839534 1.176696338095526 -0.7309123876383673
0.3653919688816814 -3.5098917557054032 -2.1164682813891256 3.0577149766076968 2.8238850385775263 -1.777115502759013 2.0688546451066183 -0.15146283867971752
1.173303054959834 0.8220106634108713 -3.9700185522729434 0.9617730562249371 -1.30795469598441 3.5246916934694066 -0.9526856754623892 3.078657261232971
0.4271477856328326 -2.537936246006611 -3.086995533500255 -0.16570081277174245 0.831128567148934 1.886451598179603 4.855511199684278 -0.6688757822701321
3.0932273599294753 -1.827393948251316 -7.102606745022376 0.8940380881914918 0.189149320682024 -0.17171343208248213 -3.387852905200074 2.056622914706945
2.540605953345665 -0.8514425098875625 -1.037858707813204 -0.04568545213518737 0.8372342353051613 0.42283135438261654 -2.959554816015046 -1.669448518911857
0.6929462784176283 -1.0543483787213515 3.0156152832028984 3.5332894271394433 -1.1971347613887424 -0.29261835629779437 -0.4386532388912367 1.4518075465522229
-0.9360920462707122 -2.4610148753677175 0.15729054086039854 -0.06987883082141728 -0.20003689419802598 -5.681219942247644 1.0997390205924167 -1.6198650015876082
1.6107264783636712 2.639743320237923 -0.37267138110751946 0.03230578988231011 1.4736699281978494 -3.4299815515566756 2.25380629147175 0.05145396487094573
0.701618418781129 3.0373526091654512 -1.7550627564118766 1.5667818588573916 -0.7406744809649666 -0.4262791025753876 1.6181893252756923 0.44113590750607107
-5.535416952241132 -0.560394351095898 0.8452116285398844 3.033377366478801 -1.4466520662819724 -1.9923485054132335 -2.2146450342225528 -3.0258886809596763
-0.8310058628052279 1.569875458689705 1.0366599266391656 1.6492344082026014 -0.20080069109387608 -1.0478662478026528 2.0182181768274496 0.03402205995396352
0.11942417763071572 2.5710925706612713 0.7407118502714061 -3.6562795052022508 0.016140089989641056 -0.42663443048314725 2.123852367013913 -2.653956392711404
0.11126218854387541 0.2329363357806295 0.3665184803656028 -1.1829161832136452 -3.5148310836063867 2.9921941049456198 1.968901257519813 -3.5683464786364656
1.5386819144612474 -1.9346679816544052 -0.5426965939924855 -1.1182899631577856 0.9006866515051246 -0.13495016562274645 1.0156652677016038 -0.006630062583331849
-1.0282643206780953 0.393187766812623 1.977746427605356 -3.297219774752896 0.7426924316678616 0.6325243227510733 1.4411534908795127 -1.6131085936603715
1.80394354081314 -2.3718421276336557 -0.5439340477630658 -1.4042480564633955 1.19412103658083 -1.4856442778799155 -1.3973743202851436 0.12356156667333311
00000000: 6ff4 eb5d a906 ff3f ffe0 5462 0f49 d53f
00000010: ff84 53e9 447c 0040 86f6 17f0 fab2 cbbf
00000020: 846d 9149 7d48 0240 a489 bb23 758c 02c0
00000030: 9b4e cac8 79de e43f c143 54a1 c9e2 f03f
00000040: 22ee 0143 63f0 f4bf 0d75 12ef 423e fcbf
00000050: 69bd 143a 80ee f03f d0da 2055 b27a f4bf
00000060: 161f 8be5 650d 823f 328b e057 3404 d63f
00000070: 74e9 df41 2307 fabf 348a 512b 90b6 06c0
00000080: bbf4 98ef d947 f4bf 97b6 96aa fc80 e9bf
00000090: 22e1 eb3e 27ab 0ec0 6722 5ad8 5fb0 fdbf
000000a0: dd55 b296 f291 eebf 9020 dce6 5576 15c0
000000b0: c2ab ea30 28a6 f13f d766 37fe ad2c db3f
000000c0: eca2 bb75 1459 e9bf 4b3d 9f6f a177 dabf
000000d0: 08ce 4662 13b2 ba3f b32c d44e 5ad7 0140
000000e0: ee27 2453 2cab ec3f 901c d4f7 1682 0ac0
000000f0: 2f0c cb59 0a0b ac3f 7ee9 588f 3035 f43f
00000100: c292 473c b994 c23f e003 1336 8831 f43f
00000110: 92dc 087e bdb7 e2bf f660 1a02 d886 e73f
00000120: a96b c8b3 2281 ed3f 95a5 0180 238c 0640
00000130: 8d3b bec5 38b9 02c0 79f5 5fec e236 f63f
00000140: 30f0 dcdc b4a5 fc3f 783d 79e0 d8db 0340
00000150: 58dc a993 c914 dcbf 8fe6 05f4 a67e 0440
00000160: 7bf9 5ef1 ce27 f0bf 0a39 2c19 f165 f1bf
00000170: a5d7 e50e 8941 ffbf 897f 1d04 2d1e 0dc0
00000180: 0cac 3fa1 1576 f4bf 8113 258f d908 c83f
00000190: 15b4 fcd5 e33e d23f ecdd f70b b9aa d7bf
000001a0: becc 0b44 ba49 db3f 797a 8afb 297a 1440
000001b0: e646 77b7 6a7a dd3f 59ce 5562 e74d 0cc0
000001c0: 0e77 9891 f190 f53f a2d3 c0be 0eb7 0bc0
000001d0: 5cc4 f585 d805 e13f 01ad 224c 866b edbf
000001e0: 3d6a 1021 60f4 e4bf 6bbf b932 6487 ee3f
000001f0: 7ca5 7fdb ba90 c53f aa92 a52f 2ab8 0240
00000200: fd22 8ba0 ba1c 05c0 010e aa8e cdf8 0040
00000210: bc4c 3186 8c7c ddbf 36b9 7cce 3f3b 0ec0
00000220: e688 8556 380f fdbf 44ec e0ff 71aa 0f40
00000230: 32f5 1fec 0e34 fabf 625b 097b b0d5 f43f
00000240: 623d c718 46e8 0440 5081 cd32 c221 f63f
00000250: dad4 fad0 3484 ec3f e655 8615 4c13 fabf
00000260: f630 75ac 3101 ccbf 6a19 2d44 1853 0540
00000270: b172 975b 2ccc e83f 527d 91e0 dc2a e53f
00000280: 1f26 3500 d97b f9bf 9ad9 7e1e 8cb0 f03f
00000290: d092 52e8 b8b8 f2bf 1e60 d8e9 b2d7 03c0
000002a0: 8ea4 27f8 0581 f0bf aecd 347d 41db fe3f
000002b0: 3d38 2ee4 25c7 f9bf 4f4c 3a7b b82b 0340
000002c0: f668 2629 6a30 0240 6ede 0c3a c07c 0c40
000002d0: e32d f1f0 9800 08c0 c677 a1a4 3022 f5bf
000002e0: 8ec9 159c 0a2a 0840 ba94 9906 dc9f b5bf
000002f0: 60e6 87eb 2ce7 ebbf 6aaf d5d7 f9bc d03f
00000300: 634b f14d 0875 dabf 3cba 6173 1516 b3bf
00000310: bd8b e904 f018 f43f 71f3 631c 17a1 f2bf
00000320: 8815 efc8 6b66 0740 398c 9838 b1f3 edbf
00000330: c11d f7a4 3fd2 00c0 a29f b673 2fbf 0940
00000340: b3b5 2e4c 5337 efbf 626d fa3f adc4 05c0
00000350: 7413 495b e4ba f8bf fd49 667e 15d1 acbf
00000360: 5c24 9bbc 0a41 e93f a157 c589 768a fb3f
00000370: f92c 4f73 7bed fbbf eb5a 88be d118 f63f
00000380: 4c2e 5bff fbe6 f23f 38cf 9c1d 98ca 07c0
00000390: 4196 948e 4f4b f6bf b8af cdf7 6773 0e40
000003a0: 95f5 aca5 5db8 ecbf 55b9 06ef 32fa d73f
000003b0: f255 c0b1 82ea e83f 0c43 a11f 272a f13f
000003c0: 7646 8078 4450 f83f 636d 6e12 acc0 f33f
000003d0: 0e82 9883 3b97 00c0 44ce 0156 6837 d8bf
000003e0: 91f3 cb4f ce4a fbbf 0860 9f21 7f22 0e40
000003f0: 8617 178a bfd3 f23f edbc 2460 a263 e7bf
00000400: 0158 24ff 9462 d73f af09 fa20 4214 0cc0
00000410: 72b3 1cec 86ee 00c0 dc27 0845 3376 0840
00000420: 59d5 020a 5197 0640 6f08 59aa 106f fcbf
00000430: ef48 07aa 038d 0040 ab27 5861 2263 c3bf
00000440: 0d97 956c d9c5 f23f bc03 8a4e e94d ea3f
00000450: 5834 3416 99c2 0fc0 541f d549 d8c6 ee3f
00000460: 4f71 3ee7 61ed f4bf bf78 ff8e 9132 0c40
00000470: f350 6fab 667c eebf 54b5 e40e 17a1 0840
00000480: 7684 76aa 6356 db3f 8473 bf84 b14d 04c0
00000490: db40 dab6 2ab2 08c0 7d3b e329 af35 c5bf
000004a0: e3a1 d5ef 9a98 ea3f 79b1 fade e72e fe3f
000004b0: d605 c020 0b6c 1340 e8f8 3d2f 6e67 e5bf
000004c0: 88ea 6ffc edbe 0840 0e5d ca6f 013d fdbf
000004d0: 66e1 18be 1169 1cc0 7225 c5c3 f59b ec3f
000004e0: 8ee8 3181 0b36 c83f bc01 8aab b4fa c5bf
000004f0: 79f1 bb9f 521a 0bc0 d6f6 f6b6 f673 0040
00000500: e823 cd36 2953 0440 0585 cc5c 043f ebbf
00000510: 12d3 7ebb 119b f0bf 4faf a565 1564 a7bf
00000520: 8545 7773 9fca ea3f 88fd b23d ab0f db3f
00000530: 0708 4c13 2bad 07c0 2250 71a6 0fb6 fabf
00000540: 3609 76ac 9d2c e63f 652e d367 9cde f0bf
00000550: d164 d5e7 fa1f 0840 8fee 463f 2d44 0c40
00000560: 501c 91c7 7627 f3bf 0788 a057 42ba d2bf
00000570: 2ba1 d408 e512 dcbf d971 c88c 9a3a f73f
00000580: e1e8 984e 77f4 edbf 1264 2591 28b0 03c0
00000590: 9597 7bb0 1822 c43f 4d8a 0f3d 94e3 b1bf
000005a0: a976 4917 cf9a c9bf b858 75b8 91b9 16c0
000005b0: a245 79f1 8798 f13f 6c0f 5c90 f7ea f9bf
000005c0: b5f8 b520 89c5 f93f f90c f2be 311e 0540
000005d0: c3c3 8010 d9d9 d7bf 2b2d 086e 628a a03f
000005e0: bc55 2beb 2694 f73f d88d ee2a 9a70 0bc0
000005f0: 261f cb97 cb07 0240 b990 bd90 2c58 aa3f
00000600: 32f5 5d78 a873 e63f 7d49 5686 7f4c 0840
00000610: 4b77 53af bc14 fcbf 2a23 bcda 8911 f93f
00000620: e63d 17f8 9ab3 e7bf a4e3 2125 2848 dbbf
00000630: fab9 6c7d 1ae4 f93f 5d1c f519 923b dc3f
00000640: 0c66 6e57 4424 16c0 a23d 5a22 c0ee e1bf
00000650: f3e2 d841 f90b eb3f dc9f 4b5a 5b44 0840
00000660: 49f3 15a3 7c25 f7bf c3bf 8fd3 a8e0 ffbf
00000670: 98e0 d1d0 97b7 01c0 9477 f01f 0535 08c0
00000680: 040c 719b 9997 eabf 32d8 9dba 351e f93f
00000690: d8d2 1fb8 2896 f03f 7cb0 6a9e 4363 fa3f
000006a0: 3396 a148 d6b3 c9bf 6350 0e66 0fc4 f0bf
000006b0: 4855 4d92 4f25 0040 d98c b0e5 566b a13f
000006c0: f48e 4639 9592 be3f 70d4 4ffb 9891 0440
000006d0: 5e9c 9556 e9b3 e73f a307 1f78 0f40 0dc0
000006e0: 6fd8 a31a 0787 903f f773 917f fa4d dbbf
000006f0: 06db 4e4f a6fd 0040 18a5 3d7d 4d3b 05c0
00000700: f3cb 13c5 ad7b bc3f 1e2b 1d9c dbd0 cd3f
00000710: 4531 a3ed 0975 d73f eefc 0c85 39ed f2bf
00000720: ec6d 58c2 5f1e 0cc0 1434 8076 03f0 0740
00000730: 2b9d e19a 9e80 ff3f b452 143d f98b 0cc0
00000740: 73ec 58ed 709e f83f 192f dd69 66f4 febf
00000750: 6625 5b3f c55d e1bf e152 3304 84e4 f1bf
00000760: 7610 05d0 6cd2 ec3f dd40 f809 0c46 c1bf
00000770: 3262 4739 2a40 f03f 6218 74df 1f28 7bbf
00000780: 164c cf49 c573 f0bf 7a70 e905 fd29 d93f
00000790: 8b88 2570 d9a4 ff3f 2f4e e2c2 b460 0ac0
000007a0: 7a01 20eb 22c4 e73f 3a7e 04a6 a33d e43f
000007b0: f77f 7df6 f60e f73f 82af eaf4 4acf f9bf
000007c0: 4ef7 f9e6 f3dc fc3f 60b1 8b5d 88f9 02c0
000007d0: 3958 4a60 e867 e1bf a3b5 5fcf cc77 f6bf
000007e0: d848 f9a8 1e1b f33f 89bd 2fef 32c5 f7bf
000007f0: 9951 de2c a55b f6bf 9b8c e717 bba1 bf3f
