src/params/weight2.npy (npy, 188240 bytes, 1 tensors)

array (column-major) f8 [30, 784]
0	0x40079b13eeb6906c	2.9507216119255215
1	0xbfe169b2d474fcc8	-0.5441526555586274
2	0xc000be0ccd5bdd00	-2.0927978557261895
3	0x3fe7a1b70cc5bf70	0.7384906053029976
4	0xc00646b3a87744f4	-2.7845223580740086
5	0x4006bee7c433944c	2.8432154968491314
6	0xbfe6790fb77ef8f0	-0.7022780021577812
7	0x3ff8ca2dff6c74c8	1.5493602731215095
8	0x400b885fa8a21114	3.4415887045344196
9	0xbff1ddd3a9b1a9ba	-1.116656935565159
10	0xc00b78aeb8b5e2ee	-3.4339270048625314
11	0x401311185424e5c2	4.766694369079632
12	0x3ff0f823383db774	1.0605804631154259
13	0x4010c326d2b7b8e8	4.190577785933989
14	0xbfbb33d7eee62b80	-0.10625981886384572
15	0xc00166a8057f901b	-2.175125163035785
16	0xc000a8e9b7e50e7a	-2.0824770323541175
17	0xc012f1fe451861f4	-4.736321525204847
18	0xc010b8ab26e82fbe	-4.18034039299158
19	0x3ff4ffcf2395e488	1.3124534025248824
20	0xc013481b0ab319d5	-4.820415656262829
21	0x3ffb90e8b172d028	1.7228781634885397
22	0xc00fde3f68a04970	-3.983519379989211
23	0x400f5ae0d4560098	3.9193741406198335
24	0xc0077228903c0a1d	-2.930741431076298
25	0xc00e14906ccc0e32	-3.7600410938046247
26	0x40066cbdbd32356c	2.8030962735125993
27	0x3feb75c099020d20	0.8581240642965078
28	0xc0030a705e917bb1	-2.3800971401355686
29	0x40008c4f575714a0	2.068510706276882
30	0x4004b43f2d6ea330	2.5880111264599677
31	0xbfdc50a8a741c1e0	-0.4424230225913828
32	0x3ff3bf9f16f96d68	1.234282579177341
33	0xc0035d7e18595c3e	-2.4206506635923963
34	0xbfd8d8cd302630b0	-0.3882325144011345
35	0xc0124a77d6359f03	-4.572722765944266
36	0xbff0ad2d39afdeac	-1.042279458370028
37	0xc005bae6d06056bc	-2.7162605552101393
38	0xc00233524018c469	-2.27505922389587
39	0x400059a647fb9116	2.043774187435825
40	0x4006ca9fcae5b4c4	2.8489375926352256
41	0xbff8f3c774ceb344	-1.559516388205524
42	0xbfed792639f81460	-0.9210387356003018
43	0xbffc4cd295310c38	-1.7687555148884382
44	0xc00acb2783e013e9	-3.3491964628942594
45	0xc012d1d365a77208	-4.7049079783869345
46	0x40107a73c918c39c	4.119582311760407
47	0x4011005bc1720eea	4.250350020014347
48	0xbff4703b3f97b6da	-1.2774002536856899
49	0xbfeee989d69d08f0	-0.9660081092518151
50	0xc013ca7408b266c3	-4.947708259476431
51	0x3ff60c87910ef748	1.3780589739175912
52	0x400df713ce664a88	3.7456432461706903
53	0xc009dc7e5aef3f02	-3.2326628784429667
54	0xbfc92249480c8280	-0.19635883348475502
55	0xc0111ce1f849598e	-4.278205756642263
56	0xbf96c2229f2e8400	-0.022224942174606355
57	0xbfe148697b7f3b10	-0.54008936043269
58	0xc002e8991c39b43e	-2.3635732846364865
59	0x3ff5151462b236e4	1.3176463942831385
60	0xbfed63205a44e270	-0.9183503878658268
61	0xc00556b4fceac14a	-2.6673373946324874
62	0xc011ff882db8a166	-4.499542917627286
63	0xbff1e40d43ffd7fa	-1.1181767135835785
64	0xbfd8919d0e2f09e0	-0.3838875425828103
65	0x3fd2725a1ee8d8a0	0.2882294942713859
66	0x3fd75b47e377ca40	0.36494633878388427
67	0x3ff5e63559a87360	1.3687032224908862
68	0xbfe9b35a3a581f68	-0.8031436099563338
69	0x3fc47ed88f19e780	0.1601210306869767
70	0x400efb6d6faa2d70	3.8727673267182396
71	0xc0125becda4d314a	-4.589770709001025
72	0xc00532a080730b28	-2.6497201953037752
73	0x400a3ffdeb818164	3.281246032609646
74	0xc00654d29a9825ba	-2.791417320030374
75	0x40011dfd9e528ae0	2.1396438950481382
76	0x3ff17086a483f888	1.0899721552264356
77	0xc0132a6e7c7ff0d0	-4.791437096890334
78	0x4012318e00c65fb4	4.548393261058596
79	0xbff5ecdcefbdb2a2	-1.3703278889544568
80	0x3ff6f52acf1561b8	1.4348552788925257
81	0x400b9dfdef3bd040	3.4521444978836655
82	0xbff652fcadedd204	-1.395260505113698
83	0xbffa1401cbe605f0	-1.629884525755525
84	0x400b04d31948b670	3.377355763942255
85	0xc0015e4d91a95ef4	-2.1710463886082554
86	0xc003f45b5169d25f	-2.494314800302433
87	0xbfbd0e9116aec200	-0.1135035210015829
88	0xc011af3ad8443dde	-4.421122912564412
89	0x3ff946aac6b05498	1.5797527085572138
90	0x3fe4c58c3f4364a8	0.6491147266016428
91	0x4012a8f653ace814	4.665002162388209
92	0x400322bd012023be	2.391962059777568
93	0x400df4ccd3211e54	3.744531297157474
94	0x400cce57d68249e8	3.6007534750472026
95	0x3fee10be9ac593b0	0.9395440123449728
96	0x4004c78b339c147c	2.5974334747320977
97	0xbfefeefbe960c710	-0.9979228552021784
98	0xc0075a88e0b90a20	-2.919206386229476
99	0xc0114621c08a3241	-4.3184881290767985
100	0xbfe229091be421b8	-0.5675092262982195
101	0x401084f85c74b558	4.129853672622026
102	0x3fe1a0b62d3b17e0	0.5508681186117848
103	0xc00f3d659efd8a35	-3.90497898303263
104	0x3ff3c596a7239380	1.2357393769136422
105	0x3fc366f153437c40	0.15157906118017372
106	0x4000a235741062d6	2.079203516721786
107	0x4003fd09230a604e	2.498552583460003
108	0x401050ea8487e2a0	4.079019614022997
109	0x400e59d675cab3bc	3.793866081474759
110	0xc010ebc937d2ec50	-4.230259773491596
111	0xc010b335fdc128e7	-4.175010647692239
112	0xbfbb423d8e5ac0c0	-0.106479499105947
113	0xbfe58e7022163d90	-0.6736374536284746
114	0xc008289f8e5dfeb2	-3.0198355791506737
115	0xc0050f901b9c0df4	-2.632599082660585
116	0xbfeff03090271980	-0.9980700316889823
117	0xbfde14dd7ca40180	-0.47002350971163054
118	0xbfe427876402f910	-0.629825301490003
119	0xc00e86000a5953d6	-3.815429764605578
120	0x400cd4d2819d99c8	3.603917133924572
121	0xc00dfaa21a867089	-3.747379500606318
122	0xbfd6c75dfaa6bc40	-0.3559184024588298
123	0xbfd97b1be9ae0350	-0.398138979151601
124	0x3ff3cd12cfe3002c	1.2375667687010816
125	0xc00386c844c36346	-2.440811669552576
126	0x40118974bb38cf4c	4.384234357206719
127	0xbfdc4a7b9432c440	-0.44204606506815836
128	0x400b6a3177e221a8	3.426852165783391
129	0x4013996ced134570	4.899829582501624
130	0x3ff4e88a89e951e0	1.3067727458156853
131	0x4001ac619e82adc0	2.209170568812368
132	0x40021d3513b1ea90	2.264261392466615
133	0xc000fe7e7548baef	-2.124264637262392
134	0xbfe1e9b00202c1e8	-0.5597763098976971
135	0xc005cb511664b4cb	-2.7242757558329678
136	0xc00edd911c2a090a	-3.858186931641403
137	0x400608a1112d1dd4	2.7542134611028164
138	0x40119c7d50c3fd34	4.402821790659164
139	0x40127b41f9843fb8	4.620368860909302
140	0xc0110cff835f8fc0	-4.2626934554172635
141	0xc003870d4d034531	-2.44094333807211
142	0x3fd9e262764ed820	0.4044424205161494
143	0x3ff35a13294397b0	1.2094909297825147
144	0x400e454232f15358	3.7838176708122937
145	0xc00ee9dd9a11b509	-3.86419220320261
146	0xbff9550130ad95ae	-1.5832530881392404
147	0x4013a7ed3535bed8	4.913990813641895
148	0x40127f058de5226a	4.624044625387436
149	0x3ffab1d0f40d9988	1.6684121640515475
150	0x3ffe815ab17cf3d4	1.906580632508157
151	0x4003daed0be3a062	2.481897442707166
152	0xc013cf506c7457c6	-4.952455229378705
153	0x3ff4b1317aeb07f8	1.2932600785720734
154	0xbff44d88b16618f4	-1.2689291886941279
155	0x3fe017dfca776998	0.5029143289969396
156	0x4011345b54fdbdc0	4.3011296539183945
157	0x40054a94244e5c70	2.6614153705991654
158	0xbffdc23b6ddcc2fa	-1.859919957303815
159	0x3feec26e1e82fb10	0.9612341495447669
160	0xbfecafd03c6968c8	-0.8964615993420688
161	0xc0130e3a5f1ad1c7	-4.763894544612817
162	0x400c27b91a4675d8	3.5193960240128312
163	0x400112de857487ea	2.1342134882151997
164	0xc01159c74466ba10	-4.337674206514308
165	0x4010e04c60b8af78	4.219041358253769
166	0x3fe5399db5288520	0.6632832086799318
167	0x40015528af725378	2.166581507374243
168	0x400c14b28647147c	3.5101061335031414
169	0xc013fbf3e8b0ea23	-4.996047626302729
170	0xc006ed3d76dbaa2b	-2.8658398900781967
171	0xbff03fa2df6979c8	-1.015536186888868
172	0xc00ddae348a11183	-3.731878821769159
173	0xc0056962353c100c	-2.6764568480448414
174	0xc0080997e09df73f	-3.0046842144210184
175	0xc013db19779fab3f	-4.963964337463778
176	0xbffbe2d27e2a0cd4	-1.7428765228549326
177	0xbfeba9da3be4a530	-0.8644839448726653
178	0xc008be258e6e9288	-3.092845070599939
179	0xc001f5af6914c2d6	-2.2449634751759318
180	0x3fd3e84fde207860	0.31105419818948654
181	0xbfe8e19041f8e258	-0.7775346077460865
182	0x400b499a5558e8b0	3.4109388988263944
183	0xc0103a02ecaa3780	-4.056651780976495
184	0x3fee3add28fd92b0	0.9446855354877552
185	0x40014ed02c992d88	2.1634829982992336
186	0x40100070a4995918	4.0004296988102155
187	0xc00c5a76fce5af5d	-3.544172263869696
188	0x40119d7df3c0d9f6	4.403800781865803
189	0xc0125a05d8a223cc	-4.587912926574926
190	0x4013af781ac9adb0	4.921356600341298
191	0x3ff3e61df548aa98	1.243680914058734
192	0x3ffca2d636c6c4d8	1.7897550716118555
193	0x3fe861d3140ab818	0.7619414702837757
194	0xbfef08e51419eea0	-0.9698357956508126
195	0xc0085771b52a3bf9	-3.042697348929775
196	0xbff2f47d2f459d32	-1.1846896978912125
197	0xbfe5db2ae6df6f68	-0.6830038556322338
198	0x401347ba8f58aefe	4.82004760721952
199	0xc013930587ce140a	-4.893575784638424
200	0xc0077e977c81d9be	-2.9368123747946973
201	0x3feceaf5ddde5b30	0.903681691491192
202	0xbf9202363fb64700	-0.017586562765763425
203	0x400bcfa8c606cd00	3.4763961287331995
204	0xc007a741b2fc1e37	-2.9566682799520794
205	0xc002a8cf54de8f49	-2.3324267034931023
206	0xc0136b7d9c1a6bb4	-4.854971350777237
207	0xbffd71771e662ee2	-1.8402014911143216
208	0x400236a8e62ed50c	2.2766893370668466
209	0x4010d9b37c95bf88	4.2125987497710256
210	0x4011425b48322504	4.314801338253577
211	0x4013ff0cdc447238	4.999072496106741
212	0xc010100f92c5972c	-4.0156844075298
213	0x4002ab3c6eb67efc	2.333611359543168
214	0x3fc5bfd9198ca8c0	0.16991723773509726
215	0xc001b3d7b0050099	-2.212813735153827
216	0xc011d9138d4c8d7a	-4.4619886472677255
217	0xbfde1e069fbe8e60	-0.4705826339725032
218	0x40001164d5c3658a	2.008493108773739
219	0xc012e005e03eeda5	-4.718772415009345
220	0x3ffa2ec1e4ea90e0	1.6364153806726378
221	0x3fed510e6fc91da0	0.9161445792496359
222	0x3ffe652bb3d9f49c	1.899699881119239
223	0x400d95cb4366c944	3.698141600202833
224	0xbff09a1730975c24	-1.0376197717757885
225	0xc012cc0f1c320b70	-4.699276390604481
226	0x3ff115c1d71ec854	1.0678118136534254
227	0xbff7983a0a35d7c2	-1.4746647261467705
228	0xc0123d4eafa7eef6	-4.5598704763649405
229	0xc0139527a1132928	-4.895658985895615
230	0xc01383424071f647	-4.87818241782731
231	0x3ff0377fa69e46d8	1.0135494717146027
232	0xbff35fca58ab7f80	-1.2108863319080854
233	0xc0069c714a1b6426	-2.826387957535661
234	0xc009b12ea13f2fa6	-3.211514720669544
235	0xc000e302214ab5ca	-2.110843906490776
236	0x3fe76885f16c9710	0.7315091815296189
237	0xbff8fb60d9bdade6	-1.5613716607575667
238	0x401253268fc81296	4.581201788507903
239	0xc0106e90c5321255	-4.1079741298495565
240	0x4008383ce403193c	3.027459889740525
241	0xbfe7e35813fbe558	-0.7465019598304634
242	0xbff8fa27206d129e	-1.5610724703448464
243	0xc00aea3dde36b151	-3.3643758163872595
244	0x40029dcb9686ac1a	2.3270484695290294
245	0xc00ce5b030dc0f04	-3.6121524636417934
246	0xc011427cb4ba7a91	-4.314928840524446
247	0x3fec25d6d9581d30	0.8796190495494667
248	0xc01171b498a87904	-4.361040482790717
249	0x4013b5a393b07036	4.9273818088950545
250	0xbffadd23bfd0d786	-1.6789891712955707
251	0x400b1afba1551a30	3.388175259027115
252	0x401256ede1ad5490	4.584891821102374
253	0x3ff6ee74727f5c9c	1.4332165215071546
254	0xc0073c93db6ba8d3	-2.904578890059477
255	0xc0102e4697cc27a9	-4.0451911657673145
