src/params/weight2.npy (npy, 100432 bytes, 1 tensors)

array (column-major) f8 [16, 784]
00000000: 884b e52a 3937 d3bf 14d6 2188 19c1 e5bf
00000010: f0fd 16c6 e4e1 ebbf c0aa cb59 8edb c5bf
00000020: 00f2 f417 4cac c8bf 80a4 e115 02a0 be3f
00000030: 94f3 121b 1497 eabf c02e 32f0 39c3 e63f
00000040: f894 adcd a770 e4bf 08bc f728 d467 eb3f
00000050: 7826 1387 bbc0 d23f 406e 5497 57bd e5bf
00000060: f86e a98b d895 d5bf 101d a5d1 9990 d73f
00000070: f8de 30cd 07cc ef3f 4066 acc9 f7c4 e53f
00000080: 68e4 7d95 8a55 e6bf 40e7 0dd5 4a18 de3f
00000090: c02c 10db 9087 ef3f 4031 b75c 5be0 eb3f
000000a0: 9ce7 dc7e 24e7 e1bf 4088 5e4e 1489 c1bf
000000b0: f020 0f2a cdc4 c7bf 9cea aba1 f359 e53f
000000c0: 201b e4ce 02ee ed3f a0fa 7807 c7df b93f
000000d0: 6000 585b a3f4 b8bf e006 9db3 648a de3f
000000e0: 302f 1983 732f de3f 0000 d3e0 4692 18bf
000000f0: f80c 2692 b827 ee3f 84a4 f6b2 732c ea3f
00000100: 60eb 67ad 7aa7 ddbf a0d3 201e d3d9 e9bf
00000110: 848d 2ba4 2203 e5bf 7027 314f 9a22 e4bf
00000120: 4c64 9517 a0b2 edbf 8c46 0c80 5642 eebf
00000130: 18ab 0dd5 9b15 dfbf a0b8 b93f 2aa5 c43f
00000140: a0de b9fb 6f30 c4bf 748f e1bd f432 ecbf
00000150: b083 4e7f 063d e4bf d83f 7b5d baf8 d6bf
00000160: e016 78cd 5ad9 d7bf 7c6a 6dba 70e1 e23f
00000170: 489d 9c8f c03a d93f 1021 22a6 6b08 d43f
00000180: 10b3 a554 363b c8bf bc1d a591 9896 e33f
00000190: c0a6 65cd e2e8 b5bf f864 cda3 f0ac e2bf
000001a0: e813 59bd 9adf d33f 5ca3 1fde 225c ec3f
000001b0: e0ae 562f 05f3 ecbf 00ac 56ca 4195 793f
000001c0: 68c2 074b 8611 d73f 604a 29c7 ebb4 b8bf
000001d0: 08e1 7193 ba9b e03f 38ef 474d cb4e d83f
000001e0: 0c8d 3518 8c33 e23f 4081 67ac f22e a6bf
000001f0: c054 bc52 373c d3bf e072 9983 eaab c43f
00000200: 84d3 bc4e 6a6b e33f 8047 75c8 c7ba bfbf
00000210: b09d 84b6 c6a2 db3f 280d ab31 ad70 e13f
00000220: 58bb 955a f56b e0bf f853 16f7 cdbe d9bf
00000230: e090 50f6 864d e53f 048b da75 a55e e13f
00000240: 6076 12b9 74ae c53f 48f7 e01d d225 d0bf
00000250: a0ad e908 7d92 b4bf 28be dc39 9119 e3bf
00000260: a82c ec4e 3719 e93f 84a5 2967 03a7 ea3f
00000270: b041 8296 12f1 e73f b0af 8ab8 f070 cf3f
00000280: 4859 da2f aca4 e23f 4082 e621 9ab8 c53f
00000290: 8ced 0d40 ce6f e2bf 200e fcf3 53a7 efbf
000002a0: 6cfe 9782 775d e53f a07c 40b6 59c7 df3f
000002b0: 7cbb 5849 18e5 ed3f 78e0 48f2 dfef ee3f
000002c0: 0080 5a2c 9638 af3f 0090 4d7f 3ddf db3f
000002d0: a42a 5ece 0809 ec3f d098 4c0e 5a18 e8bf
000002e0: 1066 f5e7 3839 d7bf 88e8 6b14 2788 ed3f
000002f0: 40c5 d57b 6d6e bb3f e859 a196 30cd e13f
00000300: 08d0 6ed4 3338 d3bf 48ba 5e27 44d3 e03f
00000310: 80b3 f691 1831 b1bf 78c4 e848 bc90 de3f
00000320: 3029 b1e1 6b2a c3bf 6476 b851 12cc e63f
00000330: 089c 6df9 5478 d73f 782a 04a2 b437 e6bf
00000340: a017 118b 15ef e43f b83d 5fd9 3677 e5bf
00000350: 9078 28f6 35db efbf 988f a07e 1384 e23f
00000360: c44a e30e b9d8 eabf 4013 f311 6067 c1bf
00000370: 94c7 3217 bc43 e93f e000 1482 eb6b ccbf
00000380: 6044 f131 3c9d ed3f 807e 8e72 be4a a5bf
00000390: 1821 0df4 8d87 d63f f0be dd28 2623 c03f
000003a0: 98f3 38b0 4f96 e53f 1cb0 8e63 5e4d e93f
000003b0: d0c9 b502 b334 ebbf c816 6520 cf39 e6bf
000003c0: 14d0 7671 c69a e7bf 44bd b461 13a5 e03f
000003d0: 9067 b295 a4b4 d53f 704b ee8a 5c38 e93f
000003e0: 3050 944f bdb4 ee3f 5c41 3b2f 7dff e93f
000003f0: 1c1c 8cb0 50b7 efbf a028 6069 205b ef3f
00000400: 6835 90df cd32 e1bf 0076 89ff c622 81bf
00000410: 68fa 0f71 9c3b db3f 18d2 2920 0447 e5bf
00000420: 0076 3f85 eb43 a1bf f490 db10 6ffb e43f
00000430: 608f cdb1 3b7b d23f f8c2 f79c e473 e03f
00000440: 106c dee2 52c3 c53f 88e4 b970 64cb e8bf
00000450: 1017 206e 3a3b de3f 48dc 914f e60b d9bf
00000460: 08f8 0238 383b d53f 3c66 63d5 1930 ecbf
00000470: 10fd 9d9d 0f99 edbf f896 56aa 602e e33f
00000480: 00cc f61c 3b94 613f 70c6 5186 0faf e1bf
00000490: 10c4 f4ed ea34 ecbf c062 1728 688c e63f
000004a0: 48a8 a064 3e3b d73f c009 a822 386b ca3f
000004b0: a882 8133 3176 dabf c868 dabb 5dd6 dbbf
000004c0: 00f6 9309 c0e3 d5bf e041 9964 c009 cb3f
000004d0: d892 da39 122f d23f b0c2 a825 436a ed3f
000004e0: e09b 71c4 f818 eb3f e0c6 cccf e83e efbf
000004f0: c035 20e2 9827 cebf b413 f1de 647a ecbf
00000500: 9098 42f7 8bf3 d93f a8d7 0764 7126 e83f
00000510: 18c8 e779 4229 d23f 60ce 8134 1914 babf
00000520: f4ed 4198 813d eb3f ec8c 96b2 d90a e5bf
00000530: 4c6c 4c9e 573f eebf 5053 a538 0d5a e23f
00000540: e4ad 040c 7118 e83f 8055 466c 77b6 cf3f
00000550: e864 94d0 246a d3bf 14d9 5356 a4bf ed3f
00000560: 98a0 bb9e 1ff5 dd3f 9803 2187 4fc8 ec3f
00000570: 809c c705 a73d ec3f f04a 1048 8aa1 cabf
00000580: 8896 0761 cb10 eabf 0cbb 83b4 f939 e6bf
00000590: 5058 63c8 637c d63f 48bf d75b ee0b d8bf
000005a0: 8818 8941 53f2 ebbf 040e 87b7 b800 e43f
000005b0: 582f 7b47 6f06 d7bf 9816 23c4 786a d93f
000005c0: b0fd 7a32 5d22 de3f 2855 2679 6e35 d53f
000005d0: 385d 1075 2c0c ed3f 64d6 53f7 4d8f e4bf
000005e0: d030 961a 3880 c33f d01e 109c 6fb6 c2bf
000005f0: 6cb9 8c4d c213 e33f 1461 1420 a4d7 e5bf
00000600: 4482 2c7b 4ae2 bd3f 03d5 3973 06aa 9f3f
00000610: c854 7cc8 24ba c3bf 9ba8 7f2c 548a e9bf
00000620: 23da 6034 22b5 e63f 692a 2406 376e e63f
00000630: a0c1 87ab 529f d13f 0f52 8968 6703 d23f
00000640: 0c65 a8d4 8bc3 e8bf f496 afab 1d9a ddbf
00000650: a919 79c6 6967 eb3f 35b5 27af 45d4 e83f
00000660: 4296 0bce f3cc ec3f 0c36 873d 35de d63f
00000670: e56e dcc6 884f e03f 0ed2 98c5 9191 e6bf
00000680: 2c89 5080 3482 863f 9380 a358 20ca e9bf
00000690: f8de ddd1 1d54 c83f fd4d 50ef 2fba ccbf
000006a0: a656 9408 bbd6 e2bf ce3f cc52 9270 d3bf
000006b0: 301f 2063 e7d7 74bf f876 3a4c ae0f ea3f
000006c0: 378a 5856 960c e23f 1641 42fb 87ae cbbf
000006d0: 3bf1 ffd4 6441 dd3f 6a1f b32b 5cda efbf
000006e0: aad1 0eaf 37c8 da3f de7e a4e2 e18a e2bf
000006f0: b07a 2a8a b5e3 e2bf ac43 32b9 b951 eb3f
00000700: 7fa9 165f 1152 ee3f 818f 9189 dae1 e93f
00000710: d4ad 5cde 0469 ea3f e21c 986f 7615 e33f
00000720: 6691 bedd b80b ea3f 7fa7 c3ce 02bb c23f
00000730: 63ee dafb 8fcf ec3f d35d c4ff 5d55 eb3f
00000740: 1b2b a014 46a6 d93f 4987 7e98 547c ea3f
00000750: bcad 9ed4 ce53 ca3f 29dd e54a eeae e83f
00000760: 3ab1 84c3 0a41 e93f 1b79 21f9 1d34 e4bf
00000770: eb23 73f3 056e ebbf 015a 05a7 d8b4 90bf
00000780: 71a8 e512 cf31 edbf b78d a942 7681 ea3f
00000790: 0115 0ea4 10e0 b8bf 8d1a 0aba 1f53 cfbf
000007a0: 1272 bea4 9e4e b9bf ebe7 84e3 9495 e3bf
000007b0: 11cc 0d35 f794 e0bf 4887 4017 0239 e3bf
000007c0: df14 9312 d969 edbf 45f1 6aba 5887 d8bf
000007d0: 9c73 4a60 ddd6 ea3f 207b e220 91c1 df3f
000007e0: 025c 17c8 24b9 ef3f afa9 a7ca 71fe c93f
000007f0: 7a6f 93e4 31f3 c0bf d40a a8d9 ebd2 e5bf
-0.30024556340247743 -0.6798217448073864 -0.8713249081555983 -0.17076281914281388 -0.1927580944992684 0.1196290305539538 -0.8309422043599732 0.71133133805548
-0.6387518899106501 0.8564244079733507 0.29301346007250784 -0.6793630557689951 -0.3372708667645692 0.36820073578970014 0.9936560638079461 0.680293935674122
-0.6979420585404457 0.4702326851471419 0.9852985647752561 0.8711373148776502 -0.5594656446257775 -0.13699582888244954 -0.18569340280215085 0.6672304303786691
0.9353040734139064 0.10107082302509207 -0.09748288135597383 0.4771968606984114 0.471646192575224 -9.373242956467465e-05 0.9423487524476561 0.8179262633685913
-0.4633471196572625 -0.8078399265710807 -0.6566327291915717 -0.6292239710539729 -0.9280548534981192 -0.9455978871285011 -0.48569389158244425 0.1612904368552721
-0.15772819320021814 -0.8812202175727024 -0.6324493872126506 -0.358931151667091 -0.37264127793637947 0.5900195733223224 0.39421094917857546 0.3130139467616724
-0.18930701382796444 0.6121332974079716 -0.08558480753495257 -0.5836108397735691 0.31052273264896124 0.8862470949507997 -0.9046655582983156 0.006245858186427533
0.36044461562327124 -0.09651063549362382 0.5190098647863417 0.37980921313259186 0.5687923882327666 -0.04332693438095925 -0.3005502994504461 0.16149646211388013
0.6068622148364828 -0.12394379276272893 0.43181007217432477 0.5450044603425441 -0.5131785172687655 -0.40227078561412055 0.6657137690386001 0.5428035070256958
0.16938647305225896 -0.2523083965096373 -0.08036023585889618 -0.5968710069773282 0.784328130860918 0.8328873648544435 0.7481778087258615 0.24563416491343792
0.5826016363742292 0.16969610839170635 -0.5761481524527183 -0.9891757741283449 0.6676595259340963 0.4965423850826003 0.9342156822730057 0.9667815906641541
0.06097859660553695 0.4355005019372129 0.8761028318998183 -0.7529726294785863 -0.3628675713749496 0.9228701971872093 0.10715374253574783 0.5562975828168506
-0.30030532594105397 0.5257893341966531 -0.06715539516035385 0.47758395309489954 -0.14973209877127536 0.7124110790352458 0.36671947820872264 -0.6942999996548016
0.6541850772998608 -0.6708025212810105 -0.9955091293120564 0.5786225770175291 -0.838955430105067 -0.13596726299706496 0.7895183995335509 -0.2220434556147728
0.9254437423170536 -0.04158587597271168 0.35202359040387554 0.12607266421718277 0.6745985452504213 0.7906944221954322 -0.8501830151492928 -0.694556773444412
-0.737643453225703 0.520150843460137 0.3391505681880682 0.7881300652974073 0.959562926700988 0.8124376223077365 -0.9911273430051355 0.9798738535039497
-0.5374516836615557 -0.008367113755578082 0.42551337281466894 -0.6649189594450631 -0.033721313491451355 0.6556926087619375 0.28877155650683584 0.5141470971849165
0.17002330854015257 -0.7748281671221244 0.47236500505856416 -0.39135129709706407 0.33173947782404456 -0.8808716933955973 -0.9249342039546793 0.599411328021886
0.0021458773187190694 -0.5526197074343155 -0.881459679372826 0.7046395094904128 0.3629909498873798 0.2063970727177331 -0.4134638789164833 -0.4349588713172463
-0.3420257657561194 0.21123509323162093 0.28412299775872674 0.9192214713603644 0.8467983090202971 -0.9764293726531967 -0.23558341065692723 -0.8899406771021092
0.4054899134301957 0.7546927407954529 0.28376829056571884 -0.10186917812262086 0.8512580846576712 -0.6575745094345655 -0.945232209374248 0.5734926325190859
0.7529835924846648 0.24775593554356234 -0.303353503886298 0.9296437917790024 0.46808615208875315 0.8994519843328019 0.8825259316335092 -0.208054814517332
-0.8145501036749048 -0.6945770764994861 0.3513421494402609 -0.3757282158758142 -0.873330715178569 0.6250880798838243 -0.35976774197182726 0.39712351945886715
0.4708474152539237 0.33138620215443604 0.9077360426335082 -0.6424932318320313 0.15235043810060356 -0.14619250412237372 0.596161986793772 -0.6825733782343684
0.11673417575048811 0.03092203214915391 -0.15411815442408838 -0.7981358403315143 0.7096110365881184 0.7009539718577119 0.2753492999172753 0.28145775993951444
-0.7738703874084947 -0.46253148809624567 0.856373679773971 0.7759121342657297 0.9000185989686502 0.3573124981747646 0.5097087749486177 -0.7052697047534495
0.010990533986902827 -0.805923627016471 0.19006703135868697 -0.22443198380697985 -0.5887122314040496 -0.30374582372405434 -0.0050887144625518105 0.8144141663394455
0.5640365301554259 -0.21626376884933823 0.45711632538565866 -0.9954052785405854 0.41847030730721235 -0.5794534136402623 -0.5902965258172426 0.8537262551418414
0.9475180489728671 0.8088200270544662 0.8253197043426845 0.596369951207546 0.8139309245057518 0.14633212181007235 0.9003372115179896 0.8541707988214803
0.4007735444471778 0.8276770571139674 0.20568261510685015 0.7713538611268734 0.7891897028653496 -0.6313619485697787 -0.8571805720213183 -0.01631487388052655
-0.9123301858028424 0.8283034612654124 -0.09716896062134951 -0.24472424110372906 -0.09885589143818432 -0.6120094722493808 -0.5181842838486564 -0.600709004797161
-0.9191708910736017 -0.3832609005437642 0.8387286072426039 0.49618938647647504 0.9913505466491872 0.20307752986202618 -0.13242171917852003 -0.6819972277738438
