src/params/weight2.npy (npy, 188240 bytes, 1 tensors)

array (column-major) f8 [30, 784]
1.434277357354783 -4.948397037634518 -3.8517220918539397 -3.486587559166201 3.835067002012229 -2.9946068461652153 2.7338055407394046 1.2124947682988747
-1.0099908269559976 -4.169114488430516 3.0218607506198385 -0.24078673188924604 -2.251692379907817 -4.885834594954819 0.2453677592145347 0.7267810950184135
1.33168273649654 -3.661610220973548 0.9197140905941765 -1.3649706085541458 -2.693782129635842 3.4633383724902274 -4.004529083646804 1.4800504472798277
1.6263021243060454 -4.553925189462293 1.4594293181391205 -3.1923526071122432 -3.07499981543218 -1.396438708895127 -1.0953148975176763 0.31293595613650815
1.342238914601774 -1.3102548731322239 -0.8406912833685753 -1.874893472094028 -4.913379379650234 3.683353721834992 3.1008322343614108 -3.164422161644753
2.3979435867267167 -1.5327244580492527 3.171144174185578 1.148695476007764 -4.615048729122078 4.302715583367508 2.4797782207269474 1.0507276834614228
-0.22896604313173974 3.359912296268588 4.556632858775924 2.782130209247633 2.9342832953571163 -2.09016022140716 -3.860996597581272 4.953056857967935
3.233305077122452 -0.1567396644233483 4.134528731859344 2.9352001669478467 1.0846961679672962 3.3348822683486006 3.6393332487060377 -4.443701617148525
2.9249791427104217 1.393156766308838 -2.6454232669862043 1.3194721092173474 2.934538560601487 -0.947783320358873 1.4537157466965915 1.8758129695964865
-0.9909834581876797 0.5162102426644406 2.3878229880325508 -1.2181115508922757 1.3011848695429151 2.6702316024035095 -2.3150778833384433 0.8493385379134484
1.5197442606424456 -4.295444485304132 4.576160006340675 -3.194127830993805 4.114012883299463 0.2827788138419507 -2.218340896040698 1.9617736527635117
-1.1123518768974594 3.487769502743973 -2.3008085860089222 -0.9625859857354602 4.225561395990571 0.20852508694104976 -0.8057563295605075 2.418444622727618
-1.9505804568586926 -0.17406684338003586 0.47342434037416403 2.6938197576702727 1.26237573483436 -3.896978990286273 -0.029719793526455263 -4.824105947858845
-0.725721727159776 -4.057623331823297 4.546920252168292 0.8054995928531472 -3.9601084746834836 -3.296013042193233 -2.0442536361501817 1.8901358568604287
-2.916566489913077 0.8483073327218076 3.3872423406833256 -0.5294951227272655 -2.562429563136208 -1.0452523071494402 -4.487136413436826 -2.5930558666465653
0.41952338700428093 -2.980530273311479 -4.5143216618305075 -3.426785108575361 -2.5428657525978715 2.0011815367088603 -1.361622195429697 4.742429952897197
-0.1170912356063658 -2.2991263537728 3.851132561545489 1.8939463642205663 -2.706493318637906 -3.166774097616132 0.3648242655403493 3.6572018547718237
-4.175815419568458 1.9345224118236963 1.1208941657858436 -3.552572440091828 -0.04425235797927307 -2.669182776166563 -3.126141762100756 -0.8463881915659073
-2.6839420940857583 3.5060630492790814 -4.7898219034177 0.9468462433079283 -4.322175293268384 -3.4271578477698394 -3.0563881384561786 0.8191879741301307
-1.4195697739847102 -1.8886150291583936 -4.035655878804807 -1.3641459914542908 1.3339930380985994 -2.9386049654110225 -3.110816276916639 3.1348884367987377
-2.2789597795506134 -4.36751681741735 -2.9253961563561437 2.7936190575865227 4.323882248328051 4.174103484638689 0.5495215249186503 -4.795383864706501
-4.845909681219922 2.5981105585818725 -0.9867963039324597 3.3991622467755356 -3.6346027805033154 -2.940255543747945 -2.1173702858205967 -1.0496226817787546
-4.436559282388037 3.577500413708716 -4.5347869672700085 4.97762954310179 4.540325167145152 -1.846921811119966 2.9049683132456616 4.490342548970482
3.527965908749433 -4.45725966462301 -2.009347896633895 -0.71776577095733 1.4295259274688803 -0.8019670520195188 1.5679333140808005 -1.1242623612373337
4.32024499010117 -0.9017319400633639 -3.4525027358661053 1.234627551730707 4.7146524471749345 2.0602939707294388 1.195928380429942 4.699251986136449
-2.66327343354678 1.326710409154705 2.9516662127508315 -3.7776373004124753 -4.504952779690818 2.8211163377160915 -2.341717473151055 -4.666467070083442
-0.09343086677185308 0.8777272992678364 -4.312182147037602 0.956981957290159 -1.4936887012705458 1.9851915460600118 -2.512240621042623 -1.5668859856059125
-0.8957667682060784 -0.9374402968329871 2.756362957497971 -0.6192953613218304 2.7314652421245107 3.2219788909801004 2.996702264982545 -2.2247948886604374
4.164814136139709 0.7471989830521402 0.045629278577514754 -4.973194103394825 1.682753256891207 -2.02955553427723 2.1082808453382684 4.33463293191954
-2.0611283573077577 -1.9723844521076717 -3.333866354429682 -0.544681633855717 1.5762117789046126 -1.8632881934990864 4.369715084779028 2.493441081301788
1.0664586739690485 3.761705671798321 4.9762813393141485 -4.672700036871076 4.277112694958642 -4.665314513546002 2.6146034378604055 1.4697465668323435
-3.4000381759049603 -2.017715740116013 1.4926570001668988 -2.2456745634881314 -4.824555616591373 -2.0649393866525156 -1.8065475135797504 1.3856660179440539
00000000: acb6 73d0 ccf2 f63f dc0d d197 28cb 13c0
00000010: d758 0eac 53d0 0ec0 0b13 aa04 88e4 0bc0
00000020: ece3 bc9b 37ae 0e40 2842 256f f4f4 07c0
00000030: 72cb 7870 d5de 0540 e0a2 06ea 6066 f33f
00000040: 7a93 3024 ec28 f0bf f85a 3459 2cad 10c0
00000050: 64d3 4754 c52c 0840 4034 6381 19d2 cebf
00000060: 13da 624b 7703 02c0 44fc 5b39 188b 13c0
00000070: 80dc a8f2 3568 cf3f a090 4e6d ca41 e73f
00000080: 2468 9e8e 924e f53f eb3e ae4c fa4a 0dc0
00000090: 40b7 983e 4c6e ed3f 42dc bb6b ebd6 f5bf
000000a0: 70ae 2aa5 dd8c 05c0 809e a6bf eab4 0b40
000000b0: 5393 a845 a304 10c0 d8f3 b760 49ae f73f
000000c0: e8f4 5460 5505 fa3f 43af 342a 3837 12c0
000000d0: 98b2 838e d259 f73f 85c7 e629 f089 09c0
000000e0: e3e5 d380 9999 08c0 262b 991d d057 f6bf
000000f0: 688f fae9 6886 f1bf a052 5688 2407 d43f
00000100: 6821 1a83 cf79 f53f c470 58d0 cdf6 f4bf
00000110: a835 0368 f1e6 eabf 380b 224c 90ff fdbf
00000120: 0cc1 91ec 4ca7 13c0 a40c f727 8277 0d40
00000130: 0cb8 6721 81ce 0840 c503 f890 bc50 09c0
00000140: 4c27 150c fd2e 0340 249d d114 0a86 f8bf
00000150: 5039 38d6 805e 0940 9443 e881 0e61 f23f
00000160: 4e1a 8455 cf75 12c0 4836 ea12 fb35 1140
00000170: acd7 baf6 95d6 0340 987f d7d4 c7cf f03f
00000180: c09a 9261 c24e cdbf fc36 afb2 19e1 0a40
00000190: 4c49 d1f6 fd39 1240 3075 af7b cd41 0640
000001a0: 3a10 3685 6979 0740 40c0 12ec a5b8 00c0
000001b0: 75a1 242f 52e3 0ec0 9ecd 1023 eecf 1340
000001c0: 80da 610d cfdd 0940 0097 579a 0b10 c4bf
000001d0: 3cd5 5ee6 c189 1040 b609 a239 4a7b 0740
000001e0: c841 785e ea5a f13f 508a 34c1 d6ad 0a40
000001f0: c080 13c0 5a1d 0d40 4657 7bb7 59c6 11c0
00000200: 1463 fb76 5b66 0740 10f6 d7bf 5e4a f63f
00000210: 0b44 7eac d329 05c0 9029 51c9 8e1c f53f
00000220: 0c13 555a ef79 0740 4057 94af 3d54 eebf
00000230: 90df 5b71 6b42 f73f d845 dd75 5403 fe3f
00000240: d060 f9f0 22b6 efbf f053 c357 cb84 e03f
00000250: fae4 51f0 421a 0340 0665 9f89 627d f3bf
00000260: 20ca cb39 a7d1 f43f cc8c e862 a25c 0540
00000270: 590d a58d 4785 02c0 5043 7203 c82d eb3f
00000280: 58e3 9b5b df50 f83f c1a8 c8ff 882e 11c0
00000290: 44fc 81e3 fc4d 1240 fbe4 6ae4 928d 09c0
000002a0: 1c60 14cb bf74 1040 80fb 5c4f 0c19 d23f
000002b0: 3afe fe82 29bf 01c0 4061 0cc5 6c63 ff3f
000002c0: 6eb3 4e7b 31cc f1bf 202c 72b2 f3e6 0b40
000002d0: 561d fa54 0e68 02c0 904b 0a20 81cd eebf
000002e0: 1414 0c91 f9e6 1040 c057 6736 f3b0 ca3f
000002f0: 703c 807f c1c8 e9bf dc6a 8e7e f958 0340
00000300: 14cc 66da 9335 ffbf 804e d183 d247 c6bf
00000310: e064 c29a 954c de3f 8819 845f f18c 0540
00000320: 6c0a 06e6 b032 f43f 43d4 2352 032d 0fc0
00000330: 00c2 f594 dd6e 9ebf a6f8 f96d e24b 13c0
00000340: 60bb 84c5 1c39 e7bf a4ab 569c 013b 10c0
00000350: e054 d2dc 0b30 1240 d0db 0715 a7c6 e93f
00000360: 2806 1b5a 4dae 0fc0 7646 fb15 3c5e 0ac0
00000370: f2f3 7fa6 a15a 00c0 5066 a318 ff3d fe3f
00000380: 194a d6cf 2055 07c0 b0e8 5f6b 5525 eb3f
00000390: 18e4 2683 1219 0b40 e029 70c1 9ff1 e0bf
000003a0: e5c9 1f12 db7f 04c0 0268 b47b 5ab9 f0bf
000003b0: 8c9b 51e3 d3f2 11c0 5f95 ff12 94be 04c0
000003c0: 60cb c59e 78d9 da3f cee2 8441 20d8 07c0
000003d0: e0be 7456 aa0e 12c0 0402 9e4f 0e6a 0bc0
000003e0: d535 ecff c957 04c0 4a30 2c77 6b02 0040
000003f0: 640d ee5a 34c9 f5bf a00e bd8e 3ff8 1240
00000400: c0db 93f3 b0f9 bdbf 739b 965b 9c64 02c0
00000410: 4c30 a396 1ecf 0e40 7849 ebb3 9a4d fe3f
00000420: 7523 13f8 e5a6 05c0 4ba6 78a8 8d55 09c0
00000430: 001d 52e0 4759 d73f 98ec c80b f341 0d40
00000440: 58b7 14f5 08b4 10c0 d096 c2c5 cdf3 fe3f
00000450: 083d 85b8 2eef f13f 2dec 7619 ab6b 0cc0
00000460: 006f 95bc 3ea8 a6bf 7c74 d57f 7c5a 05c0
00000470: 7b0f b79c 5602 09c0 80e0 4fb0 9c15 ebbf
00000480: 11a6 f3a1 b678 05c0 08f1 b2c8 6a0c 0c40
00000490: bc5f b312 c728 13c0 e822 2b7e 904c ee3f
000004a0: edaa f051 e849 11c0 ac35 d3bb d16a 0bc0
000004b0: b169 d49f 7b73 08c0 004b c5b2 c936 ea3f
000004c0: 9878 9acb 8eb6 f6bf 9c82 8f64 c437 febf
000004d0: d481 85f9 8224 10c0 3440 44bf 8ad3 f5bf
000004e0: 489a 7b15 0958 f53f ad6d f251 4382 07c0
000004f0: 85c5 e9a4 f3e2 08c0 ec45 8563 4014 0940
00000500: d58d d043 4f3b 02c0 6c26 1e54 5678 11c0
00000510: 6126 9b19 3667 07c0 1a88 cef2 5459 0640
00000520: b44b c1c9 a74b 1140 3c92 122f 48b2 1040
00000530: 2828 3f2a ae95 e13f d8b8 9a1b 792e 13c0
00000540: 60d6 c025 3662 13c0 f002 4430 eec8 0440
00000550: d083 a6d7 d593 efbf 2897 ddf9 7b31 0b40
00000560: 02b3 619f aa13 0dc0 b03d d2b2 a485 07c0
00000570: 1cf9 18d5 5ff0 00c0 b412 3627 41cb f0bf
00000580: c67c 8265 09bf 11c0 7871 7289 b89e 0c40
00000590: c001 db31 9f23 12c0 06e7 0cb8 17e9 1340
000005a0: 6c60 2800 4b29 1240 3078 90e2 fd8c fdbf
000005b0: 8273 ea06 603d 0740 78a9 6e5b 1cf6 1140
000005c0: 98da bb30 4639 0c40 d057 a5e0 3bd4 11c0
000005d0: baa1 72fd 2413 00c0 1066 0eec eff7 e6bf
000005e0: e034 3494 56df f63f 7096 9cce b6a9 e9bf
000005f0: 3093 243e 4116 f93f 9a35 9a87 fafc f1bf
00000600: fcc4 7c4d ee47 1140 c095 0af1 fcda ecbf
00000610: e129 1fc1 b99e 0bc0 70c8 d6d1 08c1 f33f
00000620: a87d e2d9 cddb 1240 6e6e c367 7b7b 0040
00000630: a8e0 24cc 8522 f33f f479 70b6 08cc 1240
00000640: c61c 4b4d 624e 05c0 d850 a9b1 343a f53f
00000650: b4c8 e32c 039d 0740 d75e abe7 9938 0ec0
00000660: 782f 6b57 1205 12c0 809d 4571 a591 0640
00000670: 8b3e dd5e d6bb 02c0 307a f757 76aa 12c0
00000680: c0d7 38d5 15eb b7bf 282d a58f 5716 ec3f
00000690: aeaf 3fad ac3f 11c0 b08b 2da0 989f ee3f
000006a0: 8ec9 a51f 26e6 f7bf 90f9 e935 58c3 ff3f
000006b0: 827c 589c 1119 04c0 58cf 0b0a f711 f9bf
000006c0: 303d c911 1faa ecbf f034 1bcb 82ff edbf
000006d0: 82e0 b205 080d 0640 f022 6e81 44d1 e3bf
000006e0: 18af e872 0ada 0540 884b 69de 9cc6 0940
000006f0: e097 7f09 3ff9 0740 19d6 3843 61cc 01c0
00000700: de8d 7209 c5a8 1040 6007 7ad7 0de9 e73f
00000710: 0004 7686 b85c a73f 98f6 bafe 8ce4 13c0
00000720: 105d d9ad 8eec fa3f 9217 a99c 873c 00c0
00000730: ba16 0c59 c2dd 0040 3c09 eb03 aa56 1140
00000740: cef5 3bdd 307d 00c0 ae0f cfff e28e ffbf
00000750: f314 8c1f c2ab 0ac0 808c 842d 086e e1bf
00000760: d871 9fd7 2938 f93f ba9f e147 07d0 fdbf
00000770: ecda 5797 967a 1140 6e8d d53c 91f2 0340
00000780: b0b8 73f8 3610 f13f 7869 ac24 f917 0e40
00000790: 8832 a04b b6e7 1340 5e84 4947 d8b0 12c0
000007a0: 7c9d 286e c31b 1140 d9ef 3435 48a9 12c0
000007b0: f6f4 0c35 b5ea 0440 4840 dff9 1484 f73f
000007c0: 704e 1537 4733 0bc0 b661 6326 4824 00c0
000007d0: f8cb 7d4e ece1 f73f f31f bd39 24f7 01c0
000007e0: e5f8 bb4e 584c 13c0 a928 eff0 fe84 00c0
000007f0: 1cec 975d 9ee7 fcbf e0f8 6321 b02b f63f
