src/params/weight3.npy (npy, 120080 bytes, 1 tensors)

array (column-major) f8 [75, 200]
0	0xc00b6420befd00c0	-3.423890583129918
1	0x4008f56381f2f43e	3.1198187019604395
2	0xbffcf2c04994c8ff	-1.8092654108300505
3	0x400cc91c9149f42c	3.598199019498244
4	0xbfe61fa048478506	-0.691360608263637
5	0xbffda85589bf53cb	-1.8535972004658443
6	0x400676dc4468bfb6	2.8080373138872927
7	0x3ff9cd0baedf5491	1.6125599699928765
8	0x3fdac0de55108464	0.41802175814706843
9	0xc010f926bf55ec76	-4.243311872119298
10	0xc0013bcbb53ff496	-2.1541971359388965
11	0x4002de619e14ae37	2.3585846281109997
12	0xc0072cae76d1e426	-2.896817138939258
13	0x40145554da4a4153	5.083331499845673
14	0xc00b9f403cadef58	-3.4527592411595087
15	0xc000d7eabf7554ea	-2.105428214805774
16	0x400dd5c15b9b03f3	3.72937270705051
17	0xbff0684b47a50393	-1.0254624174706108
18	0x4015812aeef5425e	5.3761403405374875
19	0xbfe632b9640eb8ac	-0.6936919168708946
20	0xc012c92ff1e24ee1	-4.6964719576241984
21	0x40135f8e8ac31637	4.8433171922275084
22	0xbfe59ef617a57d97	-0.6756544553608589
23	0x4001729924189061	2.1809561557766277
24	0xc01bc27962828b41	-6.939916171281596
25	0xc001244dd95d8f03	-2.142726610343631
26	0x400c6bca13b48d28	3.5526315249895966
27	0xc0038966d01a1565	-2.442090631290443
28	0x40030de6e9cea156	2.381788088434557
29	0x3ff918e932205fef	1.568581767851352
30	0x3fed6111cfe17a62	0.9180993137523041
31	0xbff9f74f797c65dc	-1.6228785272163497
32	0x40028020bdfd041a	2.312562450679718
33	0x3ff5061aeda5e855	1.3139905245902999
34	0xc00c9411dbd218df	-3.5722996877185405
35	0xbfe2cce1ddd6881d	-0.5875100453160972
36	0x3ffe8352ddb6bce5	1.9070614491172873
37	0xbfe4003f777c69d4	-0.6250302633009661
38	0x400aeeb250517950	3.3665510439742903
39	0xc00f75bf0ba2dfd2	-3.9324932965355197
40	0xbffcfec59e2e9b81	-1.8122001818644267
41	0xbfd3814e4d7b2f60	-0.3047672039654028
42	0xbfef557ed3415cf8	-0.9791864515381397
43	0xc013f66280948886	-4.99061013132644
44	0xc000d9e79de11489	-2.10639880507603
45	0x3fe35aa2e1d05cd4	0.604813996355825
46	0x400138b39818c4f4	2.152686298614407
47	0xbfcfec79492ad6d2	-0.24940410683273356
48	0x3fe9dfa5fbaf2527	0.8085508266168845
49	0xbff4f1edcd9ec6cf	-1.309064677433003
50	0xbff6472b8417dcad	-1.3923754844561629
51	0x4005fc9bc48c621c	2.748343978437573
52	0xc004e42391eb7705	-2.611395969389266
53	0x4009503592481167	3.1641646793597604
54	0xc00c5aa95f9c369e	-3.544268366770509
55	0xbfdcd96172d82510	-0.45076786246552647
56	0xc00d86cb57ea8cac	-3.6908175342992617
57	0xbff758f870232d85	-1.4592213039748867
58	0xc013d451712ea08b	-4.957341927023786
59	0xbfd024b92d3dd5e1	-0.25224141519660576
60	0xbff07623a927db79	-1.028842602505135
61	0x400ab91dc5c06adc	3.340388817724813
62	0xc00ec9204f932c6e	-3.8482061592854313
63	0xc014ec47b7d7dd5d	-5.230742332983337
64	0xc008b4e3e64a4937	-3.0883253089351927
65	0xc01084594a1b4fd9	-4.129246862332331
66	0x400e6efaa3c19c6c	3.804188994737663
67	0x400527c1f28f66e1	2.644412894250181
68	0x40044311fcab2043	2.532749151203491
69	0x40011ab7ce555fff	2.1380458946041467
70	0xc019e5aaf57650e5	-6.474284968706546
71	0x400f4b02375cddb8	3.9116253209319574
72	0x3ff3fdb6bde8e82e	1.2494418543196946
73	0x400557ed09353ea7	2.6679325789808277
74	0x4013870a0949bede	4.881874222875664
75	0x4005c3c4f71966a9	2.7205905251147056
76	0x3ffd5215d7302280	1.8325403600485117
77	0x3fec84dd40c90ef7	0.8912187829341452
78	0x400f9fb7198b0f89	3.952985953861518
79	0xc006aeb3af7c333a	-2.8353036603715767
80	0xc0037d39c3bb4604	-2.436145333435663
81	0xbfff35fc2c7d951a	-1.9506799447929724
82	0x4015ef890eb2ea8d	5.483921270055942
83	0xc00658de288ec04a	-2.793392483574313
84	0x400fabbeca88ab9d	3.958859998985146
85	0x3fe9b70f9a7b92b1	0.803596307491338
86	0x40029218382d17e7	2.3213352574120907
87	0xc0106e8ca438f625	-4.107958379723219
88	0x4003c61ee3384e07	2.471738600879465
89	0x400328088ef5d1c7	2.3945475739257946
90	0xbfe3dbb143311107	-0.6205679237687328
91	0xbfafe1f903be1832	-0.06227090998349673
92	0xbfc336514645afcd	-0.15009513789425313
93	0xc00bb647bd2f597f	-3.464004018790717
94	0x40126315addc9de8	4.596762386885054
95	0xc0144ef6456515ee	-5.077111324591426
96	0xc00698b108e47b54	-2.8245564169623467
97	0xbffb17f144b080d7	-1.693345325773455
98	0x3fab72b8f6954c03	0.053609638309943385
99	0x3fe03b8656c98a1e	0.5072662062705751
100	0x4003e0407562d393	2.4844979449066584
101	0xc0042bab5e5247fe	-2.5213229531154857
102	0xc004440b37a712e4	-2.533224520479381
103	0xbff28db078b6bf4a	-1.1595921244988454
104	0xc000476643943912	-2.034863021813302
105	0x3fddc693dd59d02b	0.4652452146176553
106	0x4002731bf6cddf3d	2.3062056809975773
107	0xc01444670f3bd5d1	-5.0667993908186455
108	0xc00e0186456dc7cf	-3.750744383251891
109	0x4011f5426768374b	4.489511123405303
110	0xc008d89a9dc32558	-3.1057636571100993
111	0xc003a021f6c547d9	-2.4531897810893324
112	0xc018997243882663	-6.149849944291051
113	0x3fff3e2870f801e7	1.9526752865641528
114	0xc01084f36a904666	-4.129834809356543
115	0xc00bf07104535676	-3.4924030626232776
116	0x3ff9c42e9eff041c	1.6103960238253938
117	0xbfff285382aea271	-1.9473452667972675
118	0xc0081140f4de89ab	-3.008424675980867
119	0xc00dc8dcf9ad4956	-3.7230777269370874
120	0x4008dac799859811	3.1068260187048584
121	0xbff730ee55a462db	-1.4494460435291134
122	0x3ff7c072bd81bde7	1.4844844248399285
123	0xc011cf4730dc0d56	-4.452420009070314
124	0x3fd2623393657757	0.28724374193358443
125	0x4006bb69626581d5	2.841509598467591
126	0xbffb2df73716a380	-1.6987220909015548
127	0x3fccdafba9cec6fb	0.22543283263581046
128	0xc013135ba1bd49ef	-4.7689042350561826
129	0xbffa185e7f533f62	-1.630949494709022
130	0x400dbda9934d6942	3.7176085956572544
131	0xbfd4fc964d26d770	-0.3279166940150082
132	0xc004c85e6c2d00a8	-2.597836346743936
133	0xbff131e6b0138e34	-1.0746828916534357
134	0xbffc468cd1a67251	-1.7672241391620853
135	0xbff0d1c0ea54b2c1	-1.0512093690442017
136	0xbff4fd27b7026c77	-1.3118054531867338
137	0xbfedb2e2842e6a3b	-0.9280865270296269
138	0xc008d109f3fa4e38	-3.1020697651636304
139	0xbff56c88f139697f	-1.338997785837449
140	0xbfd70124d2a8f4ea	-0.3594448144174992
141	0xc0004965dc88b0e6	-2.0358388165678774
142	0x400d83853e1dbd15	3.6892189839196683
143	0x4014642ef56bf81e	5.097835383143346
144	0xc010db16bbcda1d9	-4.213953909326357
145	0xbff0554ccf470a70	-1.020825204541918
146	0xc007e84653a14ea9	-2.9884153874971457
147	0xbf81ee8e88d5b8ca	-0.00875579218947244
148	0xc00f2af9cc02ebfc	-3.895984262313048
149	0xc00ad04f9f61e735	-3.351714368033664
150	0x3ffe3ff4c29a3158	1.8906142808583208
151	0xc00ac347c8ff0ea0	-3.3453517630421885
152	0x400960861438ba3e	3.1721307353793966
153	0xc010b4da564150a9	-4.176614139305607
154	0x400acdc1b343e36b	3.3504671101658707
155	0xbfe0ba2b53074fb1	-0.5227257367755468
156	0x3fdac1535b67492a	0.41804965902442126
157	0x3ff5ee6f9d9b3717	1.3707119137283763
158	0x4011f6b149e3c2a6	4.49091067745818
159	0x400af3a884e53b4b	3.3689737684684693
160	0x4014d251a8a34649	5.205389628377426
161	0x4008100d9a17f8ca	3.0078384436193106
162	0x4002ea3dd66b8104	2.3643757583196265
163	0x4011969ea5b55e3e	4.3970895664165806
164	0x3ff545e2393f0fb6	1.3295614467797185
165	0x3fb40717192d57ae	0.07823318829227219
166	0xc00a3bff2dbb27b0	-3.2792953083744223
167	0x401020808b5906c0	4.0317403576934225
168	0xbff4083fdc70099d	-1.2520140276761602
169	0x40132c157f06a61f	4.793050751477067
170	0xc0045031406866d0	-2.539156439958653
171	0x40101715e386dd37	4.022544436556294
172	0x400837333ca3b119	3.0269531953291673
173	0xc0078a31e4bc2711	-2.9424779767913454
174	0xc00a4e81b35397c3	-3.288333321560431
175	0xc0126dee0114de27	-4.607353226565045
176	0x3ff1c60c381280e9	1.1108514967273158
177	0x400ff1d36f0be363	3.9930790591719627
178	0x3f9cd633d1ba146a	0.028160867381775402
179	0xbfe6f71b081718bb	-0.7176642568599826
180	0xc00f58cd1cdc2356	-3.918359971492843
181	0xbffe8a38055efb96	-1.9087448320203513
182	0x4003b420d4bcd213	2.4629532451747393
183	0xbfb5393519bca5b6	-0.08290416601507541
184	0x4012bf568885a5ad	4.686853535802055
185	0x400c107c96b32db5	3.5080501340323402
186	0x3fe6f5426551dd02	0.7174388865377355
187	0x3feb87242d36db08	0.860246742543354
188	0xbff27512813a0f2a	-1.1535821006700169
189	0xbfce321b9b49e902	-0.23590416986900925
190	0xc003d177354fe825	-2.4772781529436707
191	0x3f8d7e75cfe359a1	0.014401359946003835
192	0x4011a8f6f1eae348	4.415004520379462
193	0xbff0e0f602470ed7	-1.054922112366446
194	0x3ffaba162a7c62f7	1.6704312953572165
195	0x3ff7f46d7165219e	1.4971746854299464
196	0xc0076b64a63d5da9	-2.927438067195642
197	0xc01075ca98ef9e15	-4.115030660271732
198	0x40089a4ee94a3354	3.0753458238381572
199	0x400960a141e34827	3.172182574032394
200	0x4007418fd26af069	2.907012599838755
201	0xbffa3f9e648c5875	-1.6405319144883184
202	0x3fb71b6c391bb4b5	0.09026218790286829
203	0x400242c93c6805e6	2.2826103896375
204	0xc009fbb105754afc	-3.2478962351245837
205	0x401221dd16e3055b	4.533069951635606
206	0x400bcfbbb3e46141	3.4764322332449926
207	0xbf782c03aba0708e	-0.005901350343290214
208	0xbff82b839c84dbac	-1.5106235612890755
209	0x3fd7f673d464c4f4	0.37441726438107925
210	0xbfed2d45702f83c8	-0.9117762747883882
211	0xbff3bbe55f56229f	-1.233373043449468
212	0xc0119022cc308da2	-4.390757742370086
213	0x4009e973ef6f6f9a	3.238990660274749
214	0x4004125f73c1daef	2.508971123078815
215	0xbfd8ab86d209794c	-0.3854691554205558
216	0x3fe9900558626f71	0.7988306738147753
217	0xc01494af794ffa34	-5.145200629717284
218	0xc012a8c4b221498c	-4.66481283500833
219	0xc0148e2a7d16748b	-5.138833956237373
220	0x4015bfdebb35e0b6	5.437373089946211
221	0x4006dd7078d6de23	2.8581246796200204
222	0x3ff97257f686b7a8	1.590415919297337
223	0xc00207f2de62972e	-2.2538812040173957
224	0x3ff8914606a530a4	1.5354671725827211
225	0xbffeaaade4dfc59e	-1.9166697445292367
226	0x3ff9c1ddf5d50ca9	1.6098308184453265
227	0x4010b6ee308a4a6f	4.1786429962545375
228	0xc0044882338179c5	-2.535404589070114
229	0xbff63d8d1d0b4ac5	-1.3900271544013532
230	0x400dea527f820100	3.739415165095238
231	0x4000111c772e7ecb	2.0083550749840007
232	0xbff6dae7d347bd5c	-1.4284437420972926
233	0xc007cd706379cef3	-2.975312020449445
234	0x40006f827b76cba9	2.0544480939510845
235	0xc013db0e813e94fd	-4.963922519154264
236	0x3ff349ca64aeba9c	1.2055152829085847
237	0x40119be3c3cd666b	4.402236041461587
238	0xc00b442225fcd548	-3.4082682578834103
239	0xbfffc883f00e380b	-1.9864539506120333
240	0xbff404a1f08405be	-1.2511310000557923
241	0xc0191591395de480	-6.271061798434971
242	0xc011eb4d420eb98c	-4.479786903523188
243	0x3ff2a85aafe02d17	1.1661021108764709
244	0x40028b8df629df61	2.3181418639687057
245	0xc01084578cbf2730	-4.12924022595125
246	0x400facba4649e90a	3.959339665537418
247	0xc008f0ee6fd3af73	-3.11764228214991
248	0xbfed59b9440c625f	-0.9172025994367451
249	0xc01236f95a788189	-4.55368558273802
250	0xbff17e5a4cd08aee	-1.0933478355952349
251	0x40102fa4ba76a3e6	4.046526826373315
252	0xc00293004146ada2	-2.3217778300947467
253	0x400718a038a4bde3	2.8870243478083792
254	0x3fea7bb4dde57c87	0.8276008924402881
255	0x40114d4717405ec2	4.325466502479403
