src/params/weight4.npy (npy, 1360 bytes, 1 tensors)

array (column-major) f8 [10, 16]
000000 31 27 b6 82 8c 96 f9 3f dc 22 07 e9 66 cf ff bf
       1.599255095092712 -1.988135252251758
000010 91 a2 2f 5d 9c 68 f2 bf 6c 21 8d 6a de a2 fe 3f
       -1.150539745338538 1.9147628938827337
000020 a0 83 f2 50 42 00 fe 3f ab 88 60 42 c9 cc b8 bf
       1.8750632440571522 -0.09687478895696937
000030 10 58 42 b1 f8 2e fc 3f 82 2e 27 84 e6 59 11 c0
       1.7614676403222838 -4.337793412105045
000040 5a 41 c3 c8 f2 ab 9f 3f 98 f1 37 e4 66 ed f2 bf
       0.03092936849935888 -1.1829594530855498
000050 e1 5f 5f 46 ed 9c f1 bf 17 fc a5 91 87 e6 f4 bf
       -1.1008122204711912 -1.3062816323652038
000060 63 79 a0 e1 6b 80 05 40 ce 7c 1f 1f bd a7 02 c0
       2.687705767354758 -2.3319036895260075
000070 be 73 db 22 83 a2 04 40 91 08 58 1d 1a b2 d8 3f
       2.579351684877536 0.3858704840241752
000080 9b bf 4a 9a 00 d6 04 40 9f 02 15 52 20 40 0b c0
       2.6044933370648784 -3.4063116467153374
000090 f0 53 e3 eb 8e c7 03 c0 09 e6 df 34 41 e3 f9 bf
       -2.4724405697584118 -1.617982107678815
0000a0 0f 27 56 cc 33 eb 02 40 86 b0 e0 3f dc ca ee bf
       2.364844890956085 -0.9622632262812807
0000b0 93 da e2 36 9f ea 05 c0 93 57 cd 38 8d 40 fc bf
       -2.739561489866284 -1.7657596796829906
0000c0 1d c3 0d 83 69 e9 f6 bf 5d 27 f6 f3 3c 37 fe 3f
       -1.4319853896415176 1.8884858636615356
0000d0 43 6e b2 91 52 3b 0b c0 1c c9 cb d0 0c 22 d2 bf
       -3.4039660818650943 -0.2833282507919124
0000e0 bd 4e bd ce 49 db a3 bf 29 c8 ae d9 9c 30 e1 bf
       -0.038782412039521465 -0.5371841670623826
0000f0 7a 4c 37 f2 ff 6b 09 c0 9f d3 ba 3f b6 6e 00 c0
       -3.1777342723012767 -2.0540585497751205
000100 f6 b3 23 91 cf 69 f6 3f aa e0 3c e6 69 94 d4 3f
       1.400832716895136 0.3215584515014692
000110 6d 1d 14 43 d6 0a f2 3f 88 42 9d 29 5f a0 b5 bf
       1.127645742440872 -0.08447832838033709
000120 db 56 7f 0e 44 f9 d5 bf 2d 15 6d 83 0c 7a fe 3f
       -0.34333897987140255 1.9047970899421884
000130 84 7a 3e 1a ba c1 e0 bf ec cc 21 9e 76 df 02 c0
       -0.5236483109072911 -2.3591129640641295
000140 2d 46 89 b7 63 0c 01 40 86 f1 d6 d9 88 d0 09 c0
       2.1310495699661005 -3.22682352244573
000150 46 64 3c 7a e2 25 e7 bf 8a 66 33 7a fa 4a ec bf
       -0.7233745944423695 -0.8841526400312472
000160 a8 ec 33 fe bf 20 da 3f 2f fb 9c 17 2e c4 fc 3f
       0.40824889969344236 1.7978955194846085
000170 b9 fb d5 74 38 20 00 c0 e2 17 3b 9d fe 22 05 40
       -2.01573268201852 2.6420872005137293
000180 76 86 df 48 f5 b4 01 c0 6f c1 fd a9 ff 3b ff bf
       -2.2133584683622827 -1.952148117092374
000190 fd 2b e2 c6 6a 0b e8 3f 46 12 8e a2 cc d8 07 40
       0.7513936886256257 2.980859060249972
0001a0 b3 6b 4f 8d 21 ed f9 bf 14 54 f4 aa 6e eb 00 c0
       -1.6203933257990968 -2.114957175809204
0001b0 c4 44 0d 95 7f 0a 08 c0 6b 60 e2 4c 4e b5 e5 3f
       -3.0051261562990437 0.678382063068978
0001c0 66 bd 65 e6 56 1a 07 40 83 25 12 da 26 96 09 c0
       2.887861061076978 -3.1983162915027505
0001d0 ae 02 8f 9e dc a6 f9 3f e7 ec 49 12 76 ac 05 c0
       1.6032377427765527 -2.709209578400635
0001e0 1e c6 ef 1b 01 80 f7 3f 4b fc d6 fd 8c 16 0c 40
       1.4687510577463239 3.511011107562387
0001f0 2e 36 66 da 3a 92 ab bf ec 35 54 a0 b3 a4 b8 bf
       -0.05385002056128162 -0.0962631479671569
000200 aa 04 86 b9 18 04 0a c0 b5 80 13 cd 8c cc fa bf
       -3.2520002836250415 -1.6749389658726106
000210 b2 e0 e8 2b d1 a3 ce bf 71 d8 c8 f0 b7 eb be 3f
       -0.23937430042292857 0.12078427914170377
000220 3d 77 6f e3 4e c7 0e c0 7b 98 55 4c de 86 05 c0
       -3.847318436469236 -2.6908536876317704
000230 fb a4 fd 22 97 59 04 c0 fc 6a 58 c7 0f 5d a2 3f
       -2.54374530159532 0.03586625393309892
000240 6f e6 c9 46 9b 9b ec bf 2a e2 3a 79 f0 2c ec bf
       -0.8939949400511987 -0.8804857604764653
000250 26 2a 0c 50 83 a1 0d c0 91 30 8c e2 c4 83 fb bf
       -3.703863740321384 -1.719670185996652
000260 06 62 f6 7e 3d d2 f3 bf bb 3c 22 bd a7 78 f3 bf
       -1.2388281783552215 -1.2169568431889235
000270 58 6e 46 cd 35 bf fb bf 2e 07 f8 42 a2 b6 fa bf
       -1.734182168823187 -1.6695883384677006
000280 63 54 9a 11 c8 ac c7 3f 32 ae 26 c3 73 8c cb bf
       0.184960373492376 -0.2152237608801087
000290 84 ae 83 a9 2f aa fb bf 9e d2 84 93 7f 46 11 c0
       -1.7290493604331525 -4.31884603975473
0002a0 6c a5 10 47 15 b7 00 40 1e 8d bc 85 ae 8a 0f c0
       2.089396052546979 -3.942715687576892
0002b0 0a bc fe 0c 72 75 9f bf 97 8d 19 71 0a d1 e2 bf
       -0.03072145656886608 -0.5880176743489071
0002c0 2a b7 e0 e0 7f 8c eb bf 61 3e d4 be 4c 6c fa bf
       -0.8609008209366256 -1.6514403776417554
0002d0 a5 87 54 76 c5 74 e4 bf ad 7c 46 7c 71 33 e7 bf
       -0.6392543135773293 -0.725029700017236
0002e0 a7 ba 99 66 2e 8e ff 3f 80 ec 71 08 39 d0 f6 3f
       1.9722122199852181 1.4258356408961674
0002f0 a8 09 52 31 64 9f d7 bf 33 5c 1e 13 b7 f1 ad 3f
       -0.3691034776349178 0.05848476513272551
000300 d2 f9 6e 9a a5 69 01 c0 aa 5e c5 7d 4a 34 dc bf
       -2.1765853943936486 -0.4406915882332024
000310 02 bc e1 dc 49 4b d8 3f 2a 64 2b ec 7f 1a e1 3f
       0.3795952469872078 0.53448482634406
000320 3c 74 2b fc 5e 16 09 40 a4 2f 2f 49 bd 00 02 c0
       3.135923357082474 -2.2503610341572813
000330 c4 65 71 0c 79 bc e4 3f f5 62 a8 ce 0e 21 09 c0
       0.6480069392229599 -3.141141523851156
000340 0d 7b c5 fc b1 51 ee bf 5e d9 b7 8d 02 c3 08 c0
       -0.9474725663129405 -3.0952197143298426
000350 0f 75 20 1f 76 88 d0 3f ca 7c 91 4e 17 38 f9 3f
       0.2583289436314126 1.5761941021990418
000360 73 70 9b e7 35 59 db 3f f6 bc b0 db 25 7c f0 3f
       0.42731998079194183 1.0303095418601607
000370 fb 97 26 b1 da 50 e4 bf c3 58 b4 1e c3 ac 10 c0
       -0.6348699054694856 -4.168713073499194
000380 60 6a 96 fe b5 c6 0b c0 b6 1b 6f b0 51 21 07 c0
       -3.4720268144276787 -2.8912690910251184
000390 e0 38 c5 91 97 e6 f1 3f 85 af ba 56 9d f5 e0 bf
       1.118796891608831 -0.5299822515421374
0003a0 fa 46 e7 b5 b8 39 02 40 15 5e be 95 08 78 c9 3f
       2.2781843386845795 0.1989756327791247
0003b0 cf 75 7c 27 ea 92 f2 bf 7f 97 3d b8 85 e6 fc 3f
       -1.1608678381374948 1.8062798687837753
0003c0 00 e5 5d 0a 73 1c 10 c0 7e 78 37 9a bf 39 e2 3f
       -4.02778259466254 0.569549370960672
0003d0 69 bb db 35 45 04 e0 3f 32 5b 61 83 a9 83 04 c0
       0.5005212833328702 -2.5642881645284428
0003e0 c5 59 d6 e0 7f ce dc bf 18 f5 e1 12 c2 23 0f c0
       -0.4501037307431058 -3.892460010071442
0003f0 fe 66 7d c8 12 d2 04 40 be 4f fe 62 04 73 ae 3f
       2.6025748885411977 0.05947126110473232
000400 18 b3 a0 ca c6 38 11 c0 63 d2 ce ba 86 d1 ad 3f
       -4.305445829447102 0.05823918371553274
000410 61 a2 6c 9c 6a 64 12 c0 1b 75 5a 12 58 9f 03 40
       -4.598062938814651 2.4528047021727963
000420 aa d0 37 5c f3 1d 05 c0 cf 1b 12 b4 4e 06 eb bf
       -2.6396243290456214 -0.8445199505812243
000430 62 33 23 8f 0a 0e 01 40 d4 a6 74 49 39 98 e7 bf
       2.131856077443829 -0.7373320040398661
000440 49 bb fb b4 0f a0 08 c0 77 19 af 89 3d 69 f6 bf
       -3.078154958660353 -1.4006934526711043
000450 9f 92 95 63 73 93 04 c0 ee 9b 16 51 3a 60 00 40
       -2.571997430803392 2.046986230375743
000460 f0 df ef 5f ab dd 11 c0 a4 2c e9 9a dc 6e ea 3f
       -4.466474055305284 0.8260329270937246
000470 2a 9c 3b 23 ae 88 eb bf 56 6f 5d 6f 32 2d f6 bf
       -0.8604345977918275 -1.3860344267077003
000480 54 92 ee fe 22 24 e0 3f 87 b8 31 9e 9a e0 d8 bf
       0.5044112185610836 -0.3887087387910317
000490 53 5a f0 8f 58 30 fc bf d7 cd 8e 1b 36 6a e3 3f
       -1.7618032095539504 0.6067152536619983
0004a0 97 41 11 de b6 10 f0 3f d0 db 9e 8b ec 3b e2 bf
       1.004080645991143 -0.5698149420703604
0004b0 5a 34 89 bd 03 ae c4 bf 94 a3 dc 91 6e 11 f8 3f
       -0.16156050448117548 1.5042558381776177
0004c0 70 ba 0d ab 3c c1 f9 bf a7 c7 77 e5 16 b4 10 c0
       -1.609676998308398 -4.1758685926778645
0004d0 b3 f8 95 07 fd bf 07 40 f1 72 56 7a 2b 40 02 40
       2.9687443344729103 2.2813329274780405
0004e0 42 be ad c6 db 01 ef 3f ba 81 39 06 d7 8e d0 3f
       0.9689768677180342 0.2587182579791506
0004f0 e6 26 e3 ca e9 66 fe bf a1 be fc 0a 1d 54 b0 bf
       -1.9001253056798588 -0.06378346937412484
