src/params/weight4.npy (npy, 1360 bytes, 1 tensors)

array (column-major) f8 [10, 16]
-0.5564314774940198 -0.8145466617359037 -1.5648649973879898 -2.2489119369946198 -0.8233244828154133 -1.1755044975519247 -0.32549465650251475 -0.8807063404039202
-0.8582043456166114 0.18197027937684326 1.0763852218324483 -3.248183799580875 -1.357298842089512 0.08450880601030948 0.8440618947158162 0.44852454364216243
1.0687069439364845 -2.900507526403417 2.568166574494825 -1.7137989389120092 0.7934839283411311 -3.849786205828878 -1.6345426018413924 1.2418846612273853
1.594007204327718 1.029156175463425 -2.457506980662713 1.3340927831793739 -1.3985089492132157 0.9689142502480799 0.16617499328516755 -3.059253495913554
0.6322152211947073 -0.0037285591654471918 2.7930260428522673 -0.10012556525446935 -0.6389749726919114 -1.621330403083706 -0.944242375909582 -3.5751389316027655
-0.2695648120432402 0.0471020584327593 -0.24477959970012605 -5.142753832222366 0.050096976144769496 -2.331009714822448 2.021698294663985 0.2659418707805164
-2.460804385804847 -1.2999899971123035 -2.094119892669001 -1.4214915990610313 2.9053830149505244 3.650550233788373 0.5492292567790089 -3.019068801373563
-1.577296460225159 -1.3261532320954126 -1.7206453735286327 1.5176681182871983 1.9043796608507686 1.878210739651871 0.23481758926346533 1.6527658733427868
-4.181491065804776 1.9638825562263769 0.9059238207585978 -2.9094495318587166 -3.1618696937905315 -2.936617594045574 -3.089044100383769 0.9413297109794007
2.190799427219593 1.1189120285105736 -1.243690778766461 1.4292513224143542 -2.008357897395657 1.3729153889142869 0.08568831337990226 -2.229797916277837
0.10548869367532318 0.15407158653758485 -0.1276290166895438 -0.19803042720415043 -0.8014567418743213 -1.3048941156140303 -3.1706209199776283 1.404742686599116
0.5034848270095234 0.5852366228566045 -2.6752356501122896 1.0670435122970492 -1.7083522956160992 0.030440656637187806 1.4228322940111686 -1.620141373036294
-1.0635055955358854 -0.025591561811635657 -2.8460987500854444 0.2723701338923815 1.7945761953807067 0.11182275649248022 -1.6092363908239142 1.1246371292791242
-3.882162367708408 -1.4885644854976645 -1.3066315594232327 0.151482269937017 0.2776422977492648 -0.0834458317016335 0.019936108379554535 -0.9634910397106937
0.5809199524114929 0.5662339974760937 0.629638737262653 -0.030867622908550336 -0.04860186951163152 0.9110330560985438 0.4699694550171845 -0.5267073822214514
-3.072583866009905 1.3737670368712123 -1.6473485537500192 -1.3458251111173163 -0.8881408191274064 1.1305512650299865 2.2539030266500566 -3.814252411401118
0.30441807277855204 2.203317616135055 1.9888561244498437 -0.2105879996318168 1.0922480052487835 -0.9729753345460922 -0.3569925023428177 -0.30730277468671713
-1.0964545491025546 1.4493884915820496 -1.0854206270587055 -2.7823305113572903 -2.135260465228701 0.9832064226724143 2.2224895833864577 -0.3266337830274499
-2.1009780975957133 -3.8183288236284625 0.30890545255059243 -0.4209675823613752 2.592313881566879 -1.8219408194389204 -1.4513152573579506 1.9688710252996753
-3.7240876857023526 0.5202661514373327 -0.8614344875476393 2.664026559913761 -2.5763312492381387 1.2162081188848635 1.3155960008755168 1.1730999047610837
00000000: 24a8 c962 49ce e1bf 0318 2729 c410 eabf
00000010: 13fc 26e1 af09 f9bf a7ce a78a c5fd 01c0
00000020: ab06 f695 ac58 eabf 3695 d4cd ddce f2bf
00000030: 14de 2c8a e7d4 d4bf 1045 2d10 bf2e ecbf
00000040: 6fab b6f5 6876 ebbf 433e 6257 cd4a c73f
00000050: 6bb0 dab5 df38 f13f 67c6 b4c9 47fc 09c0
00000060: 1cc5 9afd 7eb7 f5bf 35cd 097e 5ea2 b53f
00000070: d155 3317 8e02 eb3f d25e 9949 a0b4 dc3f
00000080: e571 d373 6c19 f13f e2a2 3d4a 3d34 07c0
00000090: c115 c1ea 9a8b 0440 ccbe a86f b86b fbbf
000000a0: 770e 4468 3864 e93f 0104 d5b5 5ccc 0ec0
000000b0: 903d ad24 1627 fabf b302 5673 c2de f33f
000000c0: a5d0 c2b2 0d81 f93f 3678 4177 6c77 f03f
000000d0: bd1a 7d6b f9a8 03c0 485c 99ac 7158 f53f
000000e0: 9e8b 80eb 4a60 f6bf 2034 2e75 5801 ef3f
000000f0: fa51 c9e0 3845 c53f a5fa 98e5 5979 08c0
00000100: cf11 626a 1b3b e43f a451 a8f5 5a8b 6ebf
00000110: 0d6a b709 1e58 0640 07ef 423c d4a1 b9bf
00000120: 7a93 55a4 7b72 e4bf 8a14 1426 f8f0 f9bf
00000130: 83ed 80c9 3b37 eebf 401f af70 e299 0cc0
00000140: d932 f8c4 8c40 d1bf c401 16d1 c21d a83f
00000150: 5752 b81b f054 cfbf 4d18 830f 2e92 14c0
00000160: 912e 5794 4fa6 a93f cb90 de6b e8a5 02c0
00000170: b1af cf27 702c 0040 89eb 680d 3105 d13f
00000180: dc14 b735 baaf 03c0 7697 ab4f c2cc f4bf
00000190: c454 27ee c1c0 00c0 0f18 98f9 6dbe f6bf
000001a0: f387 3c73 393e 0740 b135 54ae 5334 0d40
000001b0: 4ee9 fb3b 4993 e13f de2f 328b 0d27 08c0
000001c0: cc37 8c36 9b3c f9bf 175a 9573 ec37 f5bf
000001d0: 5e1b 7571 c387 fbbf 249b 635d 5e48 f83f
000001e0: 9158 a8ce 5678 fe3f e6cf 5cb4 260d fe3f
000001f0: 25c1 34b5 800e ce3f ff3b dfa0 ba71 fa3f
00000200: 3e97 40cb d8b9 10c0 b0d5 821d 106c ff3f
00000210: da6a daf3 53fd ec3f ca90 e579 8d46 07c0
00000220: d759 8856 824b 09c0 8545 7a5d 317e 07c0
00000230: 7666 d8c0 5cb6 08c0 eb1b 6d7c 5f1f ee3f
00000240: 8c07 a0d9 c186 0140 e9dc 984c 10e7 f13f
00000250: 3438 524d 28e6 f3bf ea8c 78a2 36de f63f
00000260: 45d2 fff1 1d11 00c0 e2fd 7820 76f7 f53f
00000270: 62b7 9d57 abef b53f 6cd1 384a a0d6 01c0
00000280: 1eeb 6e99 4e01 bb3f 42fc b524 9eb8 c33f
00000290: a2e2 59ca 2556 c0bf c034 3aa0 0f59 c9bf
000002a0: 1a49 f09b 88a5 e9bf b4e1 f4a6 d8e0 f4bf
000002b0: ed89 3a80 6e5d 09c0 68d0 a377 d379 f63f
000002c0: 4838 4136 8c1c e03f 37e6 7227 42ba e23f
000002d0: cb9a d2f2 e166 05c0 c898 cb37 9c12 f13f
000002e0: 947b 7b37 6955 fbbf 0ee6 e6e2 d52b 9f3f
000002f0: af87 a7cb ebc3 f63f 1166 415c 19ec f9bf
00000300: bb08 7f71 1e04 f1bf d75d 23a4 ac34 9abf
00000310: 7d6d e66b cfc4 06c0 1665 5e24 836e d13f
00000320: a171 5587 95b6 fc3f 3a72 158a 6aa0 bc3f
00000330: d6f2 61a8 6ebf f9bf 48f0 a180 83fe f13f
00000340: 6a8e b824 ab0e 0fc0 4c31 73fe 28d1 f7bf
00000350: e94e 7a7e f6e7 f4bf 95d3 a661 c563 c33f
00000360: d570 3433 e4c4 d13f 9c62 25be b45c b5bf
00000370: e8b0 ff95 216a 943f a87c 3129 ebd4 eebf
00000380: 8b70 a670 e596 e23f a461 a1c2 961e e23f
00000390: 83cf 1a23 0026 e43f 1206 971b c39b 9fbf
000003a0: a661 2720 58e2 a8bf ec94 b0cb 2e27 ed3f
000003b0: 6dbc dac3 fa13 de3f 347e a670 c9da e0bf
000003c0: 9bd6 95d9 a694 08c0 76f4 fa24 f3fa f53f
000003d0: f881 3728 8a5b fabf aa26 66e9 7f88 f5bf
000003e0: b5a2 8c4b a66b ecbf 6215 5cec bc16 f23f
000003f0: 0e8a 5e4f fe07 0240 6941 adc4 9683 0ec0
00000400: 6e4b b9f0 957b d33f 8601 80fc 64a0 0140
00000410: d561 afcc 5ad2 ff3f a2a2 ac2d 8cf4 cabf
00000420: dda2 5a0b d979 f13f 8115 362b 9d22 efbf
00000430: dbb1 9e14 f7d8 d6bf ebf7 cf41 d9aa d3bf
00000440: 6622 dfec 138b f1bf e4b2 a8fc b130 f73f
00000450: 6cef f904 e25d f1bf 478a c77f 3642 06c0
00000460: c9ca 5470 0315 01c0 a70b d350 6d76 ef3f
00000470: 96c3 629e a8c7 0140 3bc9 f761 91e7 d4bf
00000480: 7e49 d69a cdce 00c0 00de 76fb ef8b 0ec0
00000490: 2ab2 1060 1bc5 d33f 50c5 ba03 22f1 dabf
000004a0: 5c5f 720f 0fbd 0440 3acd ab6a ab26 fdbf
000004b0: 8e9c e858 9638 f7bf f843 7be7 7e80 ff3f
000004c0: 3439 0c7c eeca 0dc0 bb73 3433 05a6 e03f
000004d0: 753c f50e df90 ebbf 370a 3428 ed4f 0540
000004e0: 0320 d98e 539c 04c0 bbd7 fba4 9675 f33f
000004f0: c423 6864 ae0c f53f ad3b de67 04c5 f23f
