src/params/weight4.npy (npy, 1360 bytes, 1 tensors)

array (column-major) f8 [10, 16]
000000 f3 7a f8 73 01 0f 08 c0 db 36 00 da aa dc 0d 40
       -3.007326990147129 3.7327477485003846
000010 38 6a d5 ff 68 c5 f2 bf 69 0f 02 4c 9e 6f 01 40
       -1.1731958383085281 2.1795011461380693
000020 7d 03 cb de 4d 58 01 c0 3f 0f 17 38 99 32 d6 3f
       -2.1681172757820932 0.3468382880930569
000030 34 84 62 a5 86 68 dd 3f 43 d0 ee a8 18 92 02 40
       0.45950475836622506 2.321336097515116
000040 31 83 fa da b9 9e 03 c0 da 88 d7 6b 44 4f dd bf
       -2.452502928514513 -0.4579630902427546
000050 42 82 5d f2 78 93 e5 3f 5e e1 2b 90 ad 1d fe 3f
       0.6742520078369767 1.8822456008620843
000060 91 7b 3f 07 d7 9a de bf 6c 09 12 73 34 32 02 c0
       -0.4782006808072135 -2.274514101970615
000070 68 e8 fe 90 2b 10 e3 bf fd 2b c4 bd cb f0 ba 3f
       -0.5957238990734028 0.1052367533012983
000080 2c 6d ae 0f 09 51 08 40 1d 54 40 93 00 c7 03 40
       3.039568064222882 2.4721690658575555
000090 89 b8 c8 9e a9 07 0f c0 87 8b a2 d4 82 f7 f3 bf
       -3.878741493702425 -1.2479275041630176
0000a0 70 53 0b ca ae d9 0d c0 8e b1 c7 24 cc 49 f3 3f
       -3.731290415259018 1.2055169522019216
0000b0 07 96 6b 52 ee e3 08 c0 cf b1 17 33 f9 36 f1 bf
       -3.1112944068033843 -1.0759212489893917
0000c0 33 13 83 99 79 df f6 3f 87 36 ae f5 ed a3 fc bf
       1.429559325844093 -1.7900218579192442
0000d0 5c 2f 48 5f f5 99 05 40 56 f0 11 e2 dc 1e f8 bf
       2.7001750415710557 -1.507534869276261
0000e0 2a 4f 0a 42 84 d0 ec bf a2 88 b1 42 7b f1 f2 3f
       -0.9004536905144722 1.1839554410185333
0000f0 ca 0e 8f 28 f6 0a 0b c0 3a 14 4e b1 33 fc fa bf
       -3.380352322450425 -1.6865727354027187
000100 df 15 c5 93 31 fd eb 3f 38 cb 27 53 73 0e eb 3f
       0.8746574293260742 0.8455139755372789
000110 75 cb 84 2e 81 6f a7 3f fa 15 85 b2 c7 b6 dd 3f
       0.04577258770804963 0.464281009994323
000120 9a 3b a5 20 de 7c 07 40 73 f8 49 83 93 fa 07 c0
       2.9359705496239714 -2.9973516709279067
000130 29 1a be 63 c0 e7 ed 3f 90 53 de 84 23 9a f4 bf
       0.9345399807069202 -1.2876315298246688
000140 60 f1 d2 52 15 ce 05 c0 d6 96 c2 93 b3 f6 dc bf
       -2.7256266089081436 -0.45255746297548904
000150 35 63 c3 2a 07 97 e5 3f 43 9c 1f 1d d0 27 08 c0
       0.6746860347003351 -3.019439914252446
000160 93 e6 f8 11 90 73 fc 3f 0c ab 77 0a e6 95 8d bf
       1.7782135679284792 -0.014446065134469353
000170 cb 3f 17 46 4c 8e 00 c0 0a 05 93 f6 92 44 fa bf
       -2.069481418213376 -1.6417417175110267
000180 77 86 22 b2 68 c7 f2 bf 88 08 52 50 f3 fc 00 40
       -1.173683830107988 2.123510959151705
000190 36 e7 6f c2 0a 96 fc bf 42 81 c7 c8 f2 97 0a 40
       -1.7866313548278874 3.324193543041617
0001a0 4f 69 84 3e d4 2f cc 3f 11 9e 13 15 19 e8 f8 bf
       0.22020962765311444 -1.5566645453744778
0001b0 db 3e 9e 97 42 fe 10 c0 41 59 1d 78 ca dc e5 3f
       -4.248300904305974 0.6832020135869145
0001c0 bd f3 9d 63 6a 88 0c c0 2a ef 27 20 97 8e fc 3f
       -3.5666091711595684 1.7848120933621865
0001d0 06 5c 08 99 ef e5 f1 3f f2 3f 05 d0 e0 8c 01 40
       1.118636701377683 2.193788170967303
0001e0 39 61 b0 c4 28 fa 0c c0 01 d4 98 76 8a e7 fb 3f
       -3.6221480718924366 1.7440285332388614
0001f0 36 e2 86 85 f7 8b f7 bf 51 3a 67 7c b5 72 c4 bf
       -1.4716716018575773 -0.1597506387174286
000200 d3 f2 5b a6 06 85 c0 3f 1a 26 a2 ee 92 27 08 c0
       0.1290596306133894 -3.019323219607725
000210 40 e8 2a d2 5b fc 0e c0 ff e3 75 ec 30 5d dd 3f
       -3.873222009596276 0.458812933844058
000220 3d 3c 73 32 f3 15 d7 3f ed 0c 7e e6 d8 19 d8 bf
       0.360714720981324 -0.3765775919820971
000230 e1 2c 1b 53 33 8c fc bf 1a 3d e0 f5 d6 3d 0f c0
       -1.7842286344846843 -3.9051951607758726
000240 d0 f9 74 54 96 03 db 3f c2 52 89 e8 03 9a ea 3f
       0.4220939469122671 0.8313006917693075
000250 29 39 0d d0 58 0c d3 bf 2e 86 66 43 6e 10 f3 bf
       -0.2976285964731625 -1.1915114052611773
000260 99 aa a2 51 b4 3d 09 c0 b5 03 d8 da 2d e5 de 3f
       -3.15512908723515 0.48273798343148694
000270 cb 49 09 47 d9 03 05 c0 a4 a3 0e a1 df 75 c9 3f
       -2.6268792676648665 0.19890971531029067
000280 84 eb c2 7b 9f 38 e7 bf 2c 28 5e 30 f4 7d 07 40
       -0.7256619851317372 2.936500909684602
000290 c9 ec c9 b3 64 49 08 c0 4d 48 41 e3 86 8f f4 3f
       -3.0358366056439974 1.2850407483242805
0002a0 7b 7e 9d 07 61 dd cb 3f 43 a1 01 d6 c9 57 03 40
       0.21769345161282047 2.41786544029688
0002b0 fd 76 e5 4f 61 9a f5 bf 66 d6 6f f3 1c c1 0f c0
       -1.3501904602957773 -3.9692935007577033
0002c0 86 82 44 5f f4 d6 e0 bf 1b b9 11 2e ff d0 c4 bf
       -0.5262395725913656 -0.16262807607149274
0002d0 92 ae f9 3f 3d 6a e4 bf 1d 58 4c e5 6a b2 e0 bf
       -0.6379686593549698 -0.5217794874649858
0002e0 e7 de e8 ac 23 e4 01 c0 14 d5 c7 5b b4 13 dc 3f
       -2.236396170479441 0.4387026687903284
0002f0 a4 82 2d 05 8f c2 e9 bf 49 c4 c7 fb 0e aa f5 bf
       -0.8049998379829799 -1.3540181956452833
000300 b3 8d f0 ac e1 82 d4 3f b7 27 ac 01 f7 5f f2 3f
       0.32048837555540927 1.1484289231616296
000310 0b d4 f0 ed b7 64 f1 3f 64 00 78 c2 26 79 e2 bf
       1.087089471298216 -0.5772889898507967
000320 df 18 fb 56 e8 2e 11 c0 14 f3 ec 2c bc 68 ef 3f
       -4.295808180881266 0.9815350415661634
000330 06 d9 61 c3 58 7a e3 bf 48 13 c8 0d d3 d2 f2 3f
       -0.608684903722662 1.1764708078710147
000340 6c 61 73 be 61 99 e3 bf d9 5e 93 4d 10 59 cf bf
       -0.6124733657589281 -0.2449055079257423
000350 54 d5 60 c0 97 52 fc 3f 87 ee f2 e2 44 e2 10 c0
       1.7701642527366248 -4.220965906216981
000360 aa 0d 90 0b a6 07 f4 3f a3 de 2d 93 96 df ee 3f
       1.2518673373859692 0.9647934794038132
000370 73 79 98 61 94 cd 11 c0 02 2f 44 8d 98 a6 00 c0
       -4.450761341983127 -2.0813456570084563
000380 24 d6 0e 68 63 77 d5 3f 1b 6f 61 44 67 00 88 3f
       0.33541188394460364 0.011719519399938918
000390 ca b1 96 cc 7e 19 c1 3f 87 31 b4 d0 41 f6 ec bf
       0.1335905550926227 -0.9050606800315543
0003a0 eb 0c 03 fc e8 8c b4 bf 6b b8 11 21 95 ae e8 bf
       -0.08027511742243447 -0.7713113447077949
0003b0 6b 55 d5 cc 79 af c3 bf af 05 89 c9 05 7f d5 bf
       -0.15379259587886493 -0.33587784463096687
0003c0 26 f4 e1 0a 2f 6e 06 40 8b f4 98 52 ab d2 0f c0
       2.8038006639676665 -3.9778658345154034
0003d0 d1 13 7c 10 db 37 06 c0 44 e4 62 65 e6 45 04 40
       -2.7772733009210033 2.5341308518223133
0003e0 7a 11 2b f3 39 05 f8 3f 62 53 d0 6b 39 f0 e6 3f
       1.5012759684333035 0.7168242555368176
0003f0 1f 36 6f a4 cc 02 eb bf ba 85 d8 88 09 86 05 40
       -0.8440917216882474 2.690447873218287
000400 5b a5 23 13 0d db a0 3f a4 c4 45 a7 2a 85 04 40
       0.03292122706063579 2.5650227611700576
000410 48 99 54 8d 81 79 10 40 57 02 19 09 72 ed db bf
       4.11865826443529 -0.43636752022215347
000420 a7 a8 82 8b ce 0a 0c c0 ec e4 83 52 66 96 f0 bf
       -3.505276765751734 -1.0367186759233915
000430 e7 f7 23 49 9d f0 0a c0 68 f8 67 d6 a9 f2 ff bf
       -3.3674874986745524 -1.996744000934564
000440 9b 56 71 0c df 8f ee bf ef 90 ec c4 eb 21 e4 bf
       -0.9550624125501658 -0.6291407438443722
000450 85 53 a4 c8 52 50 00 c0 cd 8e 80 f4 66 f8 00 40
       -2.0392203974865333 2.1212901212437374
000460 1a cc 8f ce c3 5e c2 bf 6e be 92 71 09 76 d6 3f
       -0.1435169943430033 0.3509543999780139
000470 71 4e ed 28 15 53 ff bf 43 a3 50 3d 00 fb 04 c0
       -1.9577838515005193 -2.6225590505822836
000480 ee 2d 5a 53 9e 77 fc bf 2e 5a 73 24 21 82 e8 3f
       -1.7792037254283701 0.7658849441457443
000490 6b dc 28 ce de 94 fe 3f b8 d5 39 bb 0e 24 e9 3f
       1.9113452962026496 0.7856515557056616
0004a0 ac 34 b8 4e ce ac e5 3f 52 3d ae 79 56 35 02 40
       0.6773444688311847 2.276043844823712
0004b0 6e b4 a2 96 0a 75 10 40 1d 82 16 83 79 08 f4 bf
       4.114298204117501 -1.2520690079328525
0004c0 d4 3f 47 3e 52 c7 fa 3f 6b c9 ce b7 d0 4a e2 bf
       1.673662417673758 -0.5716327276225405
0004d0 c4 a8 ca 12 c9 b5 0d c0 b4 02 fd 4f 61 79 e1 bf
       -3.7137624233338062 -0.5460669100067066
0004e0 e3 c3 66 80 29 d3 fd 3f e9 38 6a d8 ca e5 01 c0
       1.864053250854561 -2.237203303090713
0004f0 b7 d4 f8 c0 1e 40 eb 3f 53 af 43 a3 6a 25 d4 bf
       0.851577164553098 -0.3147837252024505
