src/params/weight2.npy (npy, 100432 bytes, 1 tensors)

array (column-major) f8 [16, 784]
00000000: 30f2 e251 0823 ca3f 60fc d427 a623 d1bf
00000010: f0bf a442 de83 ed3f c871 5242 933b e93f
00000020: 242b 81ee 32f5 e93f 08da 5d46 5fd6 e03f
00000030: 3828 2218 c12b d03f 5887 540d 383f ec3f
00000040: 4405 8043 c885 e3bf 9491 5215 356d e23f
00000050: 004e 09f6 a1e8 dbbf b897 06c7 b4f6 ddbf
00000060: 2062 8999 a8a6 b53f 00ff 9fe5 e9a8 a93f
00000070: e002 3518 6ca7 c73f 004c 34d0 a40e bf3f
00000080: c008 5c4d 1507 a53f 8038 a506 94b9 c8bf
00000090: 4073 ac59 9f18 b7bf c038 9b13 12f5 ecbf
000000a0: b0bf c505 1179 e03f 30d5 d776 0443 d5bf
000000b0: 7045 afd9 f112 c2bf 88cb 5f9d 0ab1 e4bf
000000c0: d083 9f0d dd6e c8bf 40f7 f316 5639 aa3f
000000d0: 8024 333f 8d7d c63f 581d 9be4 fc90 e5bf
000000e0: c0bb b4b1 b714 d0bf 409c ec1f 6eb1 c03f
000000f0: 6cf3 22e8 a866 e8bf 4025 75f8 27bb d3bf
00000100: e0ab 0d6d dec7 b2bf 08dc 4b3a 9e66 d13f
00000110: c02b 0f9d 4668 dc3f a054 a411 0741 c23f
00000120: 8032 86ca 631e bcbf 2090 fe2e 95dc de3f
00000130: c0b4 a337 fe9e be3f 700c d91b 9bec eb3f
00000140: c852 61be 2c62 dd3f 5c48 d42f 72ac e6bf
00000150: 248b 3e61 45a2 ef3f d078 1d42 6e01 e13f
00000160: d053 4158 e6bc ddbf e032 0ee5 008e babf
00000170: a80a 03df caca ed3f b833 c5d4 050e e8bf
00000180: b034 54d8 12f0 d53f b04a d20d 3216 ce3f
00000190: 80bf f18e 39d3 cc3f 0009 6e7c 7232 b83f
000001a0: f88c cbed e835 e93f 40a4 2ec0 c59b a63f
000001b0: 08b4 d6db 05be e8bf f4d5 f674 2d2b e63f
000001c0: 40b2 0e1e cb93 edbf 602c 5165 c66d d23f
000001d0: a809 7656 c051 e03f c039 57a6 4b9b aa3f
000001e0: a0df b6f2 70ee ed3f 5010 d0b7 55e7 ee3f
000001f0: 98a9 d536 8c0d d33f 0040 05d4 7cb0 dbbf
00000200: 102e f6f8 2119 e23f 90eb bbe0 7ebc c73f
00000210: c0ee 4d48 8c30 aabf 7c94 3d0e 7a18 e6bf
00000220: e0ba 7218 bfe5 cfbf e8c2 ddd6 e5ec e2bf
00000230: ec28 4ebf 0f86 e53f e06a f54d 7388 b8bf
00000240: d874 376a a41a e6bf 20ee adaa 02fa e4bf
00000250: 8028 440a df29 9e3f 80c3 a3c8 2bc3 a53f
00000260: b87f 0c1c 723f edbf 1849 8510 bab7 e3bf
00000270: 90da 3a62 39c6 d13f 80e9 ff6a 1bbf 98bf
00000280: e035 1009 43d6 b7bf 3895 3e32 408d e53f
00000290: c813 335b 7038 e43f a4e6 cb61 9164 e3bf
000002a0: 40f1 5e28 c1d0 dc3f 40b4 d17d 13e6 e8bf
000002b0: 74af 1700 61bf ef3f a0f1 bb9d f638 bd3f
000002c0: 401a 6bfa a89b e13f e082 6234 68c9 c13f
000002d0: 7858 e4fe 4c5c d6bf 60f3 62aa 55be be3f
000002e0: 304e 9497 57d9 dfbf c8ae ff32 c544 d43f
000002f0: 0015 f94a e4ef eebf 10ec c7c6 45dc e23f
00000300: f070 00e0 6b49 e33f 64d5 a034 77bf e23f
00000310: 404b 43af 7ce5 adbf 906d 803d 920e d0bf
00000320: 5874 cbc3 c9e7 ec3f 583a 7400 0c34 d9bf
00000330: b88a fadc c511 d4bf 20d9 a77b 3ad0 cc3f
00000340: 98c2 1b4c 9b35 edbf c022 69c9 d0f7 e63f
00000350: c421 46a6 19b0 e63f c04d 2565 1d9b bf3f
00000360: 182c c0fa 02b9 e33f 709a a28c 42de c83f
00000370: 0018 db67 868e 7abf 08e7 aa3a 5e2d da3f
00000380: 78a1 5e59 db91 edbf 7886 f506 41c3 da3f
00000390: 58bd 4617 be10 d2bf f8e0 cdd7 07eb e53f
000003a0: a886 c00b 4fd2 d43f b081 aa5e c7c4 d13f
000003b0: 2071 12a0 ee99 d7bf 4087 f452 67b6 ddbf
000003c0: c8d4 1c8a 0e5e efbf 403d 1c73 095a b63f
000003d0: 5c46 27db 2140 ea3f 504c 8e2a c634 d23f
000003e0: 889d 0778 e901 d03f bc07 b5cd 6a13 e93f
000003f0: b4ff f5c9 e86d ec3f c816 d58a 6c90 d93f
00000400: a4e5 8358 68e9 eb3f 9896 cc17 d07a d23f
00000410: fc96 47a9 0110 e73f 34a0 83a5 a24b ebbf
00000420: 5494 be32 5ad2 eb3f 207b 5b0e d4b6 b63f
00000430: 0c7f 84d7 0dd3 e4bf acec dc4b d2e2 e03f
00000440: c098 12b6 66e9 e5bf 00cf 8075 e055 d9bf
00000450: b804 843e 2115 de3f 400c 77c9 7638 a93f
00000460: 780c d206 43a7 da3f 1085 0710 b812 edbf
00000470: 5459 b23a dc65 eebf 8061 1438 cc28 98bf
00000480: ec17 6f82 55c8 ebbf 004d 880d 62d4 cf3f
00000490: a0aa 0ac5 9474 b83f 28e6 a976 9333 d43f
000004a0: 8c04 e3fb 63b1 e93f c07d d3b1 6acf b2bf
000004b0: 0038 f2d6 5aa2 bb3f 98d1 709e 5ed8 ddbf
000004c0: 78c0 52b4 dc7d e4bf a870 153b 43fd d03f
000004d0: b8d8 9f48 0a2c ecbf e01a 7fcc f879 ce3f
000004e0: a070 3021 c6bf babf 0037 0b9f 8010 cbbf
000004f0: e41c c11f 4ce2 e93f 7062 d2ec af95 c0bf
00000500: e439 20a4 02ca e0bf f49b 68bc 5516 edbf
00000510: 90c4 07ce f6d6 e53f 78df b68b 7be7 e9bf
00000520: 2cc4 1ad1 1f13 e63f 50fb 73b9 0c6e c63f
00000530: 2831 c579 2828 e0bf c00e 3ee7 0939 d3bf
00000540: c060 9e9b 7b62 ef3f 74c5 9158 4e20 e1bf
00000550: 305f 6ec7 080e d43f f4c7 b024 97e4 efbf
00000560: 2c95 83d0 851d e8bf 6016 599f d663 b4bf
00000570: d810 3699 5ff7 da3f 6887 718a 77fd e43f
00000580: 58c4 c8fb d12c e13f 784e 012e c05d d8bf
00000590: 7868 2d98 d0d6 e2bf 40b7 038d 38bf a3bf
000005a0: a0b9 ff40 00a9 cd3f 1008 e769 23cd da3f
000005b0: b010 2d9b 033a e2bf 0cac 2b83 7c10 e43f
000005c0: 04f7 c552 4a75 e63f e027 409b 051f e13f
000005d0: fc04 0f16 8dd5 edbf 9039 91a9 81f0 c9bf
000005e0: e05f aba6 165e dfbf e88a 4ade aefc eebf
000005f0: 8031 33d3 476a d13f 9405 8bc5 32fb ecbf
00000600: 7765 50a0 c38c ed3f 1f08 fdb1 d285 e33f
00000610: 156c 1f8a b806 e23f eff8 1e23 7ce6 cabf
00000620: e048 4ba2 8276 de3f 9174 7b24 6b68 ebbf
00000630: dc51 c0bb 286e da3f 9b5a 0c56 3157 cfbf
00000640: 73c6 4f96 16d7 d43f 3840 d328 e3e7 e53f
00000650: f27b 8bc1 21b1 e63f 4368 53f6 b09e b4bf
00000660: c54d 71ab 59cc da3f dca8 a9a8 6ec0 e4bf
00000670: a5ec 2d86 bf74 cb3f d789 5608 1eab ebbf
00000680: 2828 4242 cc0a b33f 1833 a58f 8db8 c5bf
00000690: 953e bccb e94d ee3f d5ac acfc cb94 ec3f
000006a0: 53e1 d44f 6058 cb3f 02b4 c217 2e83 d9bf
000006b0: 4ac0 ee27 ecd3 de3f b484 b06b 2fa5 e43f
000006c0: 61c2 0357 5368 e23f ef71 51ad e7f6 d0bf
000006d0: 4837 7fc7 7457 d63f b6b7 7365 4781 e13f
000006e0: 4287 0021 0353 d13f 5850 328f dcfe dfbf
000006f0: 96f4 f667 9278 7c3f 917b 34bb f3db db3f
00000700: 67c6 ea60 3a53 ebbf 59f9 d502 51e5 d4bf
00000710: 0727 a943 5dd1 d6bf 74c5 03ef 8694 e8bf
00000720: f0f0 5b48 8c72 e43f 67fd dd45 9f77 d9bf
00000730: 4194 693e a51e edbf a7e5 12ad b5da e33f
00000740: 9adc b888 8e78 773f 70c6 4e02 c5af dcbf
00000750: dc60 7a5b 47d8 bd3f eb5c ce1d 038a e93f
00000760: 03a7 0644 53c8 ea3f f91b d20a 610e efbf
00000770: 4e51 c65b d5aa e5bf 8798 775f 29b9 e2bf
00000780: e220 5880 c01b ea3f f534 0261 b458 e13f
00000790: 62de f0b0 f649 c7bf 93b0 f69c b3cf d8bf
000007a0: 70fe 0767 fdcb c43f cf9e 7142 59f7 d93f
000007b0: d88c 4d95 907d cb3f 7c5a 9381 3856 e5bf
000007c0: c3a7 e56a 6be8 e1bf c643 67aa 3cf2 e4bf
000007d0: 5d68 f324 a0ab edbf 1265 c9bb 8f4f e7bf
000007e0: 3b76 2c45 a932 e23f a8f0 309f b280 e4bf
000007f0: 1711 5f3c 565b ed3f 772d 9215 737f c83f
0.20419410704006813 -0.26780084504929924 0.9223471929199132 0.7885223670341981 0.8111815126697803 0.5261684774730506 0.2526705489805212 0.8827171573977735
-0.6100808447228379 0.575830976148199 -0.43607377078043896 -0.46818274913891456 0.08457425831273513 0.05011683395423283 0.18479682142244425 0.12131719668495577
0.04106966561632097 -0.19316339802248095 -0.09021945895478911 -0.9049158461509919 0.5147786247962269 -0.33221541982432523 -0.1412031472123476 -0.6466115068163711
-0.19088328519049336 0.05121869116008648 0.17570653520514057 -0.6739487137755686 -0.25126449922657557 0.13041473921586721 -0.7625317129055538 -0.30829810393750634
-0.07336225664555185 0.2718883103656826 0.44386449182337273 0.1426094852583093 -0.10983871168554948 0.4822133025102193 0.11961354120622314 0.8726325553801768
0.45911711303533 -0.7085505422749168 0.9885584735205595 0.5314246455489187 -0.4646545278422396 -0.10372930137800607 0.931004939622956 -0.7517117648763962
0.3427779305064389 0.23505235361934274 0.22519607047751933 0.0945197633537056 0.7878307957111295 0.04415719958280606 -0.7731961530422504 0.6927706989724229
-0.9242911898668993 0.28795013326879904 0.5099794090931953 0.051966060691131855 0.935356592227425 0.9657391157238724 0.2977018867010428 -0.4326469488632938
0.5655679571659125 0.18543992970793655 -0.0511516416799771 -0.6904878881583865 -0.2491988057494927 -0.5914181896788167 0.6726149307662843 -0.09583206799781463
-0.6907522272628297 -0.6555188497145004 0.029456601144410843 0.04250466179099188 -0.9139948413685408 -0.616177589671028 0.27772364228022983 -0.024166515737286343
-0.09311312648079406 0.6734925252282329 0.6318895131340634 -0.6060263547980935 0.45024136488406796 -0.7780854661374477 0.9921116830641794 0.11415044165545973
0.550251473520639 0.1389589553628161 -0.34938359157366206 0.12009177598788545 -0.4976405124918726 0.3166974065813801 -0.9667836632076217 0.5893887407722804
0.602712571624151 0.5858722713370921 -0.05839147223891539 -0.25088935857794414 0.903294451152429 -0.3938016895707839 -0.31358477191876544 0.22510462797044628
-0.9127937780850344 0.7177509244730444 0.7089966056383266 0.12346061438920852 0.6163344285463408 0.1942828356452142 -0.006483578703130988 0.4090190480161344
-0.924054789114094 0.4181673591575428 -0.28227188370779777 0.6849402632642798 0.32533622882520286 0.2776354240868626 -0.36877027160677933 -0.4642580328091874
-0.9802315423500199 0.08731135425863545 0.8203286438312705 0.2844710746368877 0.2501166984715941 0.7836202638356933 0.8884166664647553 0.3994399410042715
0.8722421387494035 0.2887459022916601 0.7207039171450726 -0.8529828293512822 0.8694277754881434 0.08872723913689784 -0.650763436253301 0.5276881677340461
-0.6847413593393625 -0.3958665034763129 0.47003966431664024 0.04925891122140813 0.416458851490638 -0.9085350335191453 -0.9499341150683827 -0.023593130991771627
-0.8682048366106279 0.2486689153744024 0.09552888689601469 0.31564795101403087 0.8029041213668662 -0.07347742883165775 0.1079460882922092 -0.46633115265583447
-0.6403640291155304 0.2654579236020802 -0.8803759973950696 0.23809728608303882 -0.10448873815807014 -0.21144111409960686 0.808874189396104 -0.1295680910450474
-0.5246594625075969 -0.9089764289718674 0.6824907325773371 -0.8095071533962104 0.6898345073769909 0.17523345046353223 -0.5049021128011519 -0.30035636503474095
0.9807718314578082 -0.5351936082717388 0.3133565852708555 -0.9966541020023656 -0.7536038467921222 -0.0796484126122663 0.4213484760478088 0.6559407905553885
0.5367212217007689 -0.380722088744029 -0.5887225124563562 -0.0385682747017726 0.23172000097060863 0.41877065031087657 -0.5695817976743651 0.6270124971318878
0.7018176666894935 0.5350368530500837 -0.932318251689281 -0.20265217570927208 -0.49011770511924446 -0.9683451024651193 0.2721118509769198 -0.9056638582480212
0.9234331256040339 0.6100858188949622 0.5633204171857665 -0.21015884127513781 0.4759832940009243 -0.8564964020294089 0.41297357878764074 -0.24484841062140536
0.3256279437910969 0.6845565602652703 0.7091225414441154 -0.08054643644155228 0.4187225507968971 -0.6484902662462235 0.21450037051895268 -0.8646383440830573
0.07438351266515097 -0.16969460977488704 0.9470108966069853 0.8931636748360697 0.21363452814126535 -0.39863159485213384 0.4816847219435699 0.6451642134963067
0.5752350520616113 -0.26506988454437325 0.34908790094492703 0.547031114719849 0.2706916639600544 -0.4999305151370712 0.006950923823237384 0.435299809281724
-0.8539096730148231 -0.3264963653272353 -0.356528583598092 -0.7681307476288297 0.6389829076065592 -0.3979261572166792 -0.909990903758292 0.6204479580257399
0.005730206273759775 -0.44822812295306047 0.11658140166617009 0.7980971891546721 0.8369537666924035 -0.9705052577345433 -0.6771036903833563 -0.5851027359574495
0.815887690231673 0.5420781988811131 -0.18194469108287864 -0.3876771004531829 0.16247527628728475 0.4057219647279284 0.21476943292791506 -0.6667749911092211
-0.5596215331872759 -0.6545699432555174 -0.9272003862090618 -0.728462092181106 0.5686842299507541 -0.6407101735308247 0.9173995188835161 0.19138945153495587
