src/params/weight3.npy (npy, 3920 bytes, 1 tensors)

array (column-major) f8 [16, 30]
3.4510807868024718 13.731722520854305 -7.338094682277367 10.76878832936921 -7.632098840764268 -4.201903141648476 -35.63910277386353 -13.267547982407534
10.079547712683308 -3.247995100400785 -1.5646285869885215 -13.506326323142016 1.9625427403229552 22.977415296972556 4.29338342612723 12.1208418204842
9.940581562472776 1.2128941995879292 -9.734400232502495 -10.309159613888191 -4.34076035866524 -5.954256996208337 7.329925743536523 18.667170968736478
-12.246030409024149 -5.259057479972943 -17.214692174522582 -13.908712455423856 -2.2948416490104604 10.561478609613438 -19.646824122134465 10.313544774451817
17.768151049927308 19.27578726016988 -3.001189761111711 -6.606720531126247 -2.257762953710666 5.13942152534444 1.7051068182480615 1.7420717686304177
-4.21218724590811 -3.4723672289459784 -13.279238928847123 -8.73559007803889 3.958771217131039 -2.8280732443275824 1.1139637589218918 -5.8699021060007714
-0.252538602806809 -0.5280481727211344 -7.585157361119825 -0.7323409942420904 4.530558448610894 -3.125305098410451 -4.4574625940817105 4.646062266407696
7.838011020567497 -2.7377892229101035 -5.420491406083313 1.4683085709686945 -3.576411229261014 -4.724261305911151 0.9102933664964373 -5.45275051048547
-0.24000944588964038 1.7053398479614827 -1.30307981591913 -3.6164529182451637 -2.987764919763364 -0.43708020774240136 -0.6962736470926884 2.170847178264747
4.81174356169461 0.6120952809789874 2.976934744558811 1.52804119804246 -4.971721753052445 -1.8917527956115676 1.7565147544059379 -4.326313869780587
-1.2209465423253467 9.355481013532893 21.2624106302331 -2.4572922034989806 15.09901330265386 -11.258110615289338 -2.5754331954264544 2.720068863357163
-0.9309385700635421 -3.4309942192820126 5.154524385457797 4.495785842918378 8.181968403553588 0.07021160382691133 16.786706834216453 -19.540372776396136
-3.0559469784879942 7.890521889073662 6.704105021789739 1.5604433152548056 -4.2966392907833715 -8.794254826859843 -19.48512473735699 -8.468961084621268
-3.87190189579413 -5.006827646996795 -1.933940106293479 -6.052010866948038 2.448933534872313 9.524169771157945 -0.14317213897499215 10.275595332175081
-2.7601543464317477 -3.863279004929664 0.9258019385942178 -3.4259219460427413 -2.1281338656702267 3.586303648251453 -15.56717912683804 0.29529464816819007
-6.509269095945021 0.6952823418701817 -7.20494044952925 -5.860223396721802 14.029112850949732 7.295187742587498 9.96630541434324 -2.958966882726269
-6.047441781477773 -13.496082425243856 7.883384999003234 10.771393301297019 -0.2881155634185074 -7.722002790418881 -11.5835451946863 2.176338014520121
6.464777307144646 10.596899079660902 5.795275740500941 3.112090748590121 14.400173600297647 17.277052718524672 4.876077863346888 -5.0663129375130085
-16.459188611757114 -15.637442059547869 0.540697786764351 11.018821256909794 12.082879219768714 -6.5402097325438255 -6.972576541154283 0.06815348390081712
1.285599547393448 -5.73627964767649 12.185359615313546 1.0501824070909482 -0.013330825947859955 13.462224244479408 2.233815439882535 0.16558951889992818
12.21829882097272 22.8438357535795 7.711669098271726 9.933591925987761 -2.967974558059044 -6.584969311344065 -21.36199427884957 -18.368772808706247
-7.432476177288399 -2.7391841510325494 6.138802073679799 1.8625635812684638 -8.357891074250388 -0.20173824449474723 2.287575391350295 8.437195982694414
1.1905704600121503 6.203499629434397 10.51047053407139 -9.055778108492017 12.674660309894376 8.84351224916826 3.9579266818409753 10.412870493114326
-15.223531335750797 5.867342942993728 -5.248044490001724 10.138432540026557 19.230592258971495 -9.336610129750742 15.864386080857956 -22.36382144749561
-1.1992427033141602 -11.077239684969081 5.1909415214861045 4.755682977388126 -1.6933014267846405 -5.304257968491269 -5.400481768066234 -2.6985047550723142
16.65357181728899 -3.2835592646850924 10.517450481832249 -6.24781107526998 -0.768830111711233 18.74092116726672 3.3263265742462558 -1.7801515142095832
27.617159760021632 15.120377982083129 6.925708428044319 -4.221780783132567 -13.665320150155358 10.533444281081467 15.53911536030378 4.2249939414418325
-2.2342738537486393 5.176538166281845 -11.410044708724596 -1.25220928906758 4.834030236897054 1.4922352407592672 -6.247472655844866 -9.326630006317936
0.4678183511104475 15.680031601546302 4.23302132827886 -10.21156460385681 -12.865107480335716 -11.618776662150806 -25.90946177857877 -3.0008064810450428
-3.3468496268377756 2.3344489653573928 -18.841059973831435 -21.232470556099024 24.656625179127918 17.949461129016044 10.646292859901214 -2.060989861272374
0.7887074569173225 2.1060505157213467 -7.065547579757395 6.01638525181035 -4.548852057502209 -1.8829210464138353 -3.486015026069828 -5.812769658504957
-14.700285715834381 6.951049526659646 -5.7663540387664804 -1.5596048592941387 3.1349009524218308 2.1380176828454314 -1.4517242922599605 6.6904621264035145
00000000: 515d 593e d09b 0b40 c0a1 9155 a476 2b40
00000010: ca54 0d7e 355a 1dc0 dd5f b89f 9e89 2540
00000020: 2cb0 23eb 4487 1ec0 045c 79b2 bfce 10c0
00000030: 6c43 a41e ced1 41c0 2f1a 950c fc88 2ac0
00000040: 90e4 507a ba28 2440 1e51 eeda e4fb 09c0
00000050: cb09 38fc b708 f9bf 6eff 2d34 3d03 2bc0
00000060: 6d07 6b37 9366 ff3f 751b 8fe3 37fa 3640
00000070: 9a9e 71b4 6c2c 1140 ffef a5fa de3d 2840
00000080: 1215 14e8 93e1 2340 e2cf 8bbf 0368 f33f
00000090: c88b a94e 0378 23c0 9cc9 3d2b 4a9e 24c0
000000a0: 35f6 9048 f05c 11c0 a9c6 fabe 28d1 17c0
000000b0: 3364 da0d d851 1d40 5690 73b7 cbaa 3240
000000c0: 1329 a1b2 f77d 28c0 6512 315d 4609 15c0
000000d0: 1848 fc10 f636 31c0 d206 4bc2 42d1 2bc0
000000e0: 36fd 3ff0 d55b 02c0 f462 d31f 7a1f 2540
000000f0: d9d4 0244 96a5 33c0 5a34 d0f0 88a0 2440
00000100: 6bd3 158c a5c4 3140 4515 6ffe 9946 3340
00000110: d184 08c7 6f02 08c0 f5fe 9b25 486d 1ac0
00000120: 1d76 0206 e60f 02c0 ead9 2e84 c48e 1440
00000130: 1efe 4816 1e48 fb3f 22d7 98a5 86df fb3f
00000140: ee36 079d 47d9 10c0 7333 4078 68c7 0bc0
00000150: 4156 a667 f88e 2ac0 d4e0 4043 9f78 21c0
00000160: 3464 6f3e 90ab 0f40 fda2 78dd e49f 06c0
00000170: e5fa 97a9 cbd2 f13f b7fa 1f9e c77a 17c0
00000180: 0b19 02ac 9729 d0bf 3898 1148 c5e5 e0bf
00000190: df17 c47d 3357 1ec0 e246 7961 566f e7bf
000001a0: e599 c5b6 4a1f 1240 418f 9df5 9f00 09c0
000001b0: a7e5 0213 71d4 11c0 4f9a c558 9195 1240
000001c0: 9519 9c8f 1f5a 1f40 d3eb 3d09 fee6 05c0
000001d0: ee81 954c 95ae 15c0 def3 cb20 317e f73f
000001e0: 24c9 957d 7d9c 0cc0 2a96 7ac1 a4e5 12c0
000001f0: 2bc6 db8d 1f21 ed3f 2d21 6fd4 9dcf 15c0
00000200: fddd 6928 a1b8 cebf 80f6 b86f 1249 fb3f
00000210: b034 9738 6ad9 f4bf 0b18 1bde 7eee 0cc0
00000220: 5f28 544b f1e6 07c0 47e1 7e43 1ff9 dbbf
00000230: 3f8d eaab df47 e6bf 7816 1a20 e55d 0140
00000240: 1dde 48b4 393f 1340 dde6 bad7 4896 e33f
00000250: 50a6 d129 c3d0 0740 4587 c853 db72 f83f
00000260: 2bb0 f806 0be3 13c0 c64a 5494 9e44 febf
00000270: f0d6 1137 af1a fc3f 5bc1 1b39 254e 11c0
00000280: ef39 d73d ff88 f3bf 07f2 7e9b 01b6 2240
00000290: 52f9 d257 2d43 3540 81f3 95d0 88a8 03c0
000002a0: d988 21df b132 2e40 17d6 1613 2784 26c0
000002b0: 7d1d 1bb8 7c9a 04c0 30e5 d776 b3c2 0540
000002c0: dd40 20af 3fca edbf 7fa6 e418 ad72 0bc0
000002d0: 27e7 f7a3 3b9e 1440 ee9d b448 affb 1140
000002e0: 0356 6cf6 2a5d 2040 ac7d 3c3e 63f9 b13f
000002f0: d67f 7c9e 65c9 3040 2745 cade 558a 33c0
00000300: de53 5754 9472 08c0 2ac6 57f8 e48f 1f40
00000310: 2b25 26e8 00d1 1a40 d47f e468 93f7 f83f
00000320: 2c7e d235 c22f 11c0 391b 9491 a896 21c0
00000330: ca6d 8122 317c 33c0 0f17 d3aa 1bf0 20c0
00000340: ac0c 7eb3 a7f9 0ec0 4e3d a2d3 fd06 14c0
00000350: 8940 4f2e 6bf1 febf 5050 3256 4235 18c0
00000360: 86d5 1277 6a97 0340 b159 f1fa 5f0c 2340
00000370: 5c48 4cf3 7653 c2bf 953e d5d4 1a8d 2440
00000380: 61b1 4ecd cb14 06c0 7cf8 abd2 fee7 0ec0
00000390: f4bc 1a63 2ba0 ed3f cf37 e7c3 4968 0bc0
000003a0: 6b82 540c 6b06 01c0 b31f 96f7 bfb0 0c40
000003b0: 877c 714d 6522 2fc0 aa3c 2486 1be6 d23f
000003c0: 16ca 7fd6 7d09 1ac0 f832 fac0 c03f e63f
000003d0: 346c c1e8 dbd1 1cc0 5ab2 f066 de70 17c0
000003e0: e171 2de1 e70e 2c40 9c5f 12b2 452e 1d40
000003f0: 991a 5195 bfee 2340 180d 3ad4 f6ab 07c0
00000400: e1a4 0f94 9430 18c0 e015 0184 fefd 2ac0
00000410: c9fb c113 9688 1f40 2dd9 1210 f48a 2540
00000420: 7a78 9642 7c70 d2bf 1de1 11b3 54e3 1ec0
00000430: cbd4 8d6f c62a 27c0 733e abe7 2369 0140
00000440: d36f 1895 eedb 1940 e94f 94c1 9c31 2540
00000450: d003 83c3 5c2e 1740 a207 9bd5 8fe5 0840
00000460: 7f00 dc8d e3cc 2c40 d454 4ded ec46 3140
00000470: 3a4c 2f8e 1a81 1340 25ae e789 e743 14c0
00000480: 4431 8662 8d75 30c0 bab4 3dce 5e46 2fc0
00000490: de84 e571 654d e13f 5bcb 95f0 a209 2640
000004a0: 68d9 2425 6f2a 2840 cc06 79bd 2c29 1ac0
000004b0: 3175 d41a ebe3 1bc0 9164 76b8 8172 b13f
000004c0: 8bea bcd4 d091 f43f 78ec bd4a f3f1 16c0
000004d0: a98a 9b74 e75e 2840 95a4 5411 8ccd f03f
000004e0: 843d cc2b 314d 8bbf 2cea faa7 a8ec 2a40
000004f0: 43c3 1ca1 dade 0140 0227 1e90 0932 c53f
00000500: 98aa f1dc c46f 2840 c9d1 b49e 05d8 3640
00000510: 7f9a bac8 bfd8 1e40 abda cbc2 ffdd 2340
00000520: 08ca f171 69be 07c0 ad8b f531 0257 1ac0
00000530: 7dff 34a8 ab5c 35c0 220c 11e5 675e 32c0
00000540: d702 f708 dbba 1dc0 2740 5361 d9e9 05c0
00000550: 7149 7c21 228e 1840 8e4c 4478 0fcd fd3f
00000560: 17df b67f 3db7 20c0 cd8b 3a0d 8fd2 c9bf
00000570: 11df a753 f44c 0240 ed3a df26 d8df 2040
00000580: b05f 559c 930c f33f e8ac f434 62d0 1840
00000590: 09d1 d264 5c05 2540 a69c bff2 8e1c 22c0
000005a0: a7cf 7d13 6d59 2940 fae7 67d6 e0af 2140
000005b0: 44c8 d376 d5a9 0f40 a0d1 e2c2 63d3 2440
000005c0: 9b5c 01b3 7272 2ec0 3e4c 9abf 2878 1740
000005d0: a70a f25f fffd 14c0 883b 40a1 e046 2440
000005e0: 4bfe 2218 083b 3340 4290 b529 58ac 22c0
000005f0: 19ce f8cf 90ba 2f40 b893 0267 235d 36c0
00000600: 1637 eb1d 1930 f3bf 85ca c1f5 8b27 26c0
00000610: daec 982c 86c3 1440 881a 28c2 d105 1340
00000620: 74f6 a43c c317 fbbf 9ede a066 8f37 15c0
00000630: 76f4 81e4 179a 15c0 b116 39a9 8996 05c0
00000640: f0d7 8c7b 50a7 3040 f966 42b8 ba44 0ac0
00000650: b489 0145 ef08 2540 117c bf2f c2fd 18c0
00000660: 4c5a 3f9b 419a e8bf 2053 7602 adbd 3240
00000670: 88a0 611b 519c 0a40 d747 7727 807b fcbf
00000680: 3bb3 992e fe9d 3b40 3969 d02e a23d 2e40
00000690: e353 00e9 ecb3 1b40 19be 6980 1ae3 10c0
000006a0: fb92 bcd7 a454 2bc0 5df7 da9b 1f11 2540
000006b0: 4f8d b2ed 0614 2f40 ca29 d1cf 64e6 1040
000006c0: 2f44 61f8 cadf 01c0 91b4 ca6b c6b4 1440
000006d0: 6fbd 4b61 f1d1 26c0 c3ae 849b 0c09 f4bf
000006e0: 5564 bd05 0c56 1340 eefe 4f0f 32e0 f73f
000006f0: 2708 ce78 69fd 18c0 3d0e 560c 3ca7 22c0
00000700: ad3b 9f61 bcf0 dd3f 97c6 211a 2d5c 2f40
00000710: a9e9 a024 9dee 1040 c61c 1d32 526c 24c0
00000720: 3c22 1f5e efba 29c0 77ee 6e4b d03c 27c0
00000730: 33f5 b37c d2e8 39c0 d8b4 0dd4 a601 08c0
00000740: 352f df18 59c6 0ac0 d920 4394 f3ac 0240
00000750: a494 d9b4 4fd7 32c0 6eba bb30 833b 35c0
00000760: a515 7696 18a8 3840 78f2 71e2 0ff3 3140
00000770: fbd3 d1e5 e64a 2540 5d6b 9c40 e87c 00c0
00000780: 8247 b26b 173d e93f 19fa 4503 31d9 0040
00000790: 528f 9de7 1e43 1cc0 12a6 a24b c710 1840
000007a0: d841 1546 0632 12c0 a5c2 b4d1 7120 febf
000007b0: 0ead 92d8 5be3 0bc0 ead6 79b0 4640 17c0
000007c0: afba 6ed9 8b66 2dc0 9184 57ed dfcd 1b40
000007d0: 61a3 f61c bf10 17c0 ba9d 9539 24f4 f8bf
000007e0: e1ce 56f3 4614 0940 04ba d003 a91a 0140
000007f0: 5f0b 6140 433a f7bf 6d1e f080 08c3 1a40
