src/params/weight3.npy (npy, 3920 bytes, 1 tensors)

array (column-major) f8 [16, 30]
0	0x3fd1369a04c894df	0.2689576193536833
1	0x402528fcf1ebc2ac	10.580054817227698
2	0xc0066ba797106703	-2.802565746486722
3	0x40100f7987d79d56	4.015112040076323
4	0xc01037eb131d0eee	-4.054607676170901
5	0x401a9cbf24c59d3b	6.653072905122197
6	0x4014bc331a71dac1	5.1837886936179425
7	0x3ff2393f2d38c534	1.138976265571114
8	0x40062be4969323c4	2.7714320911077
9	0x3fd5dd8092065b6c	0.34164442310559795
10	0x4015e546f7645f3a	5.473903527737827
11	0xc015ca7e5b38d8a1	-5.447747636170022
12	0xc01afd15cb08818f	-6.74715344657342
13	0x3fef493cff1f8865	0.9776902182459365
14	0x4012e770a4dbbc69	4.726015640174503
15	0xbff199393ad02393	-1.099908094156693
16	0xbfc226e9de4e9f5e	-0.14181254725303466
17	0xc020b27011e96904	-8.348511275999506
18	0xc031b73651ff4951	-17.715672612024097
19	0x4010f208d7bfb032	4.236361857485507
20	0xbff868b0f38a5c7f	-1.5255593789386521
21	0xc01e22c774e2d131	-7.533963991493054
22	0x40163f94ed41901d	5.562091548086781
23	0xc02585c079fefb3c	-10.761234104514749
24	0x400d689f7ad50637	3.6760854336032724
25	0x3ff38dff525376ae	1.2221673217640432
26	0xc02419f938476ed5	-10.050729521484223
27	0xc0307b4f1408e2f3	-16.481675388497887
28	0xc0007c819fa2c616	-2.060794112353288
29	0x40188c7f5ebac1de	6.137204628132592
30	0xbfe55e582d73577c	-0.6677666557031752
31	0xc005987ace93c466	-2.699452985653397
32	0xbfb9e0ccb0695f4a	-0.10108641917156294
33	0xc0061c27aea9b63d	-2.763747562936969
34	0x4013c093dabc17fe	4.938064019899683
35	0x4021089a7a31b8e7	8.516803568429578
36	0xc005344bf63bcc4f	-2.650535510730641
37	0xbff208ac9ded355e	-1.1271177453048362
38	0xc00b4b5a99d99d46	-3.4117939013991956
39	0x4017044cccb55006	5.754199217382853
40	0x40146a7ea97136a3	5.103998801741599
41	0x400cc1fc73b8d36d	3.5947197953013785
42	0xc00662311a85051f	-2.797945220169495
43	0x400e0c1afe4b98dd	3.7559108607120906
44	0xc02535ab73b8fc46	-10.604823700267058
45	0xbfc92b17caaf4918	-0.1966275920554572
46	0x40153e0a016b4868	5.3105850431185
47	0xc01ed185a4cf16d7	-7.704611373080943
48	0x403517ee5b95105e	21.0934808005262
49	0xc0362c82a72dfcd1	-22.173868607261117
50	0x3ff3ce6eb4ce93e3	1.2378985464831593
51	0x401a7a1ccafe9bf6	6.619250461378206
52	0xc0361eedce686e58	-22.12081613587938
53	0x40003e27ff6754ba	2.0303497270020587
54	0x4030315e819c39ab	16.19284830154508
55	0x401442419b8f0cd4	5.064703398328863
56	0xc03b6e4951a33b8e	-27.43080625758335
57	0x403290ccaa54fe8e	18.565622945547652
58	0xc0329ce0c1eec6fa	-18.612804528041103
59	0x4036ec59be54fe2a	22.923244376898005
60	0xc02f79f63e8cb23a	-15.738206820177869
61	0xc028773655942f7f	-12.232836412753157
62	0xc015df4ffe181102	-5.468078584879779
63	0x402a1da3e542a96b	13.057891048800874
64	0x3fde36edd08df6cc	0.4721025978723048
65	0x3ff10ae1402fef84	1.0651562220873254
66	0xbfdea4c2e65a5b7f	-0.4788062333622562
67	0x401648045579ee17	5.570329032485026
68	0x400f87911742aa80	3.941194707605348
69	0x3ff1ca2b4459ecce	1.111857668873927
70	0x3ff38a88d1022104	1.2213218845736842
71	0xbfd06d46d4dabed3	-0.2566697195679641
72	0xc010f13d4a7c9393	-4.235585368970436
73	0x401e8455b09f37a1	7.629233131139615
74	0x3fdbe53869df2fd2	0.43586550082249886
75	0xc024583a0b79f938	-10.172317846907944
76	0x401521b66df10f4a	5.2829224756604365
77	0x401a6b2d5911eb97	6.6046651761233965
78	0x3fee38532009c5ed	0.9443755746598846
79	0x40060a00bc02b7b5	2.754884213288245
80	0xc022c07bf6ce5de7	-9.37594577092291
81	0x4019fed178baf79a	6.498845945750782
82	0xc0185cae9bc2b194	-6.090509828336867
83	0x400aed5d167be588	3.3659002071914905
84	0xc01548e3e21cd71f	-5.321181805620454
85	0x401373684f93c711	4.862702601809148
86	0xc017722f96cc0b9a	-5.861509662822664
87	0xc01400b72039f4a8	-5.000698569810233
88	0x401060e87d64be92	4.094636878274871
89	0x400684744ec0d9fc	2.81467496419941
90	0x401412a8ae964a6c	5.018221595690743
91	0x3fe011cedbc3dffd	0.5021738331115554
92	0x4000ffae6ca08423	2.124844406746449
93	0x401be3f4eb7dc44b	6.9726139827262825
94	0x3ff98eae4c8a5dbc	1.5973341932166099
95	0xc02435799e8b2722	-10.104443506704744
96	0x4030b1cede74754b	16.694562819893047
97	0x403108d5e68866ae	17.034513862896965
98	0x401c48832e6d9bf4	7.0708129171753065
99	0xbfe6da1a5df706f0	-0.7141239009144709
100	0xc00952b6bb8d3523	-3.1653875973194245
101	0xc0325f6d07c322d2	-18.37275742067397
102	0xc00bf8fc1d3d2832	-3.4965746197022094
103	0x4008b84ca0c973f3	3.089989906452041
104	0x3ff0c1eb6db1f703	1.047343662735728
105	0x40316c6fdd9dd480	17.42358193496011
106	0x403805f1a77a19c8	24.023218600568526
107	0xc002e50da8ad13e7	-2.361842458516992
108	0x3ff8b3f98fe42820	1.5439391728164154
109	0xc03d66debefdd8d5	-29.401836335157743
110	0xbfee8e5b265f7f34	-0.9548774480317435
111	0x4039ca2f6c1deac6	25.789786107353187
112	0x40159b9be62b5f30	5.401961895367819
113	0x4017783e47d5ef50	5.867425081665559
114	0x3ff360536881ae01	1.2110170442855408
115	0xbffbbc450282020e	-1.7334642503702784
116	0x400cea8214eabc1e	3.6145059236655603
117	0xbff59ece53101860	-1.3512709850924907
118	0xc0061e5218ce7224	-2.7648050249101903
119	0xbff2032e11b1d2c9	-1.1257763568111605
120	0xbfdbaa73117247ea	-0.432278410947332
121	0x4012da312726d3ff	4.713078128571396
122	0xc004d0a773cc40b3	-2.601881889982985
123	0xc01ee1bd8053acb7	-7.720449452502343
124	0x40174d91eebd6800	5.8257520011047745
125	0x4011922d65e48a9e	4.392751304697098
126	0x3fe255bf74c0f6eb	0.5729672699305558
127	0xbff1e425e1045632	-1.1182001867031315
128	0x402d0a37c14e2a13	14.519956627646968
129	0xc026ce19dd1fa434	-11.402541074860075
130	0x401be9b11041423e	6.978214506133154
131	0x4017940da694ca82	5.89458332331799
132	0x4042a7654477f40f	37.30777793747995
133	0x400b786560ea90c8	3.4337871142944074
134	0x3fef72ae331a7b89	0.9827490804781159
135	0xbffc12fd9900d597	-1.7546363808336076
136	0xc02aeb470f29e718	-13.459526513924672
137	0xc01d7bea7ddfb000	-7.371011702325632
138	0xc0141fb9d64753ae	-5.030982349494407
139	0x40186f2c8c5c0f45	6.108568375700831
140	0x40276328179c939e	11.693665254462584
141	0x40387a0b4256a859	24.47673430076279
142	0xc02ebb0a2cee3843	-15.365312007979929
143	0xc03761850c5b96be	-23.380936405525738
144	0xc02c02bfa763b725	-14.005368452951709
145	0xc02b28b0c988695e	-13.5794737795847
146	0x40290a0674db99cd	12.51958050900148
147	0xc0298785e3219f6c	-12.76469335351404
148	0xc03cae8fef258f94	-28.681883761091356
149	0xc01b3591e5aad7f3	-6.8023143659138325
150	0x4021f2e5f45506aa	8.974410663012652
151	0x4025550479b51745	10.666049769740889
152	0xc0285e019d48bf00	-12.183606066827906
153	0x40261a919ef586f1	11.051892249557087
154	0xc03d3c9453b6f02b	-29.236638290560375
155	0x401b51024b33b5f0	6.829110312491579
156	0x40294451af1f73e7	12.63343570002503
157	0x4024a7bafdbe5565	10.32759850452812
158	0x3fa7db8eecf0322d	0.04659697191536725
159	0xc0226fe299e06fa8	-9.218525704047195
160	0x403023e0bcb9d0f2	16.14014796768692
161	0xc03437beacda3555	-20.217753222726362
162	0x4001a5b5f53abb70	2.2059134634541167
163	0xc033d5b7d8616560	-19.83483650567848
164	0x4012539c8eb51c7d	4.581651906780391
165	0xc02b4b7599122b95	-13.647381576030776
166	0x4020a366a7ba41ec	8.319142571913254
167	0x402fb3cf7f3bd2cc	15.851192451527275
168	0xc0067b2ded635209	-2.8101461931166836
169	0x4024e85d4ce39e74	10.453836825166242
170	0xc037faf62ca12104	-23.980318822229506
171	0x4021e4608becd73b	8.946049091969703
172	0x402afce629770654	13.493943496493706
173	0x4025f4e40c8d1369	10.97830237600438
174	0x401b0b235d4c07c0	6.760877092137832
175	0xbf85e000d877fdd0	-0.010681158643818828
176	0x4000d98831c7986e	2.1062168015515033
177	0x403219f101508199	18.101333696513027
178	0x4001a6b1dfaa92cd	2.2063939546518214
179	0xc00e3003c299d029	-3.7734446719350854
180	0xc0110dea1dbfffaf	-4.26358839496963
181	0x4008e7c57c2ce941	3.1131696416097445
182	0x40358543ad4e1218	21.52056391864798
183	0xc01650ccb1abd6c4	-5.578905845750061
184	0xc03b82319aa2fe0e	-27.508569397728984
185	0xc0303f9392e5fd24	-16.248345547818772
186	0x3fa7a62d660b329c	0.046189707476149894
187	0x401ae9e044fde72a	6.72839458274556
188	0x3fe474b13d14d0d4	0.6392446701998105
189	0xc012934902f6a0e4	-4.64383320455838
190	0xc020cece06582fd2	-8.403915594353666
191	0x40341bea3231306a	20.109042298325598
192	0xc03f68a88add9976	-31.408821753598623
193	0x40223e9a66026ad6	9.12227171687611
194	0xc0045b83882035b6	-2.5446844706372884
195	0xc0337c9f65ef1cca	-19.486807223202767
196	0xc02e54df89059cfe	-15.165767938552104
197	0xc0134c18e758176b	-4.82431375003021
198	0x4014ea1aef819721	5.228618376049583
199	0xc0115d3632a1bca8	-4.341027060624732
200	0x4021d6827b664e70	8.918964248884748
201	0xc02afd3cdc74b1e2	-13.49460495876787
202	0x401e810d94bb0d67	7.62602836982419
203	0xc0368a2fc7a1dfdc	-22.53979156209958
204	0x40361028e8e258bd	22.06312423254052
205	0x401d0ae411afacbf	7.260635639521921
206	0xc013edba89f506c0	-4.9821569019129015
207	0x40148bd1d898a5ab	5.1365426867645665
208	0xc005986b9eea75bf	-2.6994240203191278
209	0xc02efa54d56e68f8	-15.488928479888713
210	0xc0339f059aa4b4c3	-19.621179261409235
211	0x40233f14525c3b78	9.623201917418314
212	0x403e0bd3ca127999	30.046200398931976
213	0x401ceec597546da7	7.233175625351044
214	0x4007927502713d3d	2.946512240486895
215	0xc021ca07239f7883	-8.89458571740784
216	0x3ff63b647a1df5fd	1.3895001192280454
217	0xc0240eb9dd8fb083	-10.028761791029188
218	0xc0385dfac3dec5d9	-24.3671076220397
219	0x4023d4d5e1d6da16	9.915694291569746
220	0x403252ecae692e06	18.323923969916017
221	0x40468e241074c8e3	45.11047559454325
222	0xc01a713ac147e9f4	-6.610575695051455
223	0xc0422252e9a9382f	-36.26815529596967
224	0xc025846efae81d23	-10.758659211000639
225	0x4035d86430bb5f68	21.8452787835553
226	0xbff3264e8f6287c4	-1.1968522644969974
227	0x4018d3125cc3244c	6.206124734316358
228	0xbff4df6737e92c03	-1.3045417961136543
229	0x3fe8cc43ebc5a20e	0.7749347309991792
230	0xc006b12c72becf89	-2.8365105595093536
231	0xc0278fc39a1befb2	-11.780789199743456
232	0x4015e25956897061	5.471043922556505
233	0x4005c720f17de423	2.722230803160089
234	0x4024728944d73fe9	10.22370352866706
235	0xc030ad4cc120d75e	-16.676952429311648
236	0xc00a9e6e146d1ebc	-3.327358398037033
237	0x40286822cd2730c4	12.203390513452526
238	0x4022fed79a38816c	9.497738665959979
239	0xc02330109b1f479f	-9.593876693313915
240	0x401896cb93630d56	6.147260954781208
241	0x3fefadab16d3bdfb	0.9899497457353726
242	0x4025fd00e7eaa96e	10.994147536654705
243	0x400c173ffd42f54e	3.511352518659499
244	0xc0137b59723b1a01	-4.870458397729181
245	0xc028536a6669f04a	-12.162921142990076
246	0x3febd413bdc43ec4	0.8696383196238107
247	0xc018413a802140a0	-6.063699724225586
248	0x401933ec5dc2939d	6.300706353188528
249	0x402771036d83e087	11.720729276989244
250	0x401df34b29ee1e78	7.487591414602882
251	0xbfc4f2a7fc73e8f5	-0.16365527941508842
252	0xc015a6105d62875d	-5.41217180169937
253	0x4013675eeca87e2d	4.850948045524587
254	0xc0144d63356e76fe	-5.0755737637207385
255	0xc025bf6f111d3fbe	-10.87389424783748
