src/params/weight4.npy (npy, 6080 bytes, 1 tensors)

array (column-major) f8 [10, 75]
00000000: 5cb6 6e63 2d57 f83f dd0e b8ec 133a 12c0
00000010: 2fa2 7593 5028 e4bf 4ed5 ca07 a324 febf
00000020: 6d5c e6c1 084c fb3f 7cfc 94f7 fa4b f33f
00000030: e8b0 ead3 b4dc d23f e9b5 31ad 3b7b f23f
00000040: a797 64d5 ac9a fe3f eef0 ad0d 5bca f03f
00000050: 948d 8dd7 541e 1240 eb28 08bc ac02 0cc0
00000060: fc19 2fcd 91eb c0bf ec38 fca4 046b 0240
00000070: 6da1 b7f7 3ff0 1040 7a46 d131 a3fd 0c40
00000080: 2c58 051f f712 f9bf b475 e2c4 2e17 e63f
00000090: 1fc4 109d f70d e33f 9cac f69d dea2 0a40
000000a0: 09df ffb3 ce15 febf 85b3 9030 c42a fc3f
000000b0: e20c 84fa 3ad9 d4bf f127 3fcf be8e 03c0
000000c0: 6548 a210 94ed 02c0 043b 1b96 b275 e83f
000000d0: 52db a14e bcac e6bf b9ca 3b48 46a0 02c0
000000e0: b991 38ec 6fb5 fcbf 3c4b 83b2 64f1 e33f
000000f0: 8960 5f3c ab7d 07c0 814d f6b0 ba1d 06c0
00000100: 71bc c007 e98f fc3f c4e7 d365 686e e63f
00000110: b12b c522 4f17 0ec0 aa87 5504 533b d53f
00000120: ca69 cd2f f52b 13c0 e337 9177 6729 bc3f
00000130: a628 88d3 0ea3 00c0 cba8 6331 f820 eebf
00000140: 71d2 c2a9 f988 0340 6ab0 2edf 6b71 fbbf
00000150: f066 e406 5716 fabf b2a2 71c2 d218 e03f
00000160: ba83 d29b fd56 f7bf 0205 aeb9 7aae d9bf
00000170: d731 9753 1560 12c0 46fe 7489 22cd 0340
00000180: b18c 24fb cf1d e6bf 6005 b3d4 3640 f23f
00000190: afa5 0ab2 7273 f9bf 0cc0 9afd 3660 c1bf
000001a0: fd1b 90a4 97e2 e33f 8aca f6a3 62be e63f
000001b0: 1d48 7c9f 81ba fcbf 1c5f 3c6d 6f92 c5bf
000001c0: ba24 43b5 db5c fa3f 88e0 3584 8044 02c0
000001d0: c743 ad6f 8750 f6bf a02a c1a9 bf3b f83f
000001e0: 9061 8448 b1ad 03c0 fc2e 9711 dceb e0bf
000001f0: 48d8 4787 3051 f5bf 0a71 7e04 b0f8 c43f
00000200: 80ef 2796 7ce1 ee3f 0db0 4bbf 82e0 e2bf
00000210: cf9b 3b30 a5e6 f8bf d376 7846 39ca eebf
00000220: 55af 8077 9630 f6bf b003 4244 6841 d7bf
00000230: d146 0b8d 8b8d 0cc0 41b0 0f8c cf5f 0140
00000240: c897 3edb 5c60 f03f 93c1 477f 2304 02c0
00000250: 13f3 f9ba 1583 da3f 9e57 d478 faac 0040
00000260: 70d2 a14e 29db da3f 2c13 26b7 ba0b bdbf
00000270: f697 cc06 0305 f1bf 6945 2373 bfe7 02c0
00000280: fbd6 1f45 54f7 eebf 6bd4 c0a2 f67e 0340
00000290: 5648 edcd ff41 ddbf aad1 4942 1032 e5bf
000002a0: 944a 9c09 b54a 04c0 dcf8 39c9 6821 f2bf
000002b0: 86a3 42c0 ea20 f43f ce5d 9f8e c752 0640
000002c0: 746a fc5f 87d9 f1bf ef82 b4b1 eccd f7bf
000002d0: 8c9c fc30 4ffb fcbf 722a 6a5f a9db fb3f
000002e0: cd3e 6bf2 c8f0 ed3f fb95 4cf9 4cac f13f
000002f0: 17c9 bcc8 4c48 df3f df70 2697 58f4 f43f
00000300: a2f6 bf65 87db d93f 7b38 94b4 b8da f9bf
00000310: 55cf 730c 7061 0fc0 fb4d 0648 8b34 febf
00000320: bbcc 955b 9169 0d40 7c77 1347 3d1c 00c0
00000330: db8d 33a3 865d f7bf 7e18 77ce 5ac7 0fc0
00000340: 8c14 6348 bbc5 f53f 991d 62e7 08c2 fd3f
00000350: 9011 5dbd bf73 06c0 fd71 348b 5482 b6bf
00000360: ac14 afd4 a31c 11c0 386a af74 9553 0640
00000370: ed62 2080 1d60 06c0 18c3 f192 0682 f33f
00000380: 2c1d 7296 07b6 923f 525c a123 06e8 e5bf
00000390: 8d3e 8bb1 6bd9 f63f 16a3 1465 66c9 eabf
000003a0: 2804 8344 244f f9bf 283d 39df 8af2 e6bf
000003b0: ded3 9906 6e5d 00c0 afbd acef cd41 03c0
000003c0: f207 fc99 da67 fa3f e9dc 6f92 3939 e1bf
000003d0: 50c7 859a 0df0 01c0 2a23 e2d4 b6e3 f7bf
000003e0: 6c3b e5e3 6106 e53f 51e6 ff14 9266 00c0
000003f0: 3284 2add 061a e1bf c859 4a1f 5388 f73f
00000400: 0e6c 1a1d 874e f0bf 879e a41b 7c5d f5bf
00000410: 4603 12ab 3fde 08c0 2ca8 f428 fc99 00c0
00000420: 7533 e15d aaa0 fe3f fdbf bd92 e78f 0cc0
00000430: 023c d80e 92a6 e83f 4028 8831 eb9e ec3f
00000440: 9cf0 d435 0739 07c0 bd6c fd38 c09f 0540
00000450: d455 1d35 b86c 10c0 d9a7 03d9 c98e d8bf
00000460: 1617 4cd7 e340 02c0 0ac9 e02f 6c54 0940
00000470: 37bf e3cd 5542 eb3f 138d ca33 44e8 f03f
00000480: 6a9e 364a 5c51 0140 23f8 a88d 9862 f5bf
00000490: a4f8 ae9a a77b ff3f 9f03 1106 c5fe 983f
000004a0: 8379 0d9a 1fc6 e43f b7c0 949f a996 d3bf
000004b0: 449b cce5 f10f 0ec0 63d1 7b61 d2c4 ff3f
000004c0: d808 b09a ce3b 0ec0 8376 bd68 ce5a fbbf
000004d0: e946 a468 ba4c 09c0 c46d 533d 35d9 07c0
000004e0: 3c40 73e3 f411 f9bf 2013 5b33 4cfc f5bf
000004f0: b765 76a9 76e1 09c0 80ce 88a1 fc56 fe3f
00000500: 1dcd e255 0a65 fa3f 4d53 e7f3 e3ba fcbf
00000510: 8493 25a2 6c46 ae3f a0fe c51a 4e55 e93f
00000520: 8bdf fce0 866a 0240 a081 a0b4 da29 abbf
00000530: f552 e4af 9ec6 d6bf a88a a47d 0292 e3bf
00000540: e5d8 8fc6 30b3 e2bf 851e 25b0 fd3b 05c0
00000550: 46d5 6c44 f91f fbbf 0d2f 789f 9540 c3bf
00000560: 18c8 fdcc 44d8 e6bf f7d3 50f3 b5b6 d1bf
00000570: 0004 800d c591 fdbf 9e2d 51b2 79f2 d03f
00000580: fdfd 4be4 5e55 0fc0 3d04 9c35 eafd e63f
00000590: a70b 38ec 4df1 edbf d769 ed6a 0368 e93f
000005a0: 333b a5d4 23c9 0140 b432 e92b ce8a 06c0
000005b0: 7f46 7291 bfb0 e63f e490 da7f 2b5a fbbf
000005c0: 1e80 6990 7635 e0bf 9757 4b0e a97e e43f
000005d0: f17c e835 fccf fd3f 14d8 dda8 f9fe 0fc0
000005e0: b036 fd61 308f a4bf 79fa f0c3 fd36 01c0
000005f0: 0def 7f22 4320 d8bf 81a1 bd3e 5f45 8c3f
00000600: fbe5 ec13 99c9 efbf 2075 ede7 8481 e3bf
00000610: 3811 cebc 6b52 08c0 051b 4245 e072 fe3f
00000620: 6a5b a695 5760 f63f e621 33d8 2a9c 02c0
00000630: 58d3 e81c 015b fabf b748 8ed8 e063 06c0
00000640: 6643 c6fb ce2b febf 4cca 6d4f aaad fa3f
00000650: b8c2 b8e6 218c f8bf f97b ce7b 352d febf
00000660: 7c04 3004 f90e 0540 9bff 8aa1 9eda 0a40
00000670: ee1a daaa 332e 0c40 8daf 26ab cffa 01c0
00000680: 10e7 7353 3ae4 0c40 bcac f5fa 2b40 0240
00000690: c050 66c2 c6f6 0ec0 28f3 83e5 ec0f 03c0
000006a0: 4aea 8995 6b8e 08c0 f867 cfdb eccb 06c0
000006b0: 06ca e8a2 e643 05c0 b121 939b c7ee 0940
000006c0: d720 e72b 51c1 0ac0 401e 4657 e359 01c0
000006d0: aee7 d740 2872 04c0 17fb 4ab1 0950 fcbf
000006e0: 249a df02 ee90 fc3f a17b 5cc7 1b25 0cc0
000006f0: 26a9 5c05 1324 01c0 ccfe cb48 e9c6 f73f
00000700: ab48 09c2 3dea 0cc0 d62b d7cb e6bd f5bf
00000710: 5e39 5408 707f d7bf e097 6bff 7a99 f93f
00000720: 0c6f 2b50 3b17 e03f 5696 0ba5 eb17 04c0
00000730: 7d5b e878 137a c2bf e249 7991 3c6e d33f
00000740: 0650 c997 201b dabf 47b0 fdf2 d22f f8bf
00000750: 6df3 2734 06e4 05c0 c748 b499 13b2 f53f
00000760: 8996 f769 80cd 0ac0 d083 b3ee 74e9 0140
00000770: d4f1 69ed fe1c 00c0 57a4 91df 23b5 01c0
00000780: 63ad 5f2c c23d d13f aacd 58ac 99cb dd3f
00000790: f4f9 412c 7b62 fbbf a339 d379 2cc1 ddbf
000007a0: 65e0 1c96 dde1 01c0 b0ea aa94 1364 d43f
000007b0: 5b6c 7d34 8af1 e7bf 0ac4 9bc5 7fd5 fcbf
000007c0: c8a6 6f54 434b f9bf 5d8c 716c bb27 e23f
000007d0: 0e52 901e aec0 c7bf c9f2 4b5b 639c f8bf
000007e0: 3b07 8252 5403 0e40 369f 659e 4b88 0cc0
000007f0: b9cf 8388 d3cc 0240 6817 043e 98e6 ea3f
1.5212835201340544 -4.556716631635678 -0.6299212341373898 -1.8839445404422182 1.7060630392277532 1.2060498877688408 0.29472084708210255 1.1550862088582738
1.9127624831830674 1.0494032415727435 4.5296205215594405 -3.5013060274114784 -0.1321890117526009 2.3022549523803857 4.234619017203255 3.6238464252463105
-1.5671302043679232 0.6903299184229383 0.595454985397854 3.329526170816804 -1.8803240805845596 1.7604410073356302 -0.3257586904948778 -2.4446998778485
-2.3660050677799966 0.7643673831715607 -0.7085858855997265 -2.3282590525862727 -1.7942961909658222 0.6232169615344456 -2.9363617626768854 -2.7645162415662416
1.7851343443724341 0.7009775151084274 -3.761381408350154 0.33174586699726183 -4.792927500641278 0.11000677746889624 -2.0796181226661075 -0.9415245976099639
2.4418824446277587 -1.715190765196008 -1.6304540890909571 0.5030301854831889 -1.458737953835437 -0.40127437718190617 -4.593831354239646 2.4751635302380093
-0.6911392121441137 1.1406772907797276 -1.5906855540036806 -0.13574874289543037 0.6214101995582265 0.7107403948233053 -1.7955337743665105 -0.1685313495042856
1.647670467429903 -2.283448250669668 -1.394660412061272 1.5145870810544366 -2.459810797252608 -0.5287914603772772 -1.332321670951858 0.16383934230260194
0.9650252278074589 -0.5899060951464904 -1.556309879693561 -0.9621855141046701 -1.386862246329618 -0.36336714425857064 -3.569113828570018 2.171782583454871
1.0235260547865312 -2.252020830514263 0.414250786394221 2.0844621124078477 0.41962654761235907 -0.11346022578625242 -1.0637235894769197 -2.363158130182161
-0.9676915502629692 2.436993857869813 -0.4571532736782776 -0.662361268491215 -2.5364781142064405 -1.1331565723808614 1.258036376015498 2.790419687498548
-1.115607619233427 -1.4877745572668422 -1.8113548196359117 1.7411283232819668 0.9356426939720791 1.1045655954598022 0.4887878380133243 1.3096547989180676
0.40402398048886756 -1.6158988050333665 -3.9225769970743536 -1.8878281415426261 3.676546779164338 -2.0137887528243805 -1.4603334784559283 -3.9723411684126964
1.360774309884877 1.8598717726143603 -2.806518058207253 -0.08792618177944429 -4.277968714891511 2.7908124080688843 -2.796931267727237 1.2192445507063834
0.018272512967567753 -0.6845732398895825 1.4280812201795101 -0.8370849584799511 -1.581821696876668 -0.7171072349391681 -2.0456200137800655 -2.4071310734359126
1.6503549590129265 -0.5382354602906193 -2.242213446815107 -1.493094283652861 0.6570290995676777 -2.0500833168596633 -0.5344271011018746 1.4707823965342062
-1.0191718232006255 -1.3353234367185978 -3.1085198750373904 -2.075187988249146 1.9142249743628927 -3.5702659095913973 0.7703333177504421 0.8943992583674643
-2.9028457837685675 2.7030033542956446 -4.1061714457659555 -0.3837151164321973 -2.2816845722289925 3.1662219753717453 0.8518475552827799 1.0567056677908269
2.1647268102567994 -1.3365712674708525 1.9676891367267126 0.024409368987338472 0.6491849907722983 -0.30607071479881703 -3.7577856019082976 1.985552197261392
-3.779202660081051 -1.7096695033464193 -3.162464921487175 -2.9810585776410523 -1.5668839344762224 -1.3740961080631635 -3.2350896109826084 1.896237021440271
1.6496680598182316 -1.7956275489315943 0.0591310451443752 0.7916632197302143 2.3020150735064298 -0.05305369810980953 -0.35587279488508666 -0.611573453327158
-0.5843738439714597 -2.654292465336598 -1.6953060791832555 -0.1504084614429008 -0.7138999942528725 -0.2767767788057535 -1.8480883147569784 0.2647995225313141
-3.916684897965523 0.7184954688128823 -0.9357061017657217 0.7939469421792705 2.223212872784097 -2.817776053480282 0.7090757218122262 -1.709514140538027
-0.5065262623356863 0.6404614714799547 1.8632776361262666 -3.9994996254636224 -0.0401549453368778 -2.1518512065807127 -0.37696913117518777 0.013804191686816793
-0.9933591260116253 -0.6095604448161431 -3.04024455551021 1.9030459123038679 1.398521027154596 -2.326253594456136 -1.6472178582455026 -2.7987687033101696
-1.885695441717155 1.6673987486543806 -1.534212018257831 -1.8860373340792178 2.6323108985093864 3.356747877172848 3.5225594852266715 -2.2474664088421776
3.611439372992102 2.2813338857864363 -3.8704962909197036 -2.382776063050546 -3.0695411379540802 -2.8495728657408073 -2.6581547477046596 3.2415916590000156
-3.3443931035909418 -2.1688906496308675 -2.555740839566133 -1.769540493536345 1.7853832351917243 -3.518119390020232 -2.1426144045737088 1.4860623210551465
-3.6143756064494332 -1.3588626825828576 -0.36715317548159543 1.5999708154063157 0.5028358999074682 -2.511679925361743 -0.14435046580976155 0.3036033077852648
-0.40790571997536096 -1.5116757861933523 -2.7363399576847116 1.355975723654909 -3.3503425863917227 2.2389925621541593 -2.0141581104237307 -2.2134473291703602
0.26939443906186095 0.46555177527190017 -1.7115432480637738 -0.4649153890321946 -2.235285923725359 0.3186081840355355 -0.7482348466104541 -1.8021238059120628
-1.5808747576033273 0.5673501127279327 -0.18556763164873796 -1.5381806913639358 3.751625675767085 -3.5665504812967823 2.3500128426767017 0.8406487666368152
