src/params/weight2.npy (npy, 100432 bytes, 1 tensors)

array (column-major) f8 [16, 784]
00000000: 7401 707f fdae e8bf d438 92b8 42ad e83f
00000010: 40d3 0770 ed5c dabf 889c b936 71bb efbf
00000020: a0c8 037a 67c7 eabf 5421 1eac 2c00 eb3f
00000030: 50da 036f d81d c63f bc3e 94b9 511c e6bf
00000040: 3c2a 892b 7dfd e33f fc7b 0aa4 0fc3 e8bf
00000050: d80a 5f5d 43e8 dabf 702a de8b b6e8 c2bf
00000060: a8ae 5a75 66a2 eabf 4c7a 2b8e bdae e73f
00000070: 5884 73a5 39dc d33f 5cc9 f75a 2371 e4bf
00000080: acc5 f1f9 3fa1 ea3f d076 6464 83cf e0bf
00000090: 902a a8cc 5a47 dc3f e03b 07ff 885a b1bf
000000a0: 88f9 6367 515e d4bf 704e bd74 43ab e53f
000000b0: f066 afe2 12df c6bf 984d c8e1 178a e23f
000000c0: 50b5 b525 9eca c93f f071 a602 875d d23f
000000d0: 8051 50b4 e321 993f a04e f1b7 28b5 bbbf
000000e0: 68fa 3ef3 8c92 e83f c0b8 9fc7 dc15 e1bf
000000f0: 80ac 04ba bb64 99bf b86c ec92 9eb6 dfbf
00000100: 583d 5212 6587 d9bf f848 790d fdd5 d23f
00000110: 20e0 6ea8 9100 b53f c0e7 d0b9 c533 be3f
00000120: 4c8e b2fc fcc3 e1bf 84ee 55cd dc84 e03f
00000130: b0cb c518 b611 e8bf 44e8 b44c 326d e8bf
00000140: 1029 e6c0 7ee4 ce3f ec49 3fa7 864e eabf
00000150: 7c07 1af8 7a64 ebbf 683b 99b3 2a4c e8bf
00000160: b8d5 fbd6 230e d03f c81c 7112 482d e33f
00000170: a8b7 079f 5a1a e7bf 1cfb e7e3 d883 ef3f
00000180: 805c 2f48 1843 c63f 44ac 6ab8 2961 eebf
00000190: d074 c6ed 8a13 c43f 5884 f3d8 59c0 d73f
000001a0: c8e5 c713 ffda e43f f07f 07b3 2859 e83f
000001b0: 74e1 6131 6d10 ed3f 3004 15a2 a12d e73f
000001c0: a8f5 5262 71e0 d4bf c090 e958 ff20 d1bf
000001d0: d8f9 cb9b 0905 e63f 8067 2a32 9e0f cd3f
000001e0: 80c9 2a05 ba1c 94bf 94c9 90ee 2e33 e23f
000001f0: b8e7 6b88 1689 ddbf 00c6 c902 b205 8fbf
00000200: 30b3 062d b0da ea3f 0017 ec13 6f04 bb3f
00000210: 7c77 7095 92e4 e03f e878 b86d bfc4 d8bf
00000220: 00aa f8fe f527 c0bf e8e8 8b8f cc07 dfbf
00000230: 50b9 e212 4cdb cdbf 100a d5c2 d50c d7bf
00000240: 0046 6dd7 8482 803f 3ccd 751c f2af e9bf
00000250: 18ec bb29 4903 d7bf 384e c558 5c6f debf
00000260: 00d0 6cbd db51 73bf 2804 2f2c 7e5b debf
00000270: 180f cd4a 2869 e5bf 6002 6aa3 e4ba d13f
00000280: 40de ed31 6c8a c03f e0b3 70ab 2e89 c93f
00000290: 5c5b 9409 4605 e03f 70d2 0d0a d409 ef3f
000002a0: 98f7 fe8b 3f12 d7bf a417 377b 51fe e5bf
000002b0: 3c8b e527 0af6 e0bf e0f5 5172 3d20 b03f
000002c0: a0b1 4892 06b1 c13f dcf6 958a ea13 e3bf
000002d0: e0bf a2bd 7544 bebf 2896 c210 d961 e7bf
000002e0: 5c2a c590 991b e33f a4b4 06c6 4575 e83f
000002f0: b054 a49f 3548 ef3f e8cc 19e0 763d da3f
00000300: f87a c9fa dc31 d1bf 58d2 b6fe d8df de3f
00000310: e835 b9ef 7063 ef3f 0038 f98e 97e0 873f
00000320: b871 1c54 53fa e53f 388c abd0 7cf9 ddbf
00000330: 3ce7 b078 7de1 e5bf 70e4 e17c d294 d03f
00000340: 30f1 e7ec 40b3 d4bf b450 f18d 6fca e1bf
00000350: a8d0 bf1b c326 e9bf 8846 edb5 5f2b d33f
00000360: 685c 585b bfb7 edbf 7431 f99d 5796 e6bf
00000370: 0817 d623 c435 efbf 5071 6dfc b290 c7bf
00000380: 8032 5432 1b7b dc3f 009f a127 a0ce db3f
00000390: 3831 0ec5 a8d5 da3f 10c7 768d 177d dc3f
000003a0: 207b 8493 7f9d c8bf c8d5 386b 3243 e8bf
000003b0: e4d7 bb52 25c7 eb3f 00e2 d87b 51db bfbf
000003c0: c8cd eb4b c788 dbbf b8d5 b825 b18c e6bf
000003d0: 5caf 6f9f eb24 e6bf d424 890c eabb ef3f
000003e0: 008a 4963 0a60 9abf 8006 df91 3985 d13f
000003f0: f004 c2ff 8e68 c3bf 0041 5155 273c e1bf
00000400: c81d 6a18 191c e83f 8062 5741 0ec3 e33f
00000410: 006a 8954 8d29 703f 40a7 607b c619 b73f
00000420: 68b9 5a5f 164d dcbf d083 a300 fc74 df3f
00000430: 002c 07b0 dabd b13f 3821 8060 6df7 eebf
00000440: 6cef a59c 92ab eabf 781c 763c 8747 e83f
00000450: f8ce 4704 6d92 e23f 8c79 92cf 84bb e73f
00000460: b4ed e185 4835 e0bf f8dc cc94 e98f e2bf
00000470: 0001 1d40 c5bd a73f 8c3e e2d0 d0d0 e9bf
00000480: 5ccc 806e 03b5 e0bf c0b8 86d4 734f d33f
00000490: 2033 ee93 2719 c6bf 5074 868d eca4 eb3f
000004a0: e098 ca8f 92fc b63f 98bc ab6e 7a45 d13f
000004b0: 102b db83 a607 e0bf a0ff b872 6613 bb3f
000004c0: 687c b7f5 1788 e8bf 58d8 61e5 1e8b d03f
000004d0: ec9c 1432 7780 e0bf 0427 fc72 0f29 e23f
000004e0: 503b 2f88 b516 d73f e8ba 3e1d 7707 e4bf
000004f0: 50e2 1b9a e69d debf 407b 03b9 a2b3 dcbf
00000500: 9c0a 63be 3b0f e13f f881 5616 dd9f d33f
00000510: 60fe c0a7 3c53 df3f 40f7 74b1 2182 c2bf
00000520: 2c80 1c80 b148 e03f e416 759d bc63 eabf
00000530: dc46 679e 9cc7 e5bf b0ba e8f5 535c db3f
00000540: 44ca 3aa1 61c1 e2bf 80a8 5e33 4f41 cd3f
00000550: d06f e611 cca6 cc3f c018 023a d340 e1bf
00000560: acf2 5381 1158 e7bf a0ef 588a a367 be3f
00000570: 8076 b20a 5fed a9bf 8098 ea06 6f14 d5bf
00000580: 9438 273a 5d70 eb3f 8000 2ff3 2b84 b2bf
00000590: bc6c b360 cfb2 ee3f 00fa 0aec 8613 86bf
000005a0: 28e4 3085 3864 dd3f 9069 e0e8 7370 ddbf
000005b0: c04b 3485 4b91 a4bf 3009 4d73 bb3f c53f
000005c0: 000f f8a7 affb c9bf 04fa 4630 b513 e5bf
000005d0: 50ac adc5 f0ac ccbf 20f3 fb8e 7426 b8bf
000005e0: 4ce8 335f 95be e13f 902b c962 670d c33f
000005f0: 003d cef6 2ff5 acbf c000 d6d2 a8bb a03f
00000600: dd77 0b6e db36 ef3f a85b 7503 9954 e1bf
00000610: 2e58 2212 1bb4 e5bf eac9 ff13 0fcb dcbf
00000620: 597e b205 1821 ea3f e12c fbd4 6d11 e83f
00000630: 7fc6 8102 1c3e ed3f 23b0 debf 7a59 d03f
00000640: 1ac4 ded1 8bbb b43f 5d0d 8194 c10f e23f
00000650: d17c de68 7670 dabf 7793 08c8 a8c1 d1bf
00000660: ee41 ba77 7b3c dabf ce15 9ba2 dfd9 c53f
00000670: a9bc b59d 485c d03f 33a1 0fe6 f0f4 633f
00000680: e5d6 41ca f61e ef3f 6fb9 7869 93c7 c2bf
00000690: 4348 a2f4 3baa 94bf d848 6d34 aed6 e73f
000006a0: e485 a25e b626 eabf f112 dddf 657c ea3f
000006b0: 492a ae2e 7d81 acbf 2d2c c22d cf2f e9bf
000006c0: b71a fe31 69c7 d6bf 3845 0767 2c99 afbf
000006d0: eb84 518b 24b4 e5bf f2d2 0426 778b e63f
000006e0: de94 fc18 ded5 d6bf fa74 5d25 ecff e83f
000006f0: 402d 0bbf 81bb ee3f ef6b d973 d556 c33f
00000700: c82a ae8c 971d ecbf 1627 d66c 5f21 e3bf
00000710: 4f74 dd2c c545 cabf 9648 486b 7cc7 d3bf
00000720: 5611 98f3 e19a e23f 0677 f5e0 0544 c3bf
00000730: ac07 c015 94ce c2bf 05a0 a4d1 df28 ec3f
00000740: ec64 d8ef 64a0 d63f cc9e 85f3 48e0 ac3f
00000750: a9e1 dae6 ca52 a0bf eb79 7aba c36c aebf
00000760: 877b e71c 8a31 e5bf 5690 0818 bf78 e2bf
00000770: d5ac b4dd 50fd a7bf b1fb 8c4e 8f0f ea3f
00000780: 735f 169d ebc4 b2bf cc70 c937 aee6 e0bf
00000790: b221 023b 6c93 d63f 12dd 8899 2ada bb3f
000007a0: 1eec d261 93a0 c2bf 3100 e649 08cd ea3f
000007b0: 785f ed89 882e e73f 2777 10bb 63c0 e2bf
000007c0: 320b d325 285c a8bf bc02 2b79 9955 e63f
000007d0: 3b3a bd3f ffa3 c7bf b648 db48 4448 e2bf
000007e0: 4acb 316a 741a c4bf 78d1 5b36 625c eb3f
000007f0: 0e3c b08d 5a00 d63f e03b a502 ca22 d2bf
-0.7713611115469079 0.7711499791055538 -0.4119218439148433 -0.9916311329697161 -0.8368413336850331 0.8437713014291526 0.17278581066757903 -0.6909569382277918
0.6246934747990234 -0.773811169044961 -0.42042621725356133 -0.14772683934673436 -0.8323242466044194 0.7400806214098536 0.3103164783224819 -0.638810804053985
0.8321838266112329 -0.5253312073507121 0.44185514436745965 -0.06778770662570777 -0.31825671288233837 0.6771561889713222 -0.1786826712475924 0.5793570909321941
0.20149590340899204 0.2869584585075975 0.024543340568997873 -0.10823301783357886 0.767889475908146 -0.5339187525658176 -0.024798329571393385 -0.4955212054062019
-0.3988888434332316 0.29431082073018855 0.08203993188988123 0.11797748362087557 -0.5551743445871096 0.5162185678922957 -0.7521620258179293 -0.7633296487977153
0.2413481180086099 -0.8220856920764255 -0.8560156675086854 -0.7592977054390362 0.25086303705696933 0.5992775306885045 -0.7219670396859685 0.9848446322720039
0.17392257237108666 -0.9493607141388414 0.156846395589048 0.3711151713051257 0.651732958445046 0.7608836647668777 0.9082551922320321 0.724320236746399
-0.32619890787085604 -0.26763900454376355 0.6881149332910423 0.22703912209982136 -0.019640833440186523 0.56874796480979 -0.46149218866741704 -0.01514758177765696
0.839195335332624 0.10553640591032476 0.5279019278275281 -0.3870085307588753 -0.1262195105530992 -0.48485101717200374 -0.23325491830969236 -0.3601583864839606
0.008061445068650919 -0.8027277522909695 -0.3595755488929071 -0.4755469195272073 -0.004716738089701522 -0.47433428110895415 -0.6690865956265695 0.2770320506897743
0.12922432363460423 0.19949897166352937 0.5006437480068189 0.969949741017059 -0.3604887835643864 -0.6872947126910174 -0.5300341395598944 0.06299194375056727
0.1382148947026396 -0.596181173968684 -0.11823211555270019 -0.7306943251939559 0.5971191241781741 0.7643154971789454 0.9775646322256275 0.41000148663370206
-0.26866840830727723 0.4824125754778712 0.9808888132189937 0.011658844042496952 0.6868073122782823 -0.4683525121492411 -0.6837756497618339 0.2590833873324021
-0.3234407723937407 -0.5559613964383261 -0.7859817068079069 0.29952233091635394 -0.928680113228336 -0.7058523259561711 -0.9753132533957976 -0.18410336804925942
0.44501380839282234 0.4344864260697108 0.4192907261247174 0.4451350099071627 -0.19230646803858864 -0.7582027525119708 0.8680597892659958 -0.12444028161633724
-0.43022329725428365 -0.7046743141897229 -0.6920068849553718 0.9916887516821142 -0.025756990728391216 0.27375640149339375 -0.1516283749406635 -0.5385929743152076
0.7534299351545366 0.6175605083654574 0.003945877143076704 0.09023705017230288 -0.4422050410456877 0.4915151602017973 0.0693031959300896 -0.9677035221839452
-0.8334439334425787 0.7587314778219385 0.5803742488483001 0.7416404775756731 -0.5065043082135419 -0.5800674349074191 0.04636970908768667 -0.8067401962052414
-0.5220963629020718 0.3017243934108471 -0.17264265750090946 0.8638823284305861 0.0897914506009303 0.26986561591815805 -0.5009338927569349 0.10576477337690315
-0.7666129874377363 0.258491252904951 -0.5156818369040628 0.5675122495460703 0.3607610540320154 -0.6259112902824571 -0.47838749932956137 -0.4484640890859062
0.5331095427030337 0.30663230115354123 0.48945537931647287 -0.14459630169761262 0.5088737013029507 -0.8246748996104682 -0.6806166738335508 0.4275102521377603
-0.586106123830469 0.22855558403290743 0.22384024499922228 -0.5391632206890549 -0.7295005346237153 0.11876890304205157 -0.050639123969841826 -0.3293721740286699
0.8574663291745019 -0.07232927977656978 0.9593274010361692 -0.010779432371575304 0.4592419911091974 -0.4599885725198414 -0.04017101288822955 0.1660074532501965
-0.20299335195169732 -0.6586557333865248 -0.2240277257181753 -0.09433678141426727 0.5545145854405376 0.1488465530731813 -0.05655813110126395 0.03268172811203973
0.9754464291870552 -0.5415768687770326 -0.678235564630773 -0.4498937316231194 0.8165397750162341 0.7521275672710567 0.9138317154849601 0.2554613946656465
0.08098672746452032 0.5644233608694936 -0.4131141685592868 -0.2774450257732534 -0.40994154636521685 0.17071147384392166 0.2556325473914947 0.0024361329128518515
0.972529788049283 -0.14671557092647045 -0.020180641943234667 0.7449561141932248 -0.8172256325089475 0.8276852962813718 -0.05567542261913567 -0.7870860952110711
-0.3559210766037881 -0.061715495659550645 -0.6782400818885014 0.7045245878749411 -0.3568034404764385 0.7812405328546952 0.9603890162774533 0.15108745724395997
-0.8786123035109421 -0.5978238225663712 -0.20525421801258623 -0.30905065991204006 0.5814065702148052 -0.15051339611357423 -0.14692927419679103 0.8799895376769206
0.3535396902312431 0.056398658491898596 -0.03188165729574461 -0.05942355777118621 -0.6622973026786533 -0.5772395581630103 -0.046854521812144924 0.8143993887132323
-0.07331726632253126 -0.5281592454516839 0.35274797213107967 0.10879770515827072 -0.14552538181837432 0.8375283664063372 0.7244303411380164 -0.5859850553131069
-0.04757810079310899 0.697949158340712 -0.1846922932840743 -0.5713216231327098 -0.15705733475950928 0.8550273000424076 0.34377158962973986 -0.28337335832924104
